model_stock/dynamic_small_evn_25_lr0.0001_3000EP.pth (torch, 356287 bytes, 16 tensors)

input_layer.weight_mu f4 [128, 43]
0.2759467 -0.15939032 -0.18906431 -0.20977655 0.3629256 -0.4002866 -0.23101424 -0.041071028
-0.058237992 -0.18626368 -0.17666824 2.5472262e-05 -7.847426e-06 1.5962723e-06 8.338324e-05 -7.89018e-05
-3.6979247e-05 1.3089026e-05 0.10138444 -0.37475592 -0.21995065 -0.33982146 0.3437855 -0.37014037
-0.3233821 0.041830286 0.09193106 -0.12816086 -0.35720983 -2.104252e-05 -3.867053e-05 2.970748e-05
-1.2899036e-05 2.9176597e-05 -1.3122437e-05 3.3656288e-05 0.3120535 -0.33999622 -0.24728397 0.035082236
-0.31753924 0.012284949 0.21003707 0.26960588 -0.1423067 -0.37709063 -0.37618464 0.09268103
-0.27440956 -0.33783552 -0.09548151 -0.050533198 -0.2032019 -0.34765038 8.530185e-05 1.9891202e-05
-2.6354719e-05 -8.9850226e-05 4.93806e-05 0.000121139376 -4.271244e-05 0.3381257 -0.20328732 -0.3288977
-0.2991879 0.25750053 -0.1328819 -0.3766272 -0.1935757 0.116272256 -0.14006445 -0.17203939
8.860705e-06 5.858396e-05 -1.1181473e-05 -6.183241e-05 -5.1997755e-05 -3.8841892e-05 0.00011173663 0.30770782
-0.16825998 -0.3469761 0.17063557 -0.24919169 -0.029456947 0.03247591 0.37994578 -0.27022848
-0.3458271 -0.1267331 0.27092654 -0.29475132 -0.2799775 -0.009180641 -0.03628431 -0.22412844
-0.20540583 -4.5845438e-05 2.4884794e-06 -0.00012568041 8.808667e-06 -2.14225e-05 7.57501e-05 -7.9974685e-05
0.19124524 -0.26984757 -0.39075863 -0.18430756 0.21137443 -0.1629232 -0.30362394 -0.122695595
0.1772438 -0.23879103 -0.23493272 2.0534018e-05 -0.00012236126 2.290908e-07 -5.155817e-05 -8.3599305e-05
-8.037012e-05 -4.488056e-05 0.14907593 -0.34179845 -0.30560112 0.20502079 -0.4207354 -0.020940084
0.21128932 0.13075499 -0.32979375 -0.3322482 -0.29421997 0.24370636 -0.1370223 -0.21751563
-0.17078805 -0.002720599 -0.20153911 -0.09582491 -2.5576104e-05 0.00010348982 -8.630023e-05 -2.2965025e-05
-6.629528e-05 9.31137e-05 -5.354736e-05 0.22987178 -0.13842787 -0.21398504 -0.3262418 0.22666255
-0.074177705 -0.069994874 -0.25581047 0.11878808 -0.15973803 -0.26926896 2.514397e-05 -0.00011678431
-4.828722e-05 0.000100080106 8.686647e-05 -0.00013206186 9.620664e-06 0.1891695 -0.23963556 -0.17320807
0.19620083 -0.23753788 -0.053132217 0.025141712 0.26237795 -0.19930422 -0.2951189 -0.39942575
0.14755099 -0.15698083 -0.321858 -0.33697283 -0.021344084 -0.33919886 -0.26707867 -6.799774e-05
3.3261378e-05 -7.2129114e-05 6.55614e-05 6.4995154e-05 -3.900205e-05 3.162973e-05 0.30872267 -0.11217601
-0.22827761 -0.18521409 0.37872866 -0.20976502 -0.18540563 -0.2830256 0.21050607 -0.3261021
-0.20845124 8.554379e-05 3.5500307e-05 -9.927753e-07 -6.0454055e-05 -1.4921665e-05 -7.621948e-05 6.900357e-05
0.35389614 -0.11458028 -0.27782005 0.13298582 -0.25346223 -0.106147036 0.054698132 0.39696997
-0.08057728 -0.21349719 -0.37617692 0.24793892 -0.34247366 -0.1286204 -0.0707411 -0.12415695
-0.105552375 -0.15737878 2.8388728e-05 9.181718e-05 -2.303961e-06 -8.692608e-05 -7.1045055e-05 -0.00012286045
0.00011550674 0.20848326 -0.1934374 -0.32837075 -0.12703703 0.15292206 -0.08371394 -0.3035612
-0.019583 0.018271431 -0.14309074 -0.3112154 -4.7193993e-05 1.40573975e-05 0.00010245684 -2.7021546e-05
3.8640726e-05 -8.5268235e-05 -4.7905378e-05 0.306004 -0.14147171 -0.23827463 0.17432386 -0.17025548
00000000: e348 8d3e 3737 23be 139a 41be aacf 56be
00000010: 62d1 b93e 5ef2 ccbe ff8e 6cbe 183a 28bd
00000020: f68a 6ebd e8bb 3ebe 85e8 34be 44ad d537
00000030: 70a8 03b7 803f d635 09de ae38 1578 a5b8
00000040: 2a1a 1bb8 f098 5b37 a5a2 cf3d 02e0 bfbe
00000050: be3a 61be 14fd adbe a704 b03e 0a83 bdbe
00000060: 5792 a5be 3c56 2b3d 5a46 bc3d 9a3c 03be
00000070: 35e4 b6be 7884 b0b7 2a32 22b8 5434 f937
00000080: f068 58b7 44c0 f437 7028 5cb7 2a2a 0d38
00000090: 7ac5 9f3e fc13 aebe 0238 7dbe 64b2 0f3d
000000a0: 8194 a2be d046 493c f513 573e c809 8a3e
000000b0: d9b8 11be 0612 c1be 469b c0be 8dcf bd3d
000000c0: 697f 8cbe c7f8 acbe cf8b c3bd e6fb 4ebd
000000d0: 2914 50be 3bff b1be 15e4 b238 08dc a637
000000e0: 5414 ddb7 f96d bcb8 041e 4f38 350c fe38
000000f0: 2226 33b8 d01e ad3e 8d2a 50be 4865 a8be
00000100: 282f 99be 1cd7 833e 3112 08be 48d5 c0be
00000110: b538 46be 2620 ee3d 0e6d 0fbe 182b 30be
00000120: 70a8 1437 0cb8 7538 1098 3bb7 06ac 81b8
00000130: 2a18 5ab8 2aea 22b8 2554 ea38 e18b 9d3e
00000140: 584c 2cbe daa6 b1be 17bb 2e3e 1b2c 7fbe
00000150: b24f f1bc 7605 053d 4188 c23e 635b 8abe
00000160: 4010 b1be 52c6 01be e2b6 8a3e a5e9 96be
00000170: 3659 8fbe 666a 16bc db9e 14bd ed81 65be
00000180: e855 52be 2a4a 40b8 c0ff 2636 14c9 03b9
00000190: f0c8 1337 78b4 b3b7 06dc 9e38 15b8 a7b8
000001a0: cbd5 433e 7629 8abe 8411 c8be 1fbb 3cbe
000001b0: 8a72 583e 57d5 26be 9974 9bbe d447 fbbd
000001c0: 667f 353e a385 74be 3492 70be 7840 ac37
000001d0: 1a4e 00b9 00fc 7534 2a40 58b8 0952 afb8
000001e0: 618c a8b8 223e 3cb8 5ca7 183e 3500 afbe
000001f0: c077 9cbe f8f0 513e a16a d7be 8a8a abbc
00000200: 3a5c 583e a3e4 053e bada a8be 701c aabe
00000210: 00a4 96be 298e 793e 934f 0cbe 6bbc 5ebe
00000220: 10e3 2ebe 144c 32bb 4560 4ebe da3f c4bd
00000230: 448c d6b7 ad08 d938 15fc b4b8 04a5 c0b7
00000240: 0208 8bb8 0946 c338 0a98 60b8 8263 6b3e
00000250: 09c0 0dbe e51e 5bbe 2a09 a7be 3a1a 683e
00000260: 7bea 97bd 7959 8fbd 97f9 82be 2a47 f33d
00000270: 5e92 23be 9fdd 89be 44ec d237 19ea f4b8
00000280: 0288 4ab8 19e2 d138 152c b638 167a 0ab9
00000290: 7068 2137 a6b5 413e 0663 75be 755d 31be
000002a0: dfe8 483e 213d 73be 2ba1 59bd fef5 cd3c
000002b0: 6756 863e 6816 4cbe d319 97be 8881 ccbe
000002c0: 9b17 173e 95bf 20be 92ca a4be b487 acbe
000002d0: cad9 aebc 79ab adbe 89be 88be 029a 8eb8
000002e0: 2282 0b38 0644 97b8 027e 8938 024e 8838
000002f0: 2296 23b8 2aaa 0438 e610 9e3e 89bc e5bd
00000300: 9bc1 69be c3a8 3dbe b9e8 c13e a4cc 56be
00000310: f9da 3dbe bbe8 90be e78e 573e dbf6 a6be
00000320: 3e74 55be f965 b338 2ae6 1438 803f 85b5
00000330: 0c90 7db8 1058 7ab7 06d8 9fb8 02b6 9038
00000340: e031 b53e 11a9 eabd 6e3e 8ebe 6f2d 083e
00000350: cdc5 81be 9e63 d9bd 260b 603d a63f cb3e
00000360: b305 a5bd 029f 5abe 439a c0be b3e3 7d3e
00000370: b558 afbe 11b5 03be b6e0 90bd 0046 febd
00000380: d82b d8bd e727 21be 5424 ee37 f98d c038
00000390: c09d 1ab6 154c b6b8 06fe 94b8 1ad4 00b9
000003a0: 353c f238 a37c 553e 7414 46be 3620 a8be
000003b0: ff15 02be 9a97 1c3e 3772 abbd 606c 9bbe
000003c0: 876c a0bc f8ad 953c 6186 12be a057 9fbe
000003d0: 2af2 45b8 10d8 6b37 19de d638 54ac e2b7
000003e0: 2a12 2238 09d2 b2b8 02ee 48b8 8eac 9c3e
000003f0: f6dd 10be 44fe 73be f481 323e 7457 2ebe

input_layer.weight_log_sigma f4 [128, 43]
-0.67674446 -0.95399046 -0.7687597 -0.8939805 -0.6661427 -0.8763776 -0.69594765 -0.67734456
-0.63093686 -0.5963311 -0.836571 -0.6931472 -0.6931472 -0.6931472 -0.6931472 -0.6931472
-0.6931472 -0.6931472 -0.7293532 -0.8867793 -0.78216195 -0.8759775 -0.6753442 -0.8559742
-0.7311535 -0.6853459 -0.6539407 -0.8251691 -0.94318867 -0.6931472 -0.6931472 -0.6931472
-0.6931472 -0.6931472 -0.6931472 -0.6931472 -0.7969644 -0.8951807 -0.80756617 -0.85437393
-0.8377712 -0.8431721 -0.89238024 -0.5541241 -0.8751774 -0.8383713 -0.88877964 -0.61953497
-0.89558077 -0.65794134 -0.7233522 -0.7679596 -0.7991648 -0.80256534 -0.6931472 -0.6931472
-0.6931472 -0.6931472 -0.6931472 -0.6931472 -0.6931472 -0.75555754 -0.80736613 -0.86657596
-0.87917805 -0.72135186 -0.818568 -0.55792475 -0.6553409 -0.5703268 -0.6973479 -0.8705766
-0.6931472 -0.6931472 -0.6931472 -0.6931472 -0.6931472 -0.6931472 -0.6931472 -0.6925471
-0.8627753 -0.78696275 -0.9305866 -0.84417224 -0.9191847 -0.9561908 -0.66714287 -0.75795794
-0.8149674 -0.8831787 -0.7385547 -0.8349707 -0.80376554 -0.79236364 -0.6937473 -0.6143341
-0.91658425 -0.6931472 -0.6931472 -0.6931472 -0.6931472 -0.6931472 -0.6931472 -0.6931472
-0.6835456 -0.90938306 -0.7913635 -0.957391 -0.7715602 -0.8565743 -0.5451226 -0.6125338
-0.49991515 -0.69174695 -0.9241855 -0.6931472 -0.6931472 -0.6931472 -0.6931472 -0.6931472
-0.6931472 -0.6931472 -0.6623421 -0.94658923 -0.67494416 -0.92138505 -0.83057 -0.7925637
-0.8451724 -0.7306534 -0.8558742 -0.72305214 -0.87987816 -0.8162676 -0.8982812 -0.7216519
-0.7130505 -0.6370379 -0.7228521 -0.8378712 -0.6931472 -0.6931472 -0.6931472 -0.6931472
-0.6931472 -0.6931472 -0.6931472 -0.64943993 -0.7618586 -0.68084514 -0.9006816 -0.58322895
-0.81826794 -0.7142507 -0.7234522 -0.7994648 -0.75145686 -0.9064826 -0.6931472 -0.6931472
-0.6931472 -0.6931472 -0.6931472 -0.6931472 -0.6931472 -0.6468395 -0.80626595 -0.7150508
-0.8832787 -0.83467066 -0.94068825 -0.8452724 -0.6029322 -0.89438057 -0.73275375 -0.92378545
-0.7211518 -0.90518236 -0.7063494 -0.77376056 -0.7539573 -0.71095014 -0.8699765 -0.6931472
-0.6931472 -0.6931472 -0.6931472 -0.6931472 -0.6931472 -0.6931472 -0.70014834 -0.90758276
-0.55132365 -0.9085829 -0.6847458 -0.85757446 -0.78216195 -0.51211715 -0.78036165 -0.63093686
-0.8903799 -0.6931472 -0.6931472 -0.6931472 -0.6931472 -0.6931472 -0.6931472 -0.6931472
-0.55732465 -0.9145839 -0.7229521 -0.8687763 -0.79176354 -0.81896806 -0.9107833 -0.661942
-0.8633754 -0.69054675 -0.860975 -0.7505567 -0.7865627 -0.9071827 -0.5751276 -0.73935485
-0.6865461 -0.94558907 -0.6931472 -0.6931472 -0.6931472 -0.6931472 -0.6931472 -0.6931472
-0.6931472 -0.6343374 -0.9131837 -0.56692624 -0.9193847 -0.6721437 -0.9245856 -0.83077
-0.80976653 -0.8023653 -0.77036 -0.82136846 -0.6931472 -0.6931472 -0.6931472 -0.6931472
-0.6931472 -0.6931472 -0.6931472 -0.6787448 -0.8975811 -0.6089332 -0.87197685 -0.8679762
00000000: 203f 2dbf b838 74bf 70cd 44bf e8db 64bf
00000010: 5488 2abf 485a 60bf a029 32bf 7466 2dbf
00000020: 1485 21bf 28a9 18bf 8429 56bf 1872 31bf
00000030: 1872 31bf 1872 31bf 1872 31bf 1872 31bf
00000040: 1872 31bf 1872 31bf e4b6 3abf f803 63bf
00000050: c43b 48bf 1040 60bf 5ce3 2cbf 2021 5bbf
00000060: e02c 3bbf d472 2fbf a868 27bf 483e 53bf
00000070: d074 71bf 1872 31bf 1872 31bf 1872 31bf
00000080: 1872 31bf 1872 31bf 1872 31bf 1872 31bf
00000090: dc05 4cbf 902a 65bf a8bc 4ebf 40b8 5abf
000000a0: 2c78 56bf 20da 57bf 0873 64bf 14db 0dbf
000000b0: a00b 60bf 809f 56bf 1087 63bf d899 1ebf
000000c0: c844 65bf d86e 28bf 9c2d 39bf 0099 44bf
000000d0: 1096 4cbf ec74 4dbf 1872 31bf 1872 31bf
000000e0: 1872 31bf 1872 31bf 1872 31bf 1872 31bf
000000f0: 1872 31bf 386c 41bf 8caf 4ebf ecd7 5dbf
00000100: d011 61bf 84aa 38bf ac8d 51bf 28d4 0ebf
00000110: 6cc4 27bf f000 12bf 6485 32bf 1cde 5ebf
00000120: 1872 31bf 1872 31bf 1872 31bf 1872 31bf
00000130: 1872 31bf 1872 31bf 1872 31bf c44a 31bf
00000140: d8de 5cbf 6476 49bf ec3a 6ebf ac1b 58bf
00000150: b04f 6bbf ecc8 74bf e0c9 2abf 8809 42bf
00000160: b4a1 50bf 0018 62bf ec11 3dbf a4c0 55bf
00000170: 94c3 4dbf 58d8 4abf 6c99 31bf 0045 1dbf
00000180: 44a5 6abf 1872 31bf 1872 31bf 1872 31bf
00000190: 1872 31bf 1872 31bf 1872 31bf 1872 31bf
000001a0: d8fc 2ebf 54cd 68bf cc96 4abf 9417 75bf
000001b0: f884 45bf 7448 5bbf 288d 0bbf 04cf 1cbf
000001c0: e1f4 ffbe 5416 31bf 6c97 6cbf 1872 31bf
000001d0: 1872 31bf 1872 31bf 1872 31bf 1872 31bf
000001e0: 1872 31bf 1872 31bf 408f 29bf ac53 72bf
000001f0: 24c9 2cbf e4df 6bbf 3ca0 54bf 74e5 4abf
00000200: 385d 58bf 1a0c 3bbf 921a 5bbf f219 39bf
00000210: b23f 61bf eaf6 50bf c2f5 65bf 2ebe 38bf
00000220: 7a8a 36bf ea14 23bf d60c 39bf ba7e 56bf
00000230: 1872 31bf 1872 31bf 1872 31bf 1872 31bf
00000240: 1872 31bf 1872 31bf 1872 31bf b241 26bf
00000250: 2a09 43bf de4b 2ebf 1293 66bf 7e4e 15bf
00000260: 027a 51bf 22d9 36bf 2a34 39bf baa9 4cbf
00000270: 7a5f 40bf 3e0f 68bf 1872 31bf 1872 31bf
00000280: 1872 31bf 1872 31bf 1872 31bf 1872 31bf
00000290: 1872 31bf 4697 25bf 7267 4ebf 920d 37bf
000002a0: 8e1e 62bf faac 55bf f2d0 70bf c663 58bf
000002b0: c459 1abf 20f6 64bf c095 3bbf 347d 6cbf
000002c0: 689d 38bf 08ba 67bf 50d3 34bf 2c15 46bf
000002d0: 5803 41bf d400 36bf c8b6 5ebf 1872 31bf
000002e0: 1872 31bf 1872 31bf 1872 31bf 1872 31bf
000002f0: 1872 31bf 1872 31bf ec3c 33bf 5857 68bf
00000300: 8c23 0dbf e498 68bf 804b 2fbf 008a 5bbf
00000310: c43b 48bf 1c1a 03bf c8c5 47bf 1485 21bf
00000320: f0ef 63bf 1872 31bf 1872 31bf 1872 31bf
00000330: 1872 31bf 1872 31bf 1872 31bf 1872 31bf
00000340: d4ac 0ebf 2c22 6abf 6413 39bf 2068 5ebf
00000350: 04b1 4abf e4a7 51bf 1829 69bf 0875 29bf
00000360: 2c06 5dbf acc7 30bf dc68 5cbf 7c24 40bf
00000370: 2c5c 49bf 203d 68bf 903b 13bf 5c46 3dbf
00000380: 7cc1 2fbf 2012 72bf 1872 31bf 1872 31bf
00000390: 1872 31bf 1872 31bf 1872 31bf 1872 31bf
000003a0: 1872 31bf f063 22bf 68c6 69bf 1422 11bf
000003b0: cc5c 6bbf 9c11 2cbf a4b1 6cbf 58ad 54bf
000003c0: dc4c 4fbf d067 4dbf 5036 45bf 3445 52bf
000003d0: 1872 31bf 1872 31bf 1872 31bf 1872 31bf
000003e0: 1872 31bf 1872 31bf 1872 31bf 38c2 2dbf
000003f0: e0c7 65bf 0ce3 1bbf e039 5fbf b033 5ebf

input_layer.bias_mu f4 [128]
-0.19156554 -0.09455728 -0.25887218 -0.20981525 -0.3864388 -0.1101102 -0.39712256 -0.38200963
-0.027561026 -0.10271099 -0.3002439 -0.16939977 -0.2751362 -0.24150078 -0.3044704 -0.20679136
-0.17152429 -0.1822432 -0.34839362 -0.29823634 -0.42801082 -0.24453928 -0.21560767 -0.13462444
-0.18659057 -0.30278206 -0.23339048 -0.20074393 -0.24569623 -0.16491057 -0.16327295 -0.1050893
-0.2864208 -0.23818181 -0.37733227 -0.21736221 -0.28373712 -0.09179928 -0.30340537 -0.35801017
-0.08034665 -0.2658308 -0.30105796 -0.43419373 -0.20592056 -0.09057671 -0.23894121 -0.1694157
-0.35103524 -0.21612 -0.26455253 -0.25244582 -0.17169942 -0.15814073 -0.30004472 -0.20839122
-0.27239928 -0.1582628 -0.07389538 -0.049284738 -0.21493019 -0.39967257 -0.35607648 -0.3261913
-0.35365558 -0.25019526 -0.36148602 -0.37161496 -0.25562343 -0.26805645 -0.13412192 -0.4177668
-0.38986853 -0.12011239 -0.120602 -0.3242845 -0.11015266 -0.29172274 -0.12485206 -0.32681635
-0.37968686 -0.27409238 -0.13257696 -0.1317704 -0.2482082 -0.074038126 -0.4005119 -0.40445694
-0.2094033 -0.2240635 -0.052229457 -0.2943047 -0.31492066 -0.17357993 -0.07139171 -0.26445594
-0.38042936 -0.09594233 -0.26576218 -0.12549035 -0.08632958 -0.10196558 -0.30584052 -0.2286408
-0.20876081 -0.2212115 -0.2814728 -0.16023394 -0.3512382 -0.32330057 -0.26591292 -0.20559062
-0.26414248 -0.28939685 -0.30292633 -0.40992677 -0.11769557 -0.23826659 -0.32842982 -0.16255234
-0.29311174 -0.15323602 -0.06764535 -0.2795132 -0.4076398 -0.2273922 -0.26016504 -0.12851238
00000000: c229 44be 3fa7 c1bd e58a 84be cfd9 56be
00000010: 4edb c5be 7581 e1bd a653 cbbe c496 c3be
00000020: a9c7 e1bc 245a d2bd 92b9 99be 2277 2dbe
00000030: a7de 8cbe fb4b 77be 8be3 9bbe 1dc1 53be
00000040: 10a4 2fbe f69d 3abe a660 b2be 6fb2 98be
00000050: 3c24 dbbe 8168 7abe 42c8 5cbe fdda 09be
00000060: 9911 3fbe 4006 9bbe eafd 6ebe d18f 4dbe
00000070: cb97 7bbe 51de 28be 0631 27be 0f39 d7bd
00000080: bfa5 92be efe5 73be b231 c1be 3394 5ebe
00000090: fe45 91be 4301 bcbd f357 9bbe 1c4d b7be
000000a0: c98c a4bd fa1a 88be 4524 9abe a44e debe
000000b0: d7dc 52be 4880 b9bd 01ad 74be 4f7b 2dbe
000000c0: e4ba b3be 904e 5dbe 6e73 87be 9440 81be
000000d0: f9d1 2fbe a5ef 21be 769f 99be 8264 55be
000000e0: eb77 8bbe a50f 22be 7656 97bd cbde 49bd
000000f0: a916 5cbe e2a1 ccbe a84f b6be 8c02 a7be
00000100: 5812 b5be 9819 80be b214 b9be 5144 bebe
00000110: 13e1 82be b23e 89be 4257 09be 88e5 d5be
00000120: d99c c7be 7cfd f5bd 2efe f6bd 9e08 a6be
00000130: b897 e1bd af5c 95be 70b2 ffbd 7954 a7be
00000140: 5166 c2be d655 8cbe 41c2 07be d2ee 06be
00000150: 4a2a 7ebe 4da1 97bd e50f cdbe fb14 cfbe
00000160: d26d 56be e770 65be 8eee 55bd 1baf 96be
00000170: 483d a1be f0be 31be d135 92bd c566 87be
00000180: a3c7 c2be 6a7d c4bd fb11 88be 8b80 00be
00000190: 90cd b0bd 54d3 d0bd 2197 9cbe d020 6abe
000001a0: 65c5 55be 4485 62be 341d 90be 5e14 24be
000001b0: 7ed5 b3be a787 a5be bd25 88be 5986 52be
000001c0: af3d 87be d32b 94be 2919 9bbe ece1 d1be
000001d0: 600a f1bd 28fc 73be f427 a8be 1f74 26be
000001e0: be12 96be e7e9 1cbe a589 8abd 5b1c 8fbe
000001f0: 2ab6 d0be 80d9 68be 5a34 85be c098 03be

input_layer.bias_log_sigma f4 [128]
-0.878778 -0.9221852 -0.91598415 -0.78746283 -0.87617755 -0.9095831 -0.734354 -0.9493897
-0.8691764 -0.89738107 -0.98779607 -0.7227521 -0.9251857 -0.85137343 -0.8391714 -0.8624753
-0.9579911 -0.9697931 -0.92018485 -0.9317868 -0.80516577 -0.95339036 -0.90928304 -0.90818286
-0.9299865 -0.9347873 -0.91238356 -0.91118336 -0.9198848 -0.7859626 -0.96779275 -0.8757775
-0.86777616 -0.9615917 -0.9053824 -0.7547574 -0.7952641 -0.87317705 -0.8921802 -0.9258858
-0.87137675 -0.7557576 -0.866976 -0.9820951 -0.83757114 -0.91538405 -0.96719265 -0.8325703
-0.8337705 -0.97559404 -0.90508235 -0.8681762 -0.9439888 -0.91888463 -0.84897304 -0.8662759
-0.9168843 -0.8445723 -0.80876637 -0.9018818 -0.95279026 -0.8699765 -0.90638256 -0.9131837
-0.8775778 -0.9053824 -0.78626263 -0.7997649 -0.8842789 -0.8855791 -0.96479225 -0.93338704
-0.92858624 -0.8919802 -0.97799444 -0.9359875 -0.7939639 -0.8841789 -0.8921802 -0.8205683
-0.9275861 -0.85877466 -0.92798615 -0.84717274 -0.88707936 -0.8529737 -0.8697765 -0.89898133
-0.9125836 -0.9265859 -0.7847624 -0.79296374 -0.84797287 -0.8089664 -0.97859454 -0.7379546
-0.83046997 -0.85037327 -0.89618087 -0.83387053 -0.8753774 -0.93758774 -0.9795947 -0.7735605
-0.91528404 -0.7589581 -0.9083829 -0.9085829 -0.7901633 -0.8986813 -0.88697934 -0.89898133
-0.94138837 -0.8582746 -0.8895798 -0.9355874 -0.83997154 -0.7933638 -0.94498897 -0.8747773
-0.9565909 -0.87917805 -0.83587086 -0.7981646 -0.92678595 -0.9163842 -0.9275861 -0.9439888
00000000: 98f7 60bf 5414 6cbf f07d 6abf 2a97 49bf
00000010: 2c4d 60bf 70da 68bf a0fe 3bbf 340b 73bf
00000020: 5882 5ebf c4ba 65bf 34e0 7cbf 4806 39bf
00000030: f8d8 6cbf 9cf3 59bf f0d3 56bf 2ecb 5cbf
00000040: e83e 75bf 5c44 78bf 3c91 6bbf 9489 6ebf
00000050: 581f 4ebf 6411 74bf c6c6 68bf ac7e 68bf
00000060: 9813 6ebf 384e 6fbf f891 69bf 5043 69bf
00000070: 927d 6bbf d834 49bf 44c1 77bf f432 60bf
00000080: 9426 5ebf e02a 76bf 24c7 67bf c837 41bf
00000090: 6e96 4bbf 8888 5fbf ec65 64bf da06 6dbf
000000a0: 8c12 5fbf 5479 41bf 24f2 5dbf 966a 7bbf
000000b0: 106b 56bf 9c56 6abf f099 77bf 5423 55bf
000000c0: fc71 55bf 88c0 79bf 7ab3 67bf cc40 5ebf
000000d0: 40a9 71bf 063c 6bbf 4c56 59bf 42c4 5dbf
000000e0: eeb8 6abf e435 58bf 500b 4fbf bae1 66bf
000000f0: 10ea 73bf c8b6 5ebf b008 68bf 68c6 69bf
00000100: f0a8 60bf 24c7 67bf 8248 49bf 64bd 4cbf
00000110: 1a60 62bf 50b5 62bf a0fc 76bf 74f2 6ebf
00000120: d4b7 6dbf d058 64bf d85d 7abf e09c 6fbf
00000130: 3841 4bbf 8c59 62bf ec65 64bf c410 52bf
00000140: 4876 6dbf a8d8 5bbf 8090 6dbf 50e0 58bf
00000150: a217 63bf 7c5c 5abf aca9 5ebf a423 66bf
00000160: 149f 69bf bc34 6dbf 30e6 48bf acff 4abf
00000170: c014 59bf 6c18 4fbf 2c85 7abf 98ea 3cbf
00000180: ae99 54bf 10b2 59bf 1c6c 65bf 8a78 55bf
00000190: bc18 60bf c005 70bf b8c6 7abf 1008 46bf
000001a0: 0e50 6abf 144b 42bf c88b 68bf e498 68bf
000001b0: 2448 4abf fa0f 66bf 1411 63bf a423 66bf
000001c0: d4fe 70bf e2b7 5bbf 80bb 63bf a882 6fbf
000001d0: 6008 57bf e419 4bbf ccea 71bf 68f1 5fbf
000001e0: 24e3 74bf d011 61bf a2fb 55bf 8454 4cbf
000001f0: d841 6dbf 2898 6abf 4876 6dbf 40a9 71bf

hidden1_layer.weight_mu f4 [128, 128]
-0.19269305 -0.21913975 0.052732818 -0.048197493 -0.31348893 -0.11401786 -0.039826863 -0.031255744
-0.14622745 -0.1814183 -0.18894213 -0.02568072 -0.11457221 -0.24952571 -0.014092736 -0.2009928
-0.0823323 -0.030065544 -0.22211641 -0.08814393 -0.20918246 -0.14465447 -0.080532014 -0.050863743
0.04049521 -0.09447269 0.044296928 -0.10387809 -0.04302624 0.0010980684 0.020017458 0.004384609
-0.17762531 -0.13824531 0.07701811 0.067298874 -0.102708444 -0.23582673 -0.20270096 -0.17922002
-0.036372572 0.008363461 -0.11560524 -0.15839162 -0.013247961 -0.08315772 -0.17447396 -0.03863196
-0.18535353 -0.09113698 -0.045249797 -0.041848496 -0.08407971 -0.11906096 -0.060181543 -0.109383866
-0.037552632 -0.007258974 -0.009076875 0.043720894 -0.06867284 -0.11722782 -0.09405129 -0.090647876
-0.28135327 0.1302581 -0.016265009 -0.1923417 -0.07068333 -0.07024689 -0.0006064691 -0.15157616
-0.066329375 -0.14166833 -0.23301119 -0.12738582 -0.08093864 -0.08400652 -0.12523298 0.010513525
-0.22061339 0.054078348 -0.05339119 -0.04283759 -0.14042847 -0.093985096 -0.029346533 -0.06336312
-0.18929477 -0.049640037 -0.1344288 -0.058960102 -0.11763348 -0.17183901 0.015877403 -0.08549856
-0.11237447 -0.05529981 -0.103321314 0.04781955 0.0014706798 -0.04696191 -0.049815707 -0.10276143
0.005890224 -0.098508924 -0.12019694 -0.1586934 -0.04256858 0.016034165 -0.032686446 -0.16583228
0.016686898 -0.01884147 -0.014436962 0.029405935 -0.0626744 -0.065694585 -0.101473555 -0.055658206
-0.16175711 -0.09945731 -0.102642044 -0.22364174 -0.00657594 0.0793603 -0.09594464 -0.17585906
-0.20832747 0.08813206 0.06694731 -0.04016476 -0.036101557 0.032816842 -0.12313406 -0.07194671
-0.14052497 -0.13274525 -0.09602837 -0.23726094 -0.00638503 -0.07179518 0.0011054147 -0.16426712
-0.107088685 -0.07740709 -0.039696813 -0.12690422 0.013289619 0.038877953 -0.045219094 -0.022497043
-0.16290845 -0.014700446 -0.024666231 -0.16138998 -0.0751696 0.008122489 -0.101724416 -0.11593591
-0.16899207 -0.21307953 0.032337423 -0.12003188 -0.098723546 -0.12527591 -0.12168628 -0.039617762
-0.05738029 0.05016294 -0.26319215 -0.050039157 0.030259483 -0.018965712 -0.2972748 0.043389495
-0.13334179 -0.05929047 0.021574436 -0.32139125 -0.20447637 -0.17848153 -0.17663789 -0.1432964
0.014282968 0.0037217694 0.017439017 -0.064636804 -0.04946173 -0.053845152 -0.12278404 -0.077861965
0.0019989621 -0.11420513 -0.20738828 0.021548398 -0.032346055 -0.04924582 -0.10231198 0.03657147
-0.19388819 0.022951985 -0.016163586 0.00015068261 0.057677295 -0.013542961 -0.21659726 -0.30103105
-0.16552092 -0.057595827 -0.018559119 -0.044202447 0.11836572 -0.055894442 0.013751222 -0.11635508
-0.02534455 -0.030161304 -0.0499963 -0.09565425 -0.00053717295 -0.053629503 -0.2675173 -0.20667657
-0.046246663 -0.23135881 -0.109813884 0.007875778 0.015396262 -0.0972821 -0.12912965 -0.18868189
-0.20207928 -0.20401353 -0.08303179 -0.08993191 -0.16916376 0.0064296555 0.11993968 -0.11188546
0.021659184 -0.08189407 -0.0671235 -0.11706701 0.014135946 -0.15982759 -0.047574334 -0.11989637
0.012166383 -0.04500231 -0.18346398 -0.11538866 -0.16660078 -0.1061019 0.06302367 -0.0019772472
00000000: 5451 45be 2c66 60be 5efe 573d bc6a 45bd
00000010: 9f81 a0be 3282 e9bd 7e21 23bd 0606 00bd
00000020: a6bc 15be b8c5 39be 0c7a 41be 6060 d2bc
00000030: d6a4 eabd ab83 7fbe 38e5 66bc 0ed1 4dbe
00000040: d69d a8bd 044c f6bc 7c72 63be ce84 b4bd
00000050: ed33 56be 4d20 14be f8ed a4bd 8056 50bd
00000060: 4ede 253d e67a c1bd b270 353d 09be d4bd
00000070: 483c 30bd 10ed 8f3a a7fb a33c c4ac 8f3b
00000080: 69e3 35be 2e90 0dbe acbb 9d3d fed3 893d
00000090: ce58 d2bd 907c 71be d790 4fbe 7485 37be
000000a0: 68fb 14bd e606 093c 71c2 ecbd 6a31 22be
000000b0: fa0d 59bc 984e aabd 4da9 32be 8c3c 1ebd
000000c0: 51cd 3dbe 06a6 babd da57 39bd 5469 2bbd
000000d0: fc31 acbd 3cd6 f3bd ec80 76bd a604 e0bd
000000e0: cad0 19bd b0dc edbb 2cb7 14bc ae14 333d
000000f0: 59a4 8cbd 2415 f0bd f69d c0bd 98a5 b9bd
00000100: 890d 90be 6162 053e 323e 85bc 39f5 44be
00000110: 6cc2 90bd 9add 8fbd 74fb 1eba c836 1bbe
00000120: b2d7 87bd 8111 11be 7c9a 6ebe 6e71 02be
00000130: 28c3 a5bd 9c0b acbd 133d 00be ec40 2c3c
00000140: 7ae8 61be 4281 5d3d b8b0 5abd 7876 2fbd
00000150: 7bcc 0fbe 427b c0bd 2468 f0bc 86c4 81bd
00000160: 7dd6 41be 5a53 4bbd b4a7 09be 2680 71bd
00000170: d2e9 f0bd 91f6 2fbe 5411 823c de19 afbd
00000180: 9624 e6bd 0e82 62bd 209a d3bd 6fde 433d
00000190: d3c3 c03a 225b 40bd 8e0b 4cbd 9674 d2bd
000001a0: c802 c13b 0cbf c9bd d029 f6bd 8680 22be
000001b0: 645c 2ebd 155a 833c 39e2 05bd f0cf 29be
000001c0: f6b2 883c 6d59 9abc 0289 6cbc b7e4 f03c
000001d0: 705b 80bd e28a 86bd 5ed1 cfbd dcf9 63bd
000001e0: a8a3 25be 46b0 cbbd fe35 d2bd 5702 65be
000001f0: fc7a d7bb a787 a23d a07e c4bd 6614 34be
00000200: cc53 55be 957e b43d ac1b 893d ce83 24bd
00000210: 3adf 13bd f46a 063d b62d fcbd cc58 93bd
00000220: c7e5 0fbe 5fee 07be 86aa c4bd 88f4 72be
00000230: 8439 d1bb 5a09 93bd 90e3 903a a435 28be
00000240: 5051 dbbd 9c87 9ebd 2099 22bd 2ef3 01be
00000250: b4bc 593c 7d3e 1f3d a837 39bd b84b b8bc
00000260: 79d1 26be 24da 70bc d610 cabc 6a43 25be
00000270: 85f2 99bd 3014 053c e454 d0bd ce6f edbd
00000280: 420c 2dbe 8531 5abe 3f74 043d 46d3 f5bd
00000290: 922f cabd 5448 00be a836 f9bd 3c46 22bd
000002a0: 9807 6bbd a877 4d3d 1fc1 86be dcf5 4cbd
000002b0: bce2 f73c fb5d 9bbc 6734 98be 2fb9 313d
000002c0: c08a 08be 90da 72bd dfbc b03c 658d a4be
000002d0: 4162 51be ddc3 36be 90e0 34be 4bbc 12be
000002e0: 1c03 6a3c eee8 733b 45dc 8e3c 4d60 84bd
000002f0: 6298 4abd bc8c 5cbd 3376 fbbd 1876 9fbd
00000300: 0501 033b 61e4 e9bd 985d 54be 4486 b03c
00000310: 4c7d 04bd fcb5 49bd f288 d1bd f7cb 153d
00000320: a08a 46be cd05 bc3c 7f69 84bc 8e00 1e39
00000330: 073f 6c3d 4ce3 5dbc accb 5dbe be20 9abe
00000340: 517e 29be 9ae9 6bbd 4b09 98bc a00d 35bd
00000350: ba69 f23d 92f1 64bd ce4c 613c 924b eebd
00000360: 609f cfbc d714 f7bc ecc8 4cbd 60e6 c3bd
00000370: 11d1 0cba 9caa 5bbd 07f8 88be 06a3 53be
00000380: 246d 3dbd 53e9 6cbe 1ae6 e0bd 6809 013c
00000390: 9a40 7c3c d63b c7bd 903a 04be d335 41be
000003a0: dfed 4ebe ece8 50be 920c aabd 392e b8bd
000003b0: 4439 2dbe dcaf d23b efa2 f53d 3424 e5bd
000003c0: 9a6e b13c 14b8 a7bd 0c78 89bd d4c0 efbd
000003d0: 749a 673c d8a9 23be 4edd 42bd 3a8c f5bd
000003e0: 8255 473c 5854 38bd fbdd 3bbe e450 ecbd
000003f0: 6599 2abe f44b d9bd 8e12 813d b494 01bb

hidden1_layer.weight_log_sigma f4 [128, 128]
-0.6359377 -0.7289531 -0.77036 -0.6190349 -0.8745773 -0.8299699 -0.71655107 -0.7493565
-0.7431555 -0.842772 -0.8223686 -0.7059493 -0.836571 -0.7681596 -0.7607584 -0.7672595
-0.82616925 -0.64533925 -0.86957645 -0.7505567 -0.6407385 -0.5843291 -0.7136506 -0.8167677
-0.8775778 -0.7457559 -0.69174695 -0.836571 -0.71705115 -0.6903467 -0.61403406 -0.7721603
-0.6329372 -0.87737775 -0.71895146 -0.8481729 -0.6840457 -0.8299699 -0.7353542 -0.71465075
-0.75495744 -0.7299533 -0.78996325 -0.9246856 -0.7347541 -0.70854974 -0.7275529 -0.63813806
-0.8329704 -0.6765444 -0.8208684 -0.8223686 -0.8879795 -0.9402882 -0.7913635 -0.836871
-0.87487733 -0.66094184 -0.71415067 -0.7656592 -0.8637755 -0.84117174 -0.60253215 -0.90158176
-0.9193847 -0.7277529 -0.7632588 -0.7203517 -0.63203704 -0.57772803 -0.66874313 -0.62593603
-0.9311867 -0.8783779 -0.71355057 -0.7789614 -0.81946814 -0.6443391 -0.6095333 -0.58452916
-0.794564 -0.71035004 -0.674144 -0.5951309 -0.6406385 -0.73755455 -0.76655936 -0.85997486
-0.7323537 -0.7299533 -0.6481397 -0.85497403 -0.70914984 -0.66994333 -0.7045491 -0.6445391
-0.6584414 -0.85457397 -0.69594765 -0.64483917 -0.7557576 -0.7648591 -0.8235688 -0.80276537
-0.7058493 -0.704149 -0.84177184 -0.812567 -0.77496076 -0.75925815 -0.7919636 -0.71955156
-0.58332896 -0.6788448 -0.80256534 -0.5373213 -0.7313535 -0.83937144 -0.70014834 -0.76395893
-0.62773633 -0.7437556 -0.5638257 -0.8837788 -0.6793449 -0.7205517 -0.7999649 -0.67494416
-0.842672 -0.7072495 -0.7898632 -0.66584265 -0.90388215 -0.5478231 -0.76525915 -0.8028654
-0.6606418 -0.7252525 -0.5950309 -0.8662759 -0.66824305 -0.62303555 -0.47341865 -0.6822454
-0.7446557 -0.73705447 -0.6764444 -0.866676 -0.7674595 -0.66704285 -0.59663117 -0.7624587
-0.89488065 -0.6270362 -0.6540407 -0.81046665 -0.78766286 -0.75385725 -0.8614751 -0.6927471
-0.7232522 -0.77926147 -0.5028156 -0.8829787 -0.64883983 -0.87907803 -0.77486074 -0.7776612
-0.81346714 -0.7112502 -0.7482563 -0.6570412 -0.6768445 -0.8438722 -0.75985825 -0.6408385
-0.73745453 -0.82966983 -0.6542407 -0.7974645 -0.83707106 -0.728053 -0.8612751 -0.83026993
-0.7258526 -0.78166187 -0.6662427 -0.848673 -0.8782779 -0.68504584 -0.9246856 -0.60203207
-0.6626421 -0.8030654 -0.9162842 -0.7786614 -0.67784464 -0.6968478 -0.860675 -0.82366884
-0.8276695 -0.8282696 -0.5890299 -0.7426554 -0.55182374 -0.7872628 -0.85567415 -0.92488563
-0.79666436 -0.7240523 -0.7238523 -0.8540739 -0.71765125 -0.81046665 -0.6214353 -0.69664776
-0.91908467 -0.7036489 -0.91968477 -0.68384564 -0.704049 -0.8294698 -0.8344706 -0.91588414
-0.72545254 -0.7716602 -0.78026164 -0.7304534 -0.66344225 -0.67004335 -0.88227856 -0.7698599
-0.884879 -0.7922636 -0.81286705 -0.8982812 -0.8060659 -0.7120503 -0.6998483 -0.79176354
-0.83647096 -0.7546574 -0.55682456 -0.6684431 -0.7004484 -0.70264876 -0.643839 -0.77486074
-0.8234688 -0.83587086 -0.758258 -0.7262527 -0.60863316 -0.933287 -0.7264527 -0.67244375
00000000: d0cc 22bf ac9c 3abf 5036 45bf 1279 1ebf
00000010: 4ce4 5fbf e878 54bf e46f 37bf d4d5 3fbf
00000020: 703f 3ebf e8bf 57bf c086 52bf 18b9 34bf
00000030: 8429 56bf 1ca6 44bf 10c1 42bf 1e6b 44bf
00000040: d47f 53bf f434 25bf 909c 5ebf 7c24 40bf
00000050: 7007 24bf 9896 15bf ceb1 36bf b017 51bf
00000060: f0a8 60bf dce9 3ebf 5416 31bf 8429 56bf
00000070: aa90 37bf 90ba 30bf 5631 1dbf 4cac 45bf
00000080: 2c08 22bf d49b 60bf 340d 38bf dc21 59bf
00000090: 9e1d 2fbf e878 54bf 2c40 3cbf 5af3 36bf
000000a0: e444 41bf 38de 3abf 083b 4abf 32b8 6cbf
000000b0: d818 3cbf 8463 35bf e840 3abf 045d 23bf
000000c0: 8c3d 55bf 0432 2dbf 6e24 52bf c086 52bf
000000d0: a052 63bf bab6 70bf cc96 4abf 2e3d 56bf
000000e0: f6f7 5fbf 7c33 29bf 94d2 36bf 3e02 44bf
000000f0: 6420 5dbf 0857 57bf 8c3f 1abf 10ce 66bf
00000100: cc5c 6bbf 044e 3abf ee64 43bf f868 38bf
00000110: 2ecd 21bf fce5 13bf c032 2bbf 583d 20bf
00000120: 4062 6ebf 60dd 60bf 40ab 36bf 046a 47bf
00000130: aac8 51bf 68f3 24bf 600a 1cbf b4a3 15bf
00000140: 8c68 4bbf 80d9 35bf b494 2cbf 805a 18bf
00000150: e200 24bf 60d0 3cbf 3c3d 44bf 5027 5cbf
00000160: 887b 3bbf 38de 3abf 7cec 25bf 94df 5abf
00000170: d88a 35bf 6881 2bbf 545d 34bf 8400 25bf
00000180: 9e8f 28bf 5cc5 5abf a029 32bf 2e14 25bf
00000190: 5479 41bf cecd 43bf 68d5 52bf 0882 4dbf
000001a0: 8ab2 34bf 1c43 34bf 5c7e 57bf 6404 50bf
000001b0: d463 46bf be5e 42bf 20be 4abf 8834 38bf
000001c0: 0c55 15bf c6c8 2dbf ec74 4dbf e48d 09bf
000001d0: fc39 3bbf 0ce1 56bf ec3c 33bf d092 43bf
000001e0: 54b3 20bf c466 3ebf e256 10bf 543f 62bf
000001f0: 8ce9 2dbf 1476 38bf 80ca 4cbf 24c9 2cbf
00000200: 5ab9 57bf 4e0e 35bf 7a34 4abf aa74 2abf
00000210: d264 67bf 223e 0cbf 06e8 43bf 9688 4dbf
00000220: d21f 29bf 26aa 39bf f253 18bf 42c4 5dbf
00000230: fa11 2bbf 427f 1fbf ee63 f2be a2a7 2ebf
00000240: c2a1 3ebf 9aaf 3cbf 762b 2dbf 7ade 5dbf
00000250: 3a78 44bf 52c3 2abf d2bc 18bf 7e30 43bf
00000260: e616 65bf 7285 20bf 366f 27bf be7a 4fbf
00000270: 46a4 49bf cafc 40bf a289 5cbf e057 31bf
00000280: 0e27 39bf ae7d 47bf 86b8 00bf e40a 62bf
00000290: 5e1a 26bf 420b 61bf 465d 46bf ce14 47bf
000002a0: 623f 50bf 7e14 36bf ba8d 3fbf da33 28bf
000002b0: ae45 2dbf 0208 58bf 1286 42bf fe0d 24bf
000002c0: d2c9 3cbf 3e65 54bf 527c 27bf a226 4cbf
000002d0: 4a4a 56bf ae61 3abf 867c 5cbf 928c 54bf
000002e0: 7ad1 39bf fe1a 48bf e28e 2abf a242 59bf
000002f0: d2d6 60bf 2a5f 2fbf 32b8 6cbf c61e 1abf
00000300: eaa2 29bf b295 4dbf 9a91 6abf 5a56 47bf
00000310: 3a87 2dbf 9e64 32bf 3255 5cbf f6db 52bf
00000320: 26e2 53bf 7a09 54bf aaca 16bf aa1e 3ebf
00000330: 5244 0dbf 0e8a 49bf 760d 5bbf 4ec5 6cbf
00000340: 32f2 4bbf 7e5b 39bf 624e 39bf 96a4 5abf
00000350: feb7 37bf be7a 4fbf 6216 1fbf 8257 32bf
00000360: 2249 6bbf 5622 34bf 7670 6bbf 8210 2fbf
00000370: 8e3c 34bf 2258 54bf de9f 55bf 6277 6abf
00000380: 42b7 39bf 868b 45bf 3abf 47bf fefe 3abf
00000390: 5ad7 29bf f687 2bbf 02dd 61bf 8a15 45bf
000003a0: 6e87 62bf cad1 4abf 0e18 50bf c2f5 65bf
000003b0: 565a 4ebf ee48 36bf 4229 33bf 04b1 4abf
000003c0: f622 56bf 3a31 41bf 0e8c 0ebf 161f 2bbf
000003d0: 9650 33bf cae0 33bf a2d2 24bf 465d 46bf
000003e0: dace 52bf a2fb 55bf 321d 42bf b2eb 39bf
000003f0: 62cf 1bbf e6eb 6ebf cef8 39bf 4625 2cbf

hidden1_layer.bias_mu f4 [128]
-0.17177548 -0.15403977 -0.1654948 -0.11987485 -0.051767245 -0.055559106 -0.10080163 -0.114071086
-0.09184514 -0.040320992 0.023614733 -0.1386331 -0.0499122 -0.14911139 -0.15783021 -0.13447353
-0.027512554 -0.003821438 0.006683167 0.014336005 -0.043983214 0.032447696 -0.13581331 -0.081504285
-0.010903951 -0.08338061 -0.05268894 -0.21187232 -0.07176005 -0.022780368 -0.041269615 -0.059515476
-0.010190977 -0.075165614 -0.11697753 -0.026737835 0.009598067 -0.090011075 -0.08412945 -0.12993373
-0.13240796 -0.01937073 -0.031357534 -0.09705834 -0.15954316 -0.097893536 0.0008936986 -0.16787933
-0.040748045 -0.030432062 0.054300446 -0.0188616 -0.10233833 -0.07736252 -0.056844823 0.047991242
0.0017085026 -0.06403877 -0.030860536 -0.056736484 0.0038689447 -0.11166608 -0.05885964 -0.06459215
-0.07153424 -0.11240427 -0.06678377 -0.15567365 0.004660636 -0.053668104 -0.10517655 0.009220472
-0.10658173 -0.04051722 -0.004598504 0.013476595 -0.008717041 -0.05443941 -0.040498026 0.0043410547
0.038045447 -0.17084436 -0.014808098 -0.13745801 0.029605208 -0.07310441 -0.13739288 -0.10231085
-0.03347802 -0.073268324 -0.18085831 -0.24219622 0.01733141 -0.11778638 0.0028764096 0.04505482
-0.13791643 -0.19832106 -0.14711851 0.006326027 -0.012771742 -0.19371781 -0.14377485 0.032082558
-0.13891315 0.00028540968 -0.13208674 -0.11539064 -0.06928795 -0.16912696 -0.046152532 -0.13839485
-0.028797926 0.0067286417 -0.18902838 -0.12166943 -0.15318951 -0.053322494 -0.15577738 -0.12954433
-0.15432757 -0.08114794 -0.11740005 -0.13576695 -0.040711977 -0.050381683 -0.18434465 -0.10293038
00000000: e9e5 2fbe 9abc 1dbe 7877 29be f280 f5bd
00000010: e409 54bd f291 63bd 1671 cebd 1a9e e9bd
00000020: 4e19 bcbd a027 25bd af73 c13c d6f5 0dbe
00000030: bc70 4cbd a8b0 18be 3e9e 21be 6eb3 09be
00000040: 0262 e1bc 1771 7abb 78fe da3b 90e1 6a3c
00000050: be27 34bd e0e7 043d a512 0bbe b8eb a6bd
00000060: 7ca6 32bc 74c3 aabd 5cd0 57bd 0ff5 58be
00000070: eff6 92bd e59d babc 540a 29bd 80c6 73bd
00000080: 0ef8 26bc 6ef0 99bd ea91 efbd 4e09 dbbc
00000090: 3641 1d3c ba57 b8bd 104c acbd 590d 05be
000000a0: f495 07be 5daf 9ebc c270 00bd 86c6 c6bd
000000b0: 485f 23be 687c c8bd 1947 6a3a 8fe8 2bbe
000000c0: 6ce7 26bd a94c f9bc 256a 5e3d a483 9abc
000000d0: c296 d1bd 3e70 9ebd 1ed6 68bd 7792 443d
000000e0: d6ef df3a c226 83bd 3ccf fcbc 8464 68bd
000000f0: 1f8e 7d3b 30b1 e4bd ce16 71bd e448 84bd
00000100: 8b80 92bd 3634 e6bd eec5 88bd ea68 1fbe
00000110: 40b8 983b 16d3 5bbd ce66 d7bd 7611 173c
00000120: 8647 dabd 62f5 25bd 0caf 96bb f0cc 5c3c
00000130: ecd1 0ebc dcfb 5ebd 42e1 25bd 683f 8e3b
00000140: 8bd5 1b3d d3f1 2ebe aa9d 72bc cbc1 0cbe
00000150: 9f86 f23c c4b7 95bd b8b0 0cbe 5a88 d1bd
00000160: 4020 09bd b40d 96bd ec32 39be 4902 78be
00000170: 9afa 8d3c fc39 f1bd 2582 3c3b 678b 383d
00000180: f739 0dbe ad14 4bbe 3ca6 16be 904a cf3b
00000190: 9240 51bc f65d 46be b739 13be 0069 033d
000001a0: 403f 0ebe 0aa3 9539 bf41 07be ee51 ecbd
000001b0: d7e6 8dbd 9e2f 2dbe 700a 3dbd 61b7 0dbe
000001c0: a1e9 ebbc f07b dc3b a890 41be d22d f9bd
000001d0: b6dd 1cbe b068 5abd 1b84 1fbe 45a7 04be
000001e0: 0c08 1ebe e430 a6bd 706f f0bd 7e06 0bbe
000001f0: 9ac1 26bd 065d 4ebd d8c4 3cbe 2acd d2bd

hidden1_layer.bias_log_sigma f4 [128]
-0.78636265 -0.7910634 -0.71655107 -0.7818619 -0.69524753 -0.794564 -0.80316544 -0.740155
-0.78216195 -0.7319536 -0.69294715 -0.7413552 -0.7614585 -0.78706276 -0.79186356 -0.7842623
-0.6716436 -0.67254376 -0.8175678 -0.794364 -0.7301533 -0.7638589 -0.73155355 -0.9006816
-0.80396557 -0.76215863 -0.6533406 -0.75795794 -0.8337705 -0.74845636 -0.7395549 -0.8347707
-0.8431721 -0.79486406 -0.78626263 -0.78216195 -0.7799616 -0.90018153 -0.7233522 -0.7565577
-0.82076836 -0.7385547 -0.8835788 -0.7927637 -0.67554426 -0.7775612 -0.71825135 -0.7498566
-0.69544756 -0.76105845 -0.73095345 -0.7469561 -0.72975326 -0.87727773 -0.8017652 -0.7359543
-0.8371711 -0.81236696 -0.71695113 -0.75695777 -0.9198848 -0.8281696 -0.7571578 -0.7801616
-0.6849458 -0.75495744 -0.7439556 -0.8704766 -0.6047325 -0.83077 -0.75495744 -0.71775126
-0.79716444 -0.7253525 -0.8238689 -0.79716444 -0.8275695 -0.7782613 -0.7811618 -0.6805451
-0.7685597 -0.8269694 -0.66094184 -0.69954824 -0.7433555 -0.8269694 -0.9073827 -0.6819453
-0.8265693 -0.9227853 -0.77256036 -0.8197682 -0.74415565 -0.75675774 -0.65064013 -0.72135186
-0.71775126 -0.7986647 -0.82616925 -0.8691764 -0.860975 -0.8295698 -0.8372711 -0.7867627
-0.74415565 -0.7607584 -0.8709767 -0.76955986 -0.788663 -0.7830621 -0.5870296 -0.7577579
-0.7331538 -0.77736115 -0.7366544 -0.82076836 -0.88337874 -0.7313535 -0.7993648 -0.6491399
-0.78636265 -0.7029488 -0.7993648 -0.6955476 -0.69354725 -0.86287534 -0.7807617 -0.80916643
00000000: 104f 49bf 2283 4abf e46f 37bf 1a28 48bf
00000010: befb 31bf 8c68 4bbf 409c 4dbf cc7a 3dbf
00000020: c43b 48bf 5061 3bbf fc64 31bf 74c9 3dbf
00000030: f2ee 42bf f27c 49bf 92b7 4abf 6ac5 48bf
00000040: d6f0 2bbf d42b 2cbf 204c 51bf 705b 4bbf
00000050: 54eb 3abf 428c 43bf 1847 3bbf 1293 66bf
00000060: b0d0 4dbf d41c 43bf 5441 27bf 8809 42bf
00000070: fc71 55bf d69a 3fbf 7853 3dbf 88b3 55bf
00000080: 20da 57bf 367c 4bbf 8248 49bf c43b 48bf
00000090: 90ab 47bf 4c72 66bf 9c2d 39bf c4ad 41bf
000000a0: e01d 52bf ec11 3dbf 3832 62bf 90f2 4abf
000000b0: 78f0 2cbf 400e 47bf 52df 37bf 9af6 3fbf
000000c0: da08 32bf bad4 42bf c41f 3bbf 8438 3fbf
000000d0: 1cd1 3abf 4695 60bf 7c40 4dbf 8067 3cbf
000000e0: d850 56bf 48f7 4fbf 1c8a 37bf fcc7 41bf
000000f0: 927d 6bbf ec02 54bf 18d5 41bf acb8 47bf
00000100: 9c58 2fbf e444 41bf e073 3ebf 8ed7 5ebf
00000110: c0cf 1abf 58ad 54bf e444 41bf 8cbe 37bf
00000120: f812 4cbf b4b0 39bf 12e9 52bf f812 4cbf
00000130: 98db 53bf 223c 47bf 38fa 47bf 3438 2ebf
00000140: 54c0 44bf 44b4 53bf 7c33 29bf 9815 33bf
00000150: 8c4c 3ebf 44b4 53bf 3c4a 68bf f893 2ebf
00000160: 0c9a 53bf a83b 6cbf 84c6 45bf 54dc 51bf
00000170: fc80 3ebf e0ba 41bf 5a90 26bf 84aa 38bf
00000180: 8cbe 37bf 4a75 4cbf d47f 53bf 5882 5ebf
00000190: dc68 5cbf b05e 54bf 6657 56bf 4869 49bf
000001a0: fc80 3ebf 10c1 42bf 54f8 5ebf e001 45bf
000001b0: d2e5 49bf c276 48bf 9247 16bf 6cfc 41bf
000001c0: f8af 3bbf 2401 47bf 6295 3cbf e01d 52bf
000001d0: 1c25 62bf fc39 3bbf 2ca3 4cbf 082e 26bf
000001e0: 104f 49bf 74f4 33bf 2ca3 4cbf 680f 32bf
000001f0: 508c 31bf 66e5 5cbf 00e0 47bf 8825 4fbf

hidden2_layer.weight_mu f4 [128, 128]
-0.35513788 -0.25495407 -0.28640813 -0.29057884 -0.28141308 -0.21605203 -0.20882319 -0.20705125
-0.23666364 -0.2886563 -0.2331443 -0.37679067 -0.37847683 -0.19822 -0.20216364 -0.35090843
-0.3554554 -0.3580944 -0.35636076 -0.241157 -0.22297122 -0.35664654 -0.15397196 -0.25052467
-0.33253062 -0.32765332 -0.36059892 -0.23414768 -0.26047742 -0.37211597 -0.28744692 -0.25888067
-0.37347776 -0.27134833 -0.33724785 -0.23332877 -0.31665638 -0.23936138 -0.34419566 -0.2095865
-0.3518494 -0.25086972 -0.14040628 -0.2348497 -0.33309144 -0.26623797 -0.35158572 -0.23363023
-0.25441453 -0.2863958 -0.34080735 -0.29432845 -0.20284258 -0.27524853 -0.34566137 -0.36355564
-0.34044185 -0.360899 -0.36621585 -0.2344233 -0.31104648 -0.28917846 -0.35941753 -0.2911546
-0.22126892 -0.22981636 -0.23840347 -0.34604767 -0.25407115 -0.20484944 -0.3697865 -0.22208746
-0.24122682 -0.34892514 -0.3540719 -0.2684395 -0.2559155 -0.26718938 -0.37006873 -0.30066383
-0.16279371 -0.3066407 -0.37335074 -0.23165554 -0.34233484 -0.20955685 -0.29974443 -0.12606741
-0.17663214 -0.37189296 -0.2707777 -0.22633271 -0.30941328 -0.37034193 -0.21898893 -0.30185154
-0.23167695 -0.20256357 -0.2725753 -0.34555364 -0.31886578 -0.3073425 -0.14318481 -0.19586106
-0.29512146 -0.22176975 -0.29150662 -0.13913532 -0.215149 -0.35468653 -0.3203738 -0.19552454
-0.36038682 -0.25573173 -0.31715402 -0.34628665 -0.36320817 -0.18535985 -0.30467668 -0.23618923
-0.3440035 -0.260967 -0.3737262 -0.116136536 -0.2928966 -0.31060395 -0.36716935 -0.25794774
-0.2701805 -0.36728588 -0.2694047 -0.34290242 -0.3684876 -0.22875722 -0.29315078 -0.27717918
-0.20865525 -0.3264035 -0.31035167 -0.35072595 -0.38100043 -0.33565626 -0.28942403 -0.2941973
-0.21429463 -0.27662253 -0.33574554 -0.252651 -0.3623897 -0.25451642 -0.23185001 -0.20694828
-0.2839643 -0.23138894 -0.24658924 -0.26231965 -0.31550303 -0.3313318 -0.3292921 -0.35157874
-0.21797691 -0.23342851 -0.31428152 -0.24468243 -0.3030454 -0.28542525 -0.23673695 -0.2951211
-0.3404618 -0.30537066 -0.36127055 -0.28387517 -0.24654464 -0.30645436 -0.32663268 -0.36083612
-0.22558793 -0.23991929 -0.3602054 -0.23204865 -0.33563063 -0.2986575 -0.26414937 -0.30371898
-0.23933114 -0.30145386 -0.2719163 -0.37199086 -0.23484455 -0.29691654 -0.3009676 -0.24422084
-0.33833757 -0.2758256 -0.35980567 -0.3365106 -0.30891347 -0.21007255 -0.26065847 -0.26851547
-0.38508618 -0.21459061 -0.24581608 -0.29925245 -0.2241567 -0.2741244 -0.24667221 -0.26096866
-0.22469024 -0.23187177 -0.3136103 -0.26076034 -0.24643737 -0.15722866 -0.35325146 -0.31044164
-0.36814132 -0.31685892 -0.34830266 -0.21268475 -0.36317143 -0.23383033 -0.24175274 -0.29354846
-0.25524476 -0.34082732 -0.22839156 -0.21334822 -0.32796666 -0.2621035 -0.27529415 -0.21657121
-0.35999036 -0.20676425 -0.3499408 -0.21118549 -0.3059003 -0.30125114 -0.2721534 -0.28264502
-0.32310662 -0.31054083 -0.21496269 -0.29262733 -0.20919444 -0.2561121 -0.3254937 -0.25527275
-0.32957602 -0.3430923 -0.32867932 -0.3338849 -0.3868078 -0.1970062 -0.357796 -0.31236312
00000000: a2d4 b5be 5789 82be 16a4 92be c0c6 94be
00000010: 6015 90be be3c 5dbe bfd5 55be 3e05 54be
00000020: f457 72be c2ca 93be 61bd 6ebe b5ea c0be
00000030: b7c7 c1be 2ffa 4abe fc03 4fbe 45aa b3be
00000040: 40fe b5be 2658 b7be eb74 b6be dcf1 76be
00000050: 9152 64be 609a b6be d3aa 1dbe c544 80be
00000060: 7441 aabe 2dc2 a7be 6ca0 b8be 69c4 6fbe
00000070: 4c5d 85be fc85 bebe 3e2c 93be 028c 84be
00000080: 7a38 bfbe 2bee 8abe c0ab acbe bded 6ebe
00000090: c920 a2be 261b 75be 6a3a b0be d89d 56be
000000a0: 9b25 b4be ff71 80be aac6 0fbe 717c 70be
000000b0: f68a aabe 5850 88be 0b03 b4be c33c 6fbe
000000c0: 9f42 82be 78a2 92be 4d7e aebe 38b2 96be
000000d0: f7b5 4fbe 60ed 8cbe 87fa b0be f723 babe
000000e0: 654e aebe c1c7 b8be a580 bbbe a90c 70be
000000f0: 7c41 9fbe 330f 94be 9305 b8be 3712 95be
00000100: 5294 62be fb54 6bbe 0a20 74be 292d b1be
00000110: 9d15 82be 0dc4 51be a854 bdbe e56a 63be
00000120: 2a04 77be 51a6 b2be e948 b5be e770 89be
00000130: 5b07 83be 0ccd 88be a679 bdbe 9cf0 99be
00000140: 65b3 26be 0300 9dbe d427 bfbe 1c37 6dbe
00000150: 8346 afbe 1296 56be 1a78 99be d117 01be
00000160: 0edf 34be c168 bebe 60a3 8abe c3c3 67be
00000170: 6b6b 9ebe 759d bdbe a23e 60be 498c 9abe
00000180: b93c 6dbe d36c 4fbe fd8e 8bbe 68ec b0be
00000190: 6042 a3be ff5b 9dbe 0a9f 12be cd8f 48be
000001a0: 291a 97be 9c17 63be 5b40 95be 7d79 0ebe
000001b0: 0550 5cbe 7999 b5be 0908 a4be 9637 48be
000001c0: 9f84 b8be 45ef 82be 0362 a2be 7c4c b1be
000001d0: 6cf6 b9be f9ce 3dbe 95fe 9bbe 97db 71be
000001e0: 3a21 b0be 779d 85be 0a59 bfbe fed8 edbd
000001f0: 8bf6 95be 7b07 9fbe 9ffd bbbe ba11 84be
00000200: 1955 8abe e50c bcbe 6aef 89be e890 afbe
00000210: 68aa bcbe 553f 6abe dc17 96be 6eea 8dbe
00000220: b9a9 55be 5c1e a7be 6ae6 9ebe 5a92 b3be
00000230: 7d12 c3be 23db abbe 632f 94be 07a1 96be
00000240: 0d70 5bbe 78a1 8dbe d7e6 abbe 795b 81be
00000250: 258b b9be fa4f 82be 176a 6dbe 40ea 53be
00000260: c563 91be 39f1 6cbe e481 7cbe c34e 86be
00000270: 9d89 a1be 52a4 a9be f998 a8be 2102 b4be
00000280: 5735 5fbe e207 6fbe 82e9 a0be 088e 7abe
00000290: c428 9bbe 4223 92be 2c6b 72be 1d1a 97be
000002a0: 0251 aebe 8b59 9cbe 74f8 b8be 1658 91be
000002b0: 3376 7cbe 96e7 9cbe 663c a7be 83bf b8be
000002c0: 8600 67be 67ad 75be d86c b8be 299e 6dbe
000002d0: c7d7 abbe a3e9 98be 963e 87be 0e81 9bbe
000002e0: 3913 75be 2958 9abe 9d38 8bbe 9675 bebe
000002f0: 177b 70be 7205 98be 6d18 9abe 0715 7abe
00000300: 953a adbe 0339 8dbe 7338 b8be 1e4b acbe
00000310: e829 9ebe 421d 57be 0775 85be dc7a 89be
00000320: 042a c5be a4bd 5bbe 36b7 7bbe 9e37 99be
00000330: 5589 65be 095a 8cbe a497 7cbe af9d 85be
00000340: 3315 66be cb6f 6dbe 8791 a0be 6182 85be
00000350: 145a 7cbe 8d00 21be 60dd b4be 35f2 9ebe
00000360: 057d bcbe 553b a2be ba54 b2be 08ca 59be
00000370: 9bf1 b9be 3871 6fbe 088e 77be fc4b 96be
00000380: 71af 82be eb80 aebe 7adf 69be f577 5abe
00000390: 3feb a7be 6e32 86be 5bf3 8cbe d8c4 5dbe
000003a0: a850 b8be 02ba 53be 712b b3be 0241 58be
000003b0: f79e 9cbe 973d 9abe b157 8bbe d9b6 90be
000003c0: 3b6e a5be 35ff 9ebe 2e1f 5cbe 40d3 95be
000003d0: 1137 56be 2021 83be 1ca7 a6be 1cb3 82be
000003e0: 30be a8be cba9 afbe a848 a8be f6f2 aabe
000003f0: ac0b c6be febb 49be 0a31 b7be 0fee 9fbe

hidden2_layer.weight_log_sigma f4 [128, 128]
-0.7313535 -0.94308865 -0.9463892 -0.9476894 -0.89067996 -0.95579076 -0.95639086 -0.8227687
-0.8163676 -0.9517901 -0.7750608 -0.957191 -0.91408384 -0.8859792 -0.8680762 -0.82746947
-0.96369207 -0.6709435 -0.74235535 -0.85037327 -0.9121835 -0.67304385 -0.8137672 -0.9488896
-0.8873794 -0.91658425 -0.9505899 -0.94318867 -0.96599245 -0.8156675 -0.8227687 -0.9259858
-0.90758276 -0.8458725 -0.81226695 -0.75555754 -0.91898465 -0.8643756 -0.96299195 -0.9547906
-0.6945474 -0.7095499 -0.8691764 -0.92018485 -0.95699096 -0.95279026 -0.77426064 -0.9276861
-0.78876305 -0.7794615 -0.80556583 -0.933187 -0.9657924 -0.8702766 -0.7275529 -0.9439888
-0.80336547 -0.9199848 -0.9663925 -0.76235867 -0.78326213 -0.9583912 -0.7475562 -0.85877466
-0.7173512 -0.9529903 -0.860775 -0.9004816 -0.8401716 -0.7391548 -0.9077828 -0.8505733
-0.84897304 -0.9065826 -0.6950475 -0.9428886 -0.8889797 -0.83887136 -0.6425388 -0.6149342
-0.722352 -0.94598913 -0.93038654 -0.8137672 -0.80316544 -0.8631754 -0.7657592 -0.7515569
-0.8595748 -0.89658093 -0.9047823 -0.8921802 -0.87857795 -0.932987 -0.96249187 -0.6491399
-0.9519901 -0.96909297 -0.674144 -0.7753608 -0.86417556 -0.909183 -0.8030654 -0.920985
-0.7937639 -0.84297204 -0.8121669 -0.7969644 -0.9380878 -0.9372877 -0.74225533 -0.6487398
-0.77015996 -0.878778 -0.88157845 -0.97379375 -0.9505899 -0.68874645 -0.98339534 -0.945189
-0.872777 -0.89958143 -0.8143673 -0.80796623 -0.7925637 -0.7488564 -0.71155024 -0.6817453
-0.8419719 -0.9132837 -0.9769943 -0.8926803 -0.94368875 -0.79356384 -0.92438555 -0.915084
-0.62233543 -0.83407056 -0.6806451 -0.7595582 -0.8630754 -0.9042822 -0.8572744 -0.87867796
-0.88527906 -0.8980812 -0.9205849 -0.7925637 -0.79116344 -0.86347544 -0.9427886 -0.7546574
-0.9475894 -0.8753774 -0.89778113 -0.98779607 -0.92198515 -0.73625433 -0.9365876 -0.9494897
-0.95119 -0.8204683 -0.73325384 -0.9781945 -0.8771777 -0.88217854 -0.80446565 -0.81896806
-0.9805949 -0.9567909 -0.88637924 -0.8263693 -0.8901799 -0.746356 -0.8100666 -0.8998815
-0.8734771 -0.6468395 -0.8253691 -0.73515415 -0.8769777 -0.9698931 -0.76955986 -0.8571744
-0.83097005 -0.72855306 -0.85577416 -0.6943474 -0.7174512 -0.8566743 -0.8649757 -0.9609916
-0.84847295 -0.7985647 -0.73395395 -0.9500898 -0.9499898 -0.8661759 -0.836671 -0.96839285
-0.7033489 -0.97379375 -0.90988314 -0.8380712 -0.8886796 -0.981295 -0.9301865 -0.7794615
-0.77015996 -0.89838123 -0.8672761 -0.87317705 -0.836771 -0.7589581 -0.97739434 -0.9283862
-0.8753774 -0.7922636 -0.97199345 -0.96849287 -0.8763776 -0.80396557 -0.8678762 -0.8859792
-0.8976811 -0.9802948 -0.71165025 -0.93698764 -0.9283862 -0.9790946 -0.85687435 -0.9517901
-0.86827624 -0.87917805 -0.6214353 -0.77136016 -0.8156675 -0.8522736 -0.8156675 -0.86597586
-0.7831621 -0.85637426 -0.7638589 -0.8133671 -0.7780613 -0.9729936 -0.7968644 -0.872777
-0.8927803 -0.81776786 -0.8168677 -0.92618585 -0.85877466 -0.7540573 -0.89378047 -0.76175857
00000000: fc39 3bbf 426e 71bf 9046 72bf c69b 72bf
00000010: 9a03 64bf b4ae 74bf 08d6 74bf f8a0 52bf
00000020: 78fd 50bf 84a8 73bf 626a 46bf 780a 75bf
00000030: 6601 6abf 88cf 62bf 3e3a 5ebf 0ad5 53bf
00000040: 86b4 76bf f4c2 2bbf 000b 3ebf 10b2 59bf
00000050: dc84 69bf 9a4c 2cbf 0c53 50bf 6eea 72bf
00000060: 4c2b 63bf 44a5 6abf dc59 73bf d074 71bf
00000070: 484b 77bf 96cf 50bf f8a0 52bf 680d 6dbf
00000080: 5857 68bf 1a8b 58bf baf0 4fbf 386c 41bf
00000090: 9442 6bbf b847 5dbf a486 76bf 286d 74bf
000000a0: dccd 31bf 10a5 35bf 5882 5ebf 3c91 6bbf
000000b0: 5cfd 74bf 10ea 73bf f235 46bf d67c 6dbf
000000c0: 60ec 49bf ca8a 47bf 9039 4ebf 58e5 6ebf
000000d0: 2c3e 77bf 72ca 5ebf e840 3abf 40a9 71bf
000000e0: 5ca9 4dbf 2084 6bbf 8065 77bf f029 43bf
000000f0: de83 48bf 2059 75bf d85f 3fbf a8d8 5bbf
00000100: 54a4 37bf 2cf7 73bf c05b 5cbf f685 66bf
00000110: 7c15 57bf 4039 3dbf 7464 68bf 2cbf 59bf
00000120: 4c56 59bf cc15 68bf a2ee 31bf 2661 71bf
00000130: 2c94 63bf 46c0 56bf 6c7d 24bf 546c 1dbf
00000140: 10ec 38bf 582c 72bf d02d 6ebf 0c53 50bf
00000150: 409c 4dbf 10f9 5cbf cc08 44bf 0866 40bf
00000160: 180d 5cbf 5486 65bf d09f 67bf ec65 64bf
00000170: 7cea 60bf 3cd8 6ebf de65 76bf 082e 26bf
00000180: a0b5 73bf 7a16 78bf b494 2cbf 0c7e 46bf
00000190: 9c3a 5dbf 38c0 68bf b295 4dbf acc5 6bbf
000001a0: 1c34 4bbf 04cd 57bf 2cea 4fbf dc05 4cbf
000001b0: 8626 70bf 16f2 6fbf 7204 3ebf d013 26bf
000001c0: 3429 45bf 98f7 60bf 20af 61bf 8c4a 79bf
000001d0: dc59 73bf b051 30bf ccbf 7bbf e8f7 71bf
000001e0: 506e 5fbf f84a 66bf 607a 50bf e0d6 4ebf
000001f0: 74e5 4abf 0eb5 3fbf 2828 36bf dc86 2ebf
00000200: 788b 57bf f6cc 69bf 4c1c 7abf b286 64bf
00000210: 9695 71bf 0027 4bbf 88a4 6cbf f242 6abf
00000220: 6051 1fbf a685 55bf c23e 2ebf 6872 42bf
00000230: 82f2 5cbf 0a7f 67bf 5676 5bbf 0af1 60bf
00000240: a6a1 62bf a6e8 65bf 74ab 6bbf 74e5 4abf
00000250: b089 4abf ba0c 5dbf 985a 71bf 3a31 41bf
00000260: 3895 72bf bc18 60bf fcd4 65bf 34e0 7cbf
00000270: 3807 6cbf 2a7b 3cbf 34c4 6fbf c211 73bf
00000280: 3081 73bf 360a 52bf 86b6 3bbf f46a 7abf
00000290: b88e 60bf 74d6 61bf 76f1 4dbf e4a7 51bf
000002a0: 4408 7bbf 40f0 74bf c0e9 62bf f08c 53bf
000002b0: d4e2 63bf 3011 3fbf 8660 4fbf a25e 66bf
000002c0: 329c 5fbf 4697 25bf 644b 53bf 1033 3cbf
000002d0: 9c81 60bf ea4a 78bf e001 45bf c86f 5bbf
000002e0: 74ba 54bf 7482 3abf 0414 5bbf c0c0 31bf
000002f0: e2aa 37bf 024f 5bbf 0c6f 5dbf 8c03 76bf
00000300: 8635 59bf bc6e 4cbf 68e4 3bbf 1639 73bf
00000310: 8832 73bf b4bd 5dbf 1230 56bf 98e8 77bf
00000320: ac0e 34bf 8c4a 79bf 1aee 68bf d68b 56bf
00000330: 8280 63bf 2636 7bbf b420 6ebf ca8a 47bf
00000340: 3429 45bf 50fc 65bf ce05 5ebf 8888 5fbf
00000350: a036 56bf 144b 42bf 8436 7abf b8aa 6dbf
00000360: bc18 60bf cad1 4abf 90d4 78bf 26ef 77bf
00000370: 485a 60bf b0d0 4dbf 222d 5ebf 88cf 62bf
00000380: 6ece 65bf 9af4 7abf b62e 36bf 6cde 6fbf
00000390: b8aa 6dbf f2a5 7abf 1e5c 5bbf 84a8 73bf
000003a0: 5a47 5ebf d011 61bf 6216 1fbf dc77 45bf
000003b0: 96cf 50bf 9a2e 5abf 96cf 50bf 98b0 5dbf
000003c0: 507d 48bf 583b 5bbf 428c 43bf d438 50bf
000003d0: 062f 47bf 1c16 79bf 4eff 4bbf 506e 5fbf
000003e0: 408d 64bf 3c59 51bf 3e1e 51bf 841a 6dbf
000003f0: a8d8 5bbf e609 41bf ccce 64bf 9c02 43bf
