model_stock/dynamic_small_evn_25_lr0.0001_2000EP.pth (torch, 356287 bytes, 16 tensors)

input_layer.weight_mu f4 [128, 43]
0	0x3e9a9106	0.3018877
1	0xbe2522de	-0.16126582
2	0xbeafbbf2	-0.34323078
3	0xbe010fd1	-0.1260369
4	0x3dc4e6c1	0.09614325
5	0xbe76f22c	-0.24115819
6	0xbd852f85	-0.06503204
7	0xbcf38f86	-0.029731523
8	0xbe1752b4	-0.14777642
9	0xbe697752	-0.22799423
10	0xbe482624	-0.195458
11	0xb7af0478	-2.0863707e-05
12	0x3901dfac	0.00012385723
13	0xb759b810	-1.2977063e-05
14	0xb8048622	-3.1596173e-05
15	0x3764a8f0	1.3629193e-05
16	0xb866980c	-5.4977878e-05
17	0x388a3806	6.590788e-05
18	0x3d9f8829	0.07789642
19	0xbd9beb11	-0.07613195
20	0xbeadc849	-0.33941868
21	0xbe948a41	-0.2901173
22	0x3da04043	0.07824757
23	0xbd9d712a	-0.076876
24	0xbdd41ad5	-0.1035668
25	0xbe51944d	-0.20466729
26	0x3dfa1f06	0.122129485
27	0xbe6fefcd	-0.2343132
28	0xbdb31130	-0.08743513
29	0xb89c44c6	-7.45147e-05
30	0xb871f00c	-5.768244e-05
31	0x38027c22	3.1110023e-05
32	0x38d416ad	0.000101131714
33	0x385c682a	5.2549098e-05
34	0x38533804	5.035849e-05
35	0x38cbc8f9	9.7172284e-05
36	0x3d470ccf	0.0485962
37	0xbe3efeb1	-0.18651845
38	0xbe12effc	-0.1434936
39	0x3de82567	0.11335259
40	0xbdffc5fa	-0.12488933
41	0xbd904433	-0.07044258
42	0xbce4fc8d	-0.027952457
43	0x3e98c220	0.29835606
44	0xbde1e2a3	-0.11029556
45	0xbe31aaa4	-0.1735025
46	0xbe15fcd6	-0.1464723
47	0x3e7f1cf4	0.24913388
48	0xbea4dc67	-0.32199404
49	0xbdb7e23b	-0.08978697
50	0xbdfa6e6a	-0.12228091
51	0x3dadc7fa	0.08485408
52	0xbdb7320d	-0.08945093
53	0xbdce33f8	-0.10068506
54	0xb7455810	-1.1762619e-05
55	0x37ccf454	2.443247e-05
56	0xb8cad219	-9.671244e-05
57	0xb80a322a	-3.2948483e-05
58	0x380fba2a	3.4267236e-05
59	0xb81d15aa	-3.7451893e-05
60	0xb8fd3435	-0.000120737044
61	0x3d3e5253	0.04646523
62	0xbe2fbcac	-0.17161816
63	0xbe92c18b	-0.28663287
64	0xbe494ac4	-0.19657427
65	0x3e4a3209	0.1974565
66	0xbd02d18f	-0.031938132
67	0xbe7c6fef	-0.24652074
68	0xbe35db48	-0.1775943
69	0xbcd90660	-0.026492298
70	0xbe25b39f	-0.16181801
71	0xbe89b607	-0.26896688
72	0x35bf2580	1.4241523e-06
73	0x38f63425	0.00011739907
74	0xb6d631e0	-6.383503e-06
75	0xb8a459f9	-7.836888e-05
76	0x38c25c15	9.2677925e-05
77	0x3884a006	6.324057e-05
78	0xb851f82a	-5.0060604e-05
79	0x3cfa5095	0.030556003
80	0xbe813ac6	-0.25240153
81	0xbcd3cc4c	-0.025854252
82	0x3d96eba9	0.07369167
83	0xbe8371d5	-0.25672784
84	0x3c8a6a68	0.016896442
85	0x3d5cb8e5	0.053887267
86	0x3d800f41	0.062529095
87	0xbe7723c7	-0.24134742
88	0xbe687dc4	-0.22704226
89	0xbde75a51	-0.11296523
90	0x3e353452	0.1769574
91	0xbd4cb11f	-0.049973603
92	0xbea6442e	-0.32473892
93	0xbe3116fa	-0.17293921
94	0xbe478b26	-0.19486675
95	0xbea97648	-0.33098054
96	0xbe05ae17	-0.13054691
97	0x38815606	6.1672225e-05
98	0xb8873106	-6.446433e-05
99	0x38d80c05	0.000103019214
100	0xb85f480a	-5.3234435e-05
101	0xb836d622	-4.3591608e-05
102	0xb82d5622	-4.132663e-05
103	0xb82f6e22	-4.182582e-05
104	0x3e15f403	0.14643864
105	0xbe6112cb	-0.21979825
106	0xbe6714d2	-0.22566536
107	0xbea8bb73	-0.32955512
108	0x3e1c09de	0.15238139
109	0xbdee25a9	-0.11628277
110	0xbd4c4c8b	-0.049877685
111	0xbe5aa732	-0.21352842
112	0x3b707bdd	0.0036694922
113	0xbddaf380	-0.10690975
114	0xbd5191f3	-0.05116458
115	0x38cc5535	9.743349e-05
116	0x37bbf404	2.2405766e-05
117	0x3800c22a	3.0698407e-05
118	0x3847c22a	4.7626127e-05
119	0x38e7f835	0.000110611705
120	0xb7f45454	-2.9126335e-05
121	0xb7db0454	-2.610885e-05
122	0x3e286857	0.16446052
123	0xbe0fa967	-0.14029466
124	0xbe5bc3d5	-0.21461423
125	0x3e619e71	0.22033097
126	0xbe5e397a	-0.21701613
127	0xbe51d059	-0.20489635
128	0x3e5f083f	0.2178049
129	0x3dc69282	0.09695913
130	0xbe8733fe	-0.26406854
131	0xbe1939b7	-0.14963423
132	0xbd455693	-0.048178267
133	0x3d92a141	0.07159663
134	0xbd92285a	-0.07136603
135	0xbdb490a4	-0.088166505
136	0xbe9d203e	-0.3068866
137	0xbe1b99d4	-0.151954
138	0xbeaa4e54	-0.33262885
139	0xbea640a7	-0.324712
140	0x385b6404	5.2306816e-05
141	0x3893e006	7.051234e-05
142	0x38590c04	5.1748022e-05
143	0xb8395622	-4.4187655e-05
144	0xb9083714	-0.00012990489
145	0xb7933438	-1.7548082e-05
146	0x384a5a2c	4.8244532e-05
147	0x3d87527f	0.06607532
148	0xbd801e4b	-0.06255778
149	0xbe9ae0d7	-0.30249664
150	0xbe413008	-0.18865979
151	0x3e4c6f66	0.1996437
152	0xbe40816e	-0.18799374
153	0xbe66108e	-0.22467253
154	0xbdf24d03	-0.11831095
155	0x3da4df08	0.08050352
156	0xbe0aa8a3	-0.13540892
157	0xbea12290	-0.31471682
158	0xb845f604	-4.719758e-05
159	0x38c49209	9.3732095e-05
160	0xb8a41c89	-7.8254445e-05
161	0x37ef9454	2.856009e-05
162	0xb6a84ee0	-5.0159724e-06
163	0x39068514	0.00012828811
164	0xb905ce16	-0.00012760641
165	0x3e409357	0.18806206
166	0xbdbc483e	-0.091934666
167	0xbe34e97a	-0.17667189
168	0x3e032752	0.12807968
169	0xbe7b5703	-0.24544911
170	0xbe073f08	-0.13207638
171	0x3dc04b40	0.09389353
172	0x3e727743	0.23678307
173	0xbe1f7402	-0.15571597
174	0xbe27125d	-0.16315599
175	0xbe2219ce	-0.15830156
176	0x3e9fa2a9	0.31178787
177	0xbd9fe02b	-0.078064285
178	0xbeaf247e	-0.3420753
179	0x3adafad5	0.0016706834
180	0xbe5c5080	-0.21515083
181	0xbe455c49	-0.19273485
182	0xbd5a539b	-0.05330239
183	0xb90bc514	-0.0001332949
184	0xb8aadc15	-8.147225e-05
185	0x38b010f9	8.3954954e-05
186	0xb7d1cc44	-2.500986e-05
187	0xb8347a2a	-4.302912e-05
188	0x37603810	1.33644935e-05
189	0x390dfd16	0.0001354109
190	0x3e26aa3e	0.1627588
191	0xbe2f3473	-0.17109852
192	0xbea19288	-0.31557107
193	0xbde0a9ac	-0.10969862
194	0x3e80dfba	0.2517069
195	0xbe4a21ab	-0.19739406
196	0xbe5cbfad	-0.21557494
197	0xbddc1dd0	-0.10747874
198	0x3e53f652	0.20699432
199	0xbe4fea07	-0.20304118
200	0xbe845ede	-0.25853628
201	0x3881da02	6.1918065e-05
202	0xb7629810	-1.35060545e-05
203	0xb809a622	-3.281807e-05
204	0x38dd2815	0.00010545567
205	0xb7ba1474	-2.2182452e-05
206	0x37fef454	3.0392934e-05
207	0x38a584f9	7.892581e-05
208	0x3e6b2e9e	0.22967002
209	0xbeaee338	-0.3415773
210	0xbe574e6b	-0.21026008
211	0x3e6c8008	0.23095715
212	0xbead6425	-0.33865467
213	0x3c8a4f24	0.01688344
214	0x3dbb60cf	0.09149324
215	0x3e700449	0.23439135
216	0xbe20d64d	-0.1570675
217	0xbe1f7cdc	-0.15574974
218	0xbe3ae6d8	-0.18252122
219	0x3d9f1392	0.077674046
220	0xbe03e415	-0.12879975
221	0xbe62ade7	-0.22136651
222	0xbdaf6d26	-0.0856574
223	0xbe49c18c	-0.19702739
224	0xbea4211c	-0.3205651
225	0xbe6f271b	-0.23354761
226	0x35f23f80	1.8048886e-06
227	0xb8a23416	-7.734464e-05
228	0xb89fc006	-7.617478e-05
229	0xb8b8ca09	-8.811436e-05
230	0x375848f0	1.2891585e-05
231	0xb879a80c	-5.9522732e-05
232	0x38f6c825	0.00011767474
233	0x3e698878	0.22805965
234	0xbe4dedb2	-0.20110205
235	0xbe8502c7	-0.2597868
236	0xbe9ded89	-0.30845287
237	0x3e4b6c4a	0.19865528
238	0xbe492ee5	-0.19646795
239	0xbe36a47c	-0.17836183
240	0xbddbff36	-0.10742037
241	0x3dd63645	0.1045957
242	0xbeac9fbf	-0.33715627
243	0xbd93a8e6	-0.07209949
244	0xb829a622	-4.0447463e-05
245	0x3895f402	7.150324e-05
246	0xb8999406	-7.32318e-05
247	0x38237e22	3.89797e-05
248	0x38b6a715	8.709558e-05
249	0x38b2ee15	8.532048e-05
250	0xb877f00c	-5.911295e-05
251	0x3e7122c5	0.2354842
252	0xbd80ed79	-0.06295294
253	0xbe701aee	-0.23447773
254	0x3dd8475d	0.105604865
255	0xbe130986	-0.14359102

input_layer.weight_log_sigma f4 [128, 43]
0	0xbf2f7ff0	-0.6855459
1	0xbf4ebca8	-0.80756617
2	0xbf52d568	-0.8235688
3	0xbf5adf94	-0.85497403
4	0xbf2c6d60	-0.67354393
5	0xbf572298	-0.8403716
6	0xbf3d5378	-0.7395549
7	0xbf30ba90	-0.6903467
8	0xbf33da3c	-0.70254874
9	0xbf18679c	-0.59533095
10	0xbf5a4244	-0.85257363
11	0xbf317218	-0.6931472
12	0xbf317218	-0.6931472
13	0xbf317218	-0.6931472
14	0xbf317218	-0.6931472
15	0xbf317218	-0.6931472
16	0xbf317218	-0.6931472
17	0xbf317218	-0.6931472
18	0xbf2ad6fc	-0.6673429
19	0xbf4c7bd8	-0.7987647
20	0xbf449900	-0.7679596
21	0xbf5cded8	-0.8627753
22	0xbf3d3940	-0.7391548
23	0xbf5ad278	-0.854774
24	0xbf3669b4	-0.7125504
25	0xbf3d465c	-0.73935485
26	0xbf10eda4	-0.5661261
27	0xbf389d68	-0.7211518
28	0xbf568548	-0.8379712
29	0xbf317218	-0.6931472
30	0xbf317218	-0.6931472
31	0xbf317218	-0.6931472
32	0xbf317218	-0.6931472
33	0xbf317218	-0.6931472
34	0xbf317218	-0.6931472
35	0xbf317218	-0.6931472
36	0xbf24cc14	-0.643739
37	0xbf572fb4	-0.84057164
38	0xbf2df6a8	-0.6795449
39	0xbf60f798	-0.878778
40	0xbf4329f0	-0.76235867
41	0xbf5c0d18	-0.8595748
42	0xbf519ac8	-0.818768
43	0xbf3d87e8	-0.740355
44	0xbf39f240	-0.7263527
45	0xbf371420	-0.71515083
46	0xbf48e630	-0.7847624
47	0xbf35b22c	-0.70974994
48	0xbf4fb5bc	-0.8113668
49	0xbf2dc238	-0.6787448
50	0xbf45e0bc	-0.7729604
51	0xbf3a683c	-0.728153
52	0xbf526c88	-0.82196856
53	0xbf580e90	-0.8439722
54	0xbf317218	-0.6931472
55	0xbf317218	-0.6931472
56	0xbf317218	-0.6931472
57	0xbf317218	-0.6931472
58	0xbf317218	-0.6931472
59	0xbf317218	-0.6931472
60	0xbf317218	-0.6931472
61	0xbf1c31b4	-0.6101334
62	0xbf4cfef0	-0.80076504
63	0xbf48218c	-0.7817619
64	0xbf5d2d80	-0.8639755
65	0xbf44e7a8	-0.7691598
66	0xbf48d914	-0.78456235
67	0xbf4cb048	-0.79956484
68	0xbf33f474	-0.7029488
69	0xbf16eb70	-0.58953
70	0xbf403198	-0.75075674
71	0xbf5bb154	-0.85817456
72	0xbf317218	-0.6931472
73	0xbf317218	-0.6931472
74	0xbf317218	-0.6931472
75	0xbf317218	-0.6931472
76	0xbf317218	-0.6931472
77	0xbf317218	-0.6931472
78	0xbf317218	-0.6931472
79	0xbf216adc	-0.6305368
80	0xbf5a5c7c	-0.8529737
81	0xbf3fa164	-0.7485564
82	0xbf55f514	-0.83577085
83	0xbf3daf3c	-0.7409551
84	0xbf617ab0	-0.8807783
85	0xbf4df804	-0.80456567
86	0xbf3c25f4	-0.7349541
87	0xbf5a280c	-0.85217357
88	0xbf229860	-0.63513756
89	0xbf5f0570	-0.8711767
90	0xbf4beba4	-0.79656434
91	0xbf598abc	-0.84977317
92	0xbf355668	-0.7083497
93	0xbf3322b4	-0.6997483
94	0xbf168290	-0.5879297
95	0xbf38f92c	-0.72255206
96	0xbf5dcad0	-0.8663759
97	0xbf317218	-0.6931472
98	0xbf317218	-0.6931472
99	0xbf317218	-0.6931472
100	0xbf317218	-0.6931472
101	0xbf317218	-0.6931472
102	0xbf317218	-0.6931472
103	0xbf317218	-0.6931472
104	0xbf32e128	-0.6987481
105	0xbf55091c	-0.83217025
106	0xbf4b8fe0	-0.7951641
107	0xbf5aab24	-0.8541739
108	0xbf470e40	-0.7775612
109	0xbf51a7e4	-0.81896806
110	0xbf2caeec	-0.6745441
111	0xbf4216a4	-0.75815797
112	0xbf305ecc	-0.6889465
113	0xbf2f65b8	-0.68514585
114	0xbf5ef854	-0.8709767
115	0xbf317218	-0.6931472
116	0xbf317218	-0.6931472
117	0xbf317218	-0.6931472
118	0xbf317218	-0.6931472
119	0xbf317218	-0.6931472
120	0xbf317218	-0.6931472
121	0xbf317218	-0.6931472
122	0xbf2150a4	-0.6301367
123	0xbf59b210	-0.85037327
124	0xbf353c30	-0.70794964
125	0xbf5dd7ec	-0.86657596
126	0xbf26f2ac	-0.6521404
127	0xbf5bfffc	-0.85937476
128	0xbf5fafdc	-0.87377715
129	0xbf48bedc	-0.7841623
130	0xbf59f39c	-0.85137343
131	0xbf2ce35c	-0.6753442
132	0xbf5d2d80	-0.8639755
133	0xbf3b5434	-0.7317536
134	0xbf559950	-0.8343706
135	0xbf489788	-0.7835622
136	0xbf2b0b6c	-0.66814303
137	0xbf3236bc	-0.6961477
138	0xbf36dfb0	-0.7143507
139	0xbf5131e8	-0.81716776
140	0xbf317218	-0.6931472
141	0xbf317218	-0.6931472
142	0xbf317218	-0.6931472
143	0xbf317218	-0.6931472
144	0xbf317218	-0.6931472
145	0xbf317218	-0.6931472
146	0xbf317218	-0.6931472
147	0xbf304494	-0.6885464
148	0xbf5d6f0c	-0.8649757
149	0xbf4dc394	-0.80376554
150	0xbf5c75f8	-0.86117506
151	0xbf36d294	-0.71415067
152	0xbf514c20	-0.8175678
153	0xbf284784	-0.65734124
154	0xbf275b8c	-0.65374064
155	0xbf3cf7b4	-0.73815465
156	0xbf2d24e8	-0.6763444
157	0xbf5ba438	-0.8579745
158	0xbf317218	-0.6931472
159	0xbf317218	-0.6931472
160	0xbf317218	-0.6931472
161	0xbf317218	-0.6931472
162	0xbf317218	-0.6931472
163	0xbf317218	-0.6931472
164	0xbf317218	-0.6931472
165	0xbf25c528	-0.6475396
166	0xbf5f5418	-0.8723769
167	0xbf3af870	-0.73035336
168	0xbf5d47b8	-0.8643756
169	0xbf45faf4	-0.7733605
170	0xbf5921dc	-0.8481729
171	0xbf617ab0	-0.8807783
172	0xbf54eee4	-0.8317702
173	0xbf4c12f8	-0.79716444
174	0xbf4e53c8	-0.8059659
175	0xbf4f59f8	-0.80996656
176	0xbf3c402c	-0.7353542
177	0xbf41a0a8	-0.75635767
178	0xbf3e0b00	-0.74235535
179	0xbf19d6ac	-0.6009319
180	0xbf2d6674	-0.67734456
181	0xbf2a6100	-0.6655426
182	0xbf632b4c	-0.8873794
183	0xbf317218	-0.6931472
184	0xbf317218	-0.6931472
185	0xbf317218	-0.6931472
186	0xbf317218	-0.6931472
187	0xbf317218	-0.6931472
188	0xbf317218	-0.6931472
189	0xbf317218	-0.6931472
190	0xbf49b7f0	-0.7879629
191	0xbf50e340	-0.81596756
192	0xbf3ad11c	-0.72975326
193	0xbf4e123c	-0.80496573
194	0xbf229860	-0.63513756
195	0xbf4c2d30	-0.7975645
196	0xbf18c360	-0.5967312
197	0xbf168fac	-0.58812976
198	0xbf28bd80	-0.65914154
199	0xbf4bb734	-0.7957642
200	0xbf5dbdb4	-0.8661759
201	0xbf317218	-0.6931472
202	0xbf317218	-0.6931472
203	0xbf317218	-0.6931472
204	0xbf317218	-0.6931472
205	0xbf317218	-0.6931472
206	0xbf317218	-0.6931472
207	0xbf317218	-0.6931472
208	0xbf3b5434	-0.7317536
209	0xbf5ef854	-0.8709767
210	0xbf4c05dc	-0.7969644
211	0xbf4e1f58	-0.80516577
212	0xbf525f6c	-0.8217685
213	0xbf6187cc	-0.88097835
214	0xbf5e8258	-0.8691764
215	0xbf1d93a8	-0.6155343
216	0xbf5c9d4c	-0.86177516
217	0xbf4471ac	-0.7673595
218	0xbf5a280c	-0.85217357
219	0xbf45b968	-0.7723603
220	0xbf3ff00c	-0.7497566
221	0xbf23fa54	-0.64053845
222	0xbf1c9a94	-0.6117337
223	0xbf2ee2a0	-0.6831455
224	0xbf43ba24	-0.76455903
225	0xbf56ee28	-0.8395715
226	0xbf317218	-0.6931472
227	0xbf317218	-0.6931472
228	0xbf317218	-0.6931472
229	0xbf317218	-0.6931472
230	0xbf317218	-0.6931472
231	0xbf317218	-0.6931472
232	0xbf317218	-0.6931472
233	0xbf3fd5d4	-0.7493565
234	0xbf4144e4	-0.75495744
235	0xbf2ff5ec	-0.6873462
236	0xbf55dadc	-0.8353708
237	0xbf2d6674	-0.67734456
238	0xbf57a5b0	-0.84237194
239	0xbf29d0cc	-0.66334224
240	0xbf2dcf54	-0.6789448
241	0xbf355668	-0.7083497
242	0xbf1f85d0	-0.62313557
243	0xbf5a00b8	-0.85157347
244	0xbf317218	-0.6931472
245	0xbf317218	-0.6931472
246	0xbf317218	-0.6931472
247	0xbf317218	-0.6931472
248	0xbf317218	-0.6931472
249	0xbf317218	-0.6931472
250	0xbf317218	-0.6931472
251	0xbf34e06c	-0.7065494
252	0xbf5316f4	-0.824569
253	0xbf4299bc	-0.7601583
254	0xbf579894	-0.8421719
255	0xbf356384	-0.70854974

input_layer.bias_mu f4 [128]
0	0xbde89063	-0.113556646
1	0xbe2f6fb6	-0.17132458
2	0xbe7c5897	-0.2464317
3	0xbe20bcdb	-0.15697043
4	0xbdf08193	-0.11743464
5	0xbe0f0f13	-0.13970594
6	0xbdb97c53	-0.09056916
7	0xbdd3f83d	-0.10350082
8	0xbe151ff2	-0.14562967
9	0xbe50c4a2	-0.2038751
10	0xbd656127	-0.056000855
11	0xbe10f428	-0.14155638
12	0xbdb46efe	-0.088102326
13	0xbe2f8880	-0.17141914
14	0xbe6e467f	-0.2326908
15	0xbd603027	-0.05473342
16	0xbea90253	-0.33009586
17	0xbdc5bebf	-0.096555226
18	0xbd53a297	-0.05166873
19	0xbd8fb265	-0.07016448
20	0xbe8db803	-0.27679452
21	0xbe494c96	-0.19658121
22	0xbd7ceb7f	-0.061748024
23	0xbd7817c7	-0.06056955
24	0xbd7962c7	-0.060885217
25	0xbe9fe209	-0.3122714
26	0xbe2d1603	-0.16902928
27	0xbd6d8743	-0.057990324
28	0xbe6b98a5	-0.23007448
29	0xbda5cbba	-0.080954984
30	0xbda38e01	-0.079860695
31	0xbe6092b3	-0.21930961
32	0xbe143a8d	-0.1447546
33	0xbd385907	-0.045006778
34	0xbe869f09	-0.2629321
35	0xbdbf050b	-0.09327134
36	0xbe053e72	-0.13012102
37	0xbe3057f9	-0.17221059
38	0xbeaa3dba	-0.3325022
39	0xbe6c060c	-0.23049182
40	0xbe441f15	-0.19152482
41	0xbdb21d41	-0.08696986
42	0xbe1fb7b5	-0.15597422
43	0xbe84e6a3	-0.25957212
44	0xbea8046c	-0.32815874
45	0xbdca8255	-0.0988814
46	0xbda17f34	-0.0788559
47	0xbe21d131	-0.15802456
48	0xbe6b1448	-0.22956955
49	0xbe72d6c9	-0.23714747
50	0xbde135b6	-0.10996573
51	0xbe420ef5	-0.18951018
52	0xbd3e3ca3	-0.046444546
53	0xbe574eeb	-0.21026199
54	0xbe81da78	-0.2536199
55	0xbdeeb2f8	-0.11655229
56	0xbda70bd5	-0.08156554
57	0xbe69c752	-0.22829941
58	0xbce16474	-0.02751372
59	0xbe66cb57	-0.22538505
60	0xbe99cdb2	-0.30039746
61	0xbe5aa65d	-0.21352525
62	0xbda33362	-0.07968785
63	0xbd5a10f7	-0.053238835
64	0xbdb74ac6	-0.08949809
65	0xbe42c0aa	-0.19018808
66	0xbe80477b	-0.25054535
67	0xbcb4ca2a	-0.022069056
68	0xbd90a911	-0.07063497
69	0xbe68cc8e	-0.22734281
70	0xbe512617	-0.20424686
71	0xbe0ee489	-0.13954367
72	0xbdecb63d	-0.11558197
73	0xbda0d2d7	-0.078527145
74	0xbe030f7a	-0.12798873
75	0xbd7fc8c9	-0.062447343
76	0xbe090aa1	-0.13382961
77	0xbe557375	-0.20844825
78	0xbda45736	-0.08024447
79	0xbe4f03e3	-0.20216326
80	0xbe4988e7	-0.1968113
81	0xbded52b3	-0.11588039
82	0xbdd8ac03	-0.10579684
83	0xbe335a32	-0.17514876
84	0xbea94b0c	-0.3306507
85	0xbea299a5	-0.31757846
86	0xbe87b2e8	-0.26503682
87	0xbe1ee52e	-0.15517113
88	0xbe6d0e2a	-0.23149934
89	0xbe95fbfc	-0.2929381
90	0xbe791b09	-0.2432672
91	0xbe268c61	-0.16264488
92	0xbe84796e	-0.25873893
93	0xbe529649	-0.20565142
94	0xbe6a69eb	-0.22891967
95	0xbdf40ac9	-0.119161196
96	0xbd3654ef	-0.044514593
97	0xbe4a75d5	-0.19771512
98	0xbdecf9a2	-0.11571051
99	0xbe3a0cbc	-0.1816892
100	0xbe4cf35e	-0.20014712
101	0xbdf8b9ca	-0.121448115
102	0xbe0d23fc	-0.13783258
103	0xbea9bc0d	-0.33151284
104	0xbe5b6fe6	-0.21429405
105	0xbe536ed4	-0.20647746
106	0xbe1c2f41	-0.15252401
107	0xbd9dd9a1	-0.07707525
108	0xbe869eaa	-0.26292926
109	0xbe7e46db	-0.24831717
110	0xbe23aac4	-0.1598311
111	0xbe9135b6	-0.2836129
112	0xbe98fc3e	-0.29879946
113	0xbdb00b2b	-0.0859588
114	0xbe8c83b5	-0.27444234
115	0xbe5b5497	-0.21418987
116	0xbd99e519	-0.075144
117	0xbc6fb8ca	-0.0146314595
118	0xbded76c2	-0.11594917
119	0xbe0fe862	-0.14053491
120	0xbe5f4d26	-0.21806774
121	0xbddd30c4	-0.10800317
122	0xbe75f9dc	-0.24021095
123	0xbe05af44	-0.1305514
124	0xbe956eda	-0.29186136
125	0xbdbca0ed	-0.09210382
126	0xbe54685b	-0.20742933
127	0xbd18c5ab	-0.037297886

input_layer.bias_log_sigma f4 [128]
0	0xbf5210c4	-0.8205683
1	0xbf548604	-0.8301699
2	0xbf5f0570	-0.8711767
3	0xbf608eb8	-0.8771777
4	0xbf545eb0	-0.8295698
5	0xbf5749ec	-0.8409717
6	0xbf58fa88	-0.8475728
7	0xbf557f18	-0.83397055
8	0xbf5a1af0	-0.85197353
9	0xbf609bd4	-0.87737775
10	0xbf54b3e6	-0.83087003
11	0xbf5d9660	-0.8655758
12	0xbf560f4c	-0.8361709
13	0xbf4663d4	-0.77496076
14	0xbf4d8208	-0.80276537
15	0xbf5f6134	-0.87257695
16	0xbf5b971c	-0.8577745
17	0xbf6104b4	-0.878978
18	0xbf4f186c	-0.8089664
19	0xbf5c068a	-0.8594748
20	0xbf5feada	-0.8746773
21	0xbf572298	-0.8403716
22	0xbf57e73c	-0.8433721
23	0xbf600512	-0.87507737
24	0xbf608eb8	-0.8771777
25	0xbf4bde88	-0.7963643
26	0xbf4f2c16	-0.80926645
27	0xbf518dac	-0.818568
28	0xbf53b444	-0.8269694
29	0xbf57da20	-0.8431721
30	0xbf5bf2e0	-0.8591747
31	0xbf50c908	-0.8155675
32	0xbf436b7c	-0.76335883
33	0xbf58501c	-0.8449724
34	0xbf616078	-0.88037825
35	0xbf58501c	-0.8449724
36	0xbf5a5c7c	-0.8529737
37	0xbf580174	-0.8437722
38	0xbf5d412a	-0.8642756
39	0xbf58c618	-0.8467727
40	0xbf5c4ea4	-0.86057496
41	0xbf623238	-0.8835788
42	0xbf513f04	-0.8173678
43	0xbf4329f0	-0.76235867
44	0xbf5e9602	-0.86947644
45	0xbf5ab1b2	-0.8542739
46	0xbf5e2d22	-0.8678762
47	0xbf5bf2e0	-0.8591747
48	0xbf5adf94	-0.85497403
49	0xbf4584f8	-0.7715602
50	0xbf56da7e	-0.8392714
51	0xbf5d2064	-0.8637755
52	0xbf5b971c	-0.8577745
53	0xbf5f0570	-0.8711767
54	0xbf592ef8	-0.84837294
55	0xbf5cf282	-0.8630754
56	0xbf60af7e	-0.8776778
57	0xbf5c2750	-0.85997486
58	0xbf5124cc	-0.8169677
59	0xbf6032f4	-0.8757775
60	0xbf518dac	-0.818568
61	0xbf62251c	-0.88337874
62	0xbf5d412a	-0.8642756
63	0xbf5f39e0	-0.87197685
64	0xbf5e8258	-0.8691764
65	0xbf5cded8	-0.8627753
66	0xbf560230	-0.8359709
67	0xbf4beba4	-0.79656434
68	0xbf3e118e	-0.74245536
69	0xbf5f128c	-0.87137675
70	0xbf58e050	-0.84717274
71	0xbf60c328	-0.87797785
72	0xbf60d6d2	-0.8782779
73	0xbf535880	-0.82556915
74	0xbf5e0c5c	-0.8673761
75	0xbf5e5b04	-0.8685763
76	0xbf58abe0	-0.8463726
77	0xbf605a48	-0.8763776
78	0xbf45faf4	-0.7733605
79	0xbf5f81fa	-0.87307703
80	0xbf5863c6	-0.8452724
81	0xbf523ea6	-0.82126844
82	0xbf58fa88	-0.8475728
83	0xbf5203a8	-0.8203683
84	0xbf5bcb8c	-0.8585746
85	0xbf5749ec	-0.8409717
86	0xbf4f94f6	-0.8108667
87	0xbf55cdc0	-0.83517075
88	0xbf43ee94	-0.76535916
89	0xbf57e73c	-0.8433721
90	0xbf5c4ea4	-0.86057496
91	0xbf57c676	-0.842872
92	0xbf4e81aa	-0.806666
93	0xbf5d3a9c	-0.86417556
94	0xbf5ffe84	-0.87497735
95	0xbf5f0570	-0.8711767
96	0xbf597712	-0.8494731
97	0xbf5bbe70	-0.8583746
98	0xbf5bfffc	-0.85937476
99	0xbf5d61f0	-0.86477566
100	0xbf5f46fc	-0.8721769
101	0xbf48d914	-0.78456235
102	0xbf55091c	-0.83217025
103	0xbf522afc	-0.8209684
104	0xbf5d1348	-0.86357546
105	0xbf387614	-0.7205517
106	0xbf59f39c	-0.85137343
107	0xbf58d334	-0.8469727
108	0xbf5c75f8	-0.86117506
109	0xbf592ef8	-0.84837294
110	0xbf56ac9c	-0.8385713
111	0xbf5d7c28	-0.8651757
112	0xbf56ac9c	-0.8385713
113	0xbf5cf282	-0.8630754
114	0xbf5e1978	-0.8675761
115	0xbf501180	-0.812767
116	0xbf5e8258	-0.8691764
117	0xbf59dff2	-0.8510734
118	0xbf5f95a4	-0.8733771
119	0xbf5cb0f6	-0.8620752
120	0xbf4cf1d4	-0.800565
121	0xbf56fb44	-0.8397715
122	0xbf5c9d4c	-0.86177516
123	0xbf53e226	-0.8276695
124	0xbf55ee86	-0.8356708
125	0xbf5210c4	-0.8205683
126	0xbf586a54	-0.84537244
127	0xbf53b444	-0.8269694

hidden1_layer.weight_mu f4 [128, 128]
0	0xbe39ec9e	-0.18156669
1	0xbda6553a	-0.081217244
2	0xbe08cd0a	-0.13359466
3	0xbd9e8ee1	-0.07742096
4	0xbe573db8	-0.21019638
5	0xbdeb66b0	-0.114941955
6	0xbd217325	-0.03941645
7	0xbe31dbcb	-0.17369
8	0xbe0f9a9e	-0.14023826
9	0xbdc66b48	-0.09688431
10	0xbe248a9f	-0.16068505
11	0xbd9fb1b8	-0.07797569
12	0xbe2e81d5	-0.17041714
13	0xbccb6395	-0.024827758
14	0xbd2b66bc	-0.041846022
15	0xbdeb7cce	-0.11498414
16	0xbd913656	-0.07090442
17	0xbd04f15b	-0.032456737
18	0xbe09919e	-0.13434455
19	0xbdcd0ade	-0.100118384
20	0xbdf12678	-0.117749155
21	0xbd5a5a0a	-0.053308524
22	0xbe666816	-0.22500643
23	0xbe0c52c0	-0.13703442
24	0xbe5d9ad9	-0.21641101
25	0xbda721a1	-0.08160711
26	0xbcdd9495	-0.027048388
27	0xbcf8311e	-0.030296858
28	0xbde0e664	-0.109814435
29	0xbcdc40d4	-0.026886381
30	0xbdade76a	-0.08491404
31	0xbe83941e	-0.25698942
32	0xbe38589d	-0.18002553
33	0xbe3aacc0	-0.18229961
34	0xbe4c94f9	-0.19978704
35	0xbe3ed862	-0.18637231
36	0xbe0e17c1	-0.13876249
37	0xbc34f11a	-0.011043811
38	0xbd5451e8	-0.051835924
39	0xbe34db67	-0.1766182
40	0xbd926714	-0.07148567
41	0xbdfb382d	-0.12266574
42	0xbe48a8fa	-0.1959571
43	0xbe5b66a0	-0.21425867
44	0x3cd0d93a	0.025494207
45	0xbe1898f4	-0.14902097
46	0xbcc7810d	-0.024353528
47	0xbd874610	-0.0660516
48	0xbd730810	-0.05933386
49	0xbdc2cfa4	-0.095122606
50	0xbbd8e074	-0.006618554
51	0xbe297c80	-0.16551399
52	0xbe320935	-0.17386325
53	0xbe0c8a0a	-0.13724533
54	0xbda861bb	-0.082217656
55	0xbd88c21a	-0.06677647
56	0xbd88e6a7	-0.066846184
57	0xbcd0933a	-0.025460828
58	0xbdcecbd4	-0.10097471
59	0xbe1996bc	-0.14998907
60	0x3d1dc6fe	0.038519852
61	0xbe6e9034	-0.23297197
62	0xbe67bd19	-0.22630729
63	0xbe236770	-0.15957427
64	0xbd9d6139	-0.076845594
65	0xbd576eec	-0.052596018
66	0xbdc7a563	-0.09748342
67	0xbd041427	-0.03224578
68	0xbd321ec6	-0.04348638
69	0xbe4f9141	-0.20270254
70	0xbdd16c22	-0.10225703
71	0xbdff596a	-0.12468226
72	0xbe1ddc27	-0.15416013
73	0xbe4bd9b3	-0.19907264
74	0xbe24cc08	-0.16093457
75	0xbe07e817	-0.13272129
76	0xbdd3920b	-0.1033059
77	0xbe088a05	-0.133339
78	0xbe754111	-0.23950602
79	0xbe41f977	-0.1894282
80	0xbe81cd43	-0.25351915
81	0xbe58e1de	-0.21179911
82	0xbde8cb57	-0.11366909
83	0xbe0dde54	-0.13854343
84	0xbe117260	-0.14203787
85	0xbd0d23be	-0.034457915
86	0xbdb3b91f	-0.087755434
87	0xbdfafbd8	-0.12255067
88	0xbd4ae4f2	-0.049534746
89	0xbd733074	-0.05937238
90	0xbdee7bb5	-0.11644689
91	0xbd0b6080	-0.034027576
92	0xbe1b2917	-0.15152393
93	0xbe22f46e	-0.15913555
94	0xbe05815c	-0.13037628
95	0xbe7279be	-0.23679253
96	0xbe06a2f1	-0.13148095
97	0xbe31ddb9	-0.17369737
98	0xbda298a5	-0.07939271
99	0xbe26087f	-0.16214179
100	0xbe140d84	-0.14458281
101	0xbdabdc62	-0.08391644
102	0xbdf23727	-0.11826926
103	0xbe117847	-0.14206038
104	0xbdc9fc1e	-0.09862541
105	0x3d0bdb44	0.034144655
106	0xbe118c5f	-0.14213704
107	0xbe8b379c	-0.27190864
108	0xbe314a25	-0.1731344
109	0xbdd6b6d6	-0.10484092
110	0xbe26951a	-0.16267815
111	0xbe515d30	-0.20445704
112	0xbe7612e2	-0.2403064
113	0xbdd823bf	-0.10553693
114	0x3c6212ba	0.01379841
115	0xbdf2fb5c	-0.11864349
116	0xbe4c67b1	-0.1996143
117	0xbe2def9c	-0.16985935
118	0xbe08302b	-0.13299625
119	0xbe00eee3	-0.12591128
120	0xbdc5b8aa	-0.096543625
121	0xbe18f022	-0.14935353
122	0x3c93e6da	0.018054415
123	0xbe5738fc	-0.21017832
124	0xbe30617e	-0.1722469
125	0xbdbf6552	-0.09345497
126	0x3c5ca5f4	0.013467301
127	0xbe0a1ade	-0.13486812
128	0xbde40fbc	-0.111358136
129	0xbdfdf7e8	-0.124008
130	0xbda28415	-0.07935349
131	0xbd761d80	-0.060086727
132	0x3cdbf3c9	0.026849644
133	0xbd904cfd	-0.07045934
134	0x3d22c6cc	0.03974037
135	0xbdc4f12a	-0.09616311
136	0xbd75260e	-0.059850745
137	0xbc534e28	-0.012897052
138	0x3b287f1a	0.0025710524
139	0xbdfadb50	-0.12248862
140	0xbdf5fd1e	-0.12011169
141	0xbe089f9c	-0.13342136
142	0xbdf6a11c	-0.12042448
143	0xbc966a43	-0.018361216
144	0xbd9ee6bf	-0.07758855
145	0xbddbbd55	-0.107294716
146	0xbe0d68cc	-0.13809508
147	0xbd633414	-0.055469587
148	0xbe581440	-0.21101475
149	0xbe5a927f	-0.21344946
150	0xbdc21eb2	-0.09478511
151	0xbdb61d7e	-0.08892344
152	0xbd697360	-0.056994796
153	0xbe471d56	-0.19444785
154	0xbd409150	-0.04701358
155	0xbd3a5fb6	-0.045501433
156	0xbd69edf0	-0.05711168
157	0x3d6b0fb4	0.057388023
158	0xbd501302	-0.050799377
159	0x3d0455a5	0.03230824
160	0xbdf8e56e	-0.12153135
161	0xbd816b52	-0.06319298
162	0xbdee4e6c	-0.116360515
163	0xbd9b0ff5	-0.07571403
164	0xbd9daf9e	-0.07699512
165	0xbe20b74b	-0.1569492
166	0xbddd703e	-0.10812424
167	0xbd2d256c	-0.042272016
168	0xbb1390ff	-0.0022516844
169	0xbdd517f0	-0.10404956
170	0xbdc74494	-0.09729877
171	0xbe089b8f	-0.13340591
172	0x3d1e7e3c	0.038694605
173	0xba407497	-0.0007341592
174	0xbd462b77	-0.048381295
175	0xbe0afafc	-0.13572305
176	0xbd6af9ee	-0.057367258
177	0xbd9b681e	-0.07588218
178	0xbde46d22	-0.11153628
179	0xbe1f609a	-0.15564194
180	0xbe38c1b7	-0.18042646
181	0xbd787f4a	-0.060668267
182	0xbdeb1af0	-0.11479747
183	0xbd10314a	-0.035203256
184	0xbe22fbb7	-0.15916334
185	0xbdd461e2	-0.10370232
186	0xbd7ba530	-0.061436832
187	0xbd6772fe	-0.05650615
188	0xbd4f3dee	-0.05059617
189	0xbe325724	-0.17416054
190	0xbdca106c	-0.098664135
191	0xbe1217e3	-0.14266925
192	0xbd696060	-0.056976676
193	0x3c13227e	0.008980392
194	0x3c6db418	0.01450827
195	0xbdb2007e	-0.086915
196	0xbd86da20	-0.06584573
197	0x3d3304d8	0.04370579
198	0xbdbc1142	-0.09182979
199	0xbdbf1886	-0.09330849
200	0xbdfaa9a4	-0.12239388
201	0xbe2772bf	-0.16352366
202	0x3c9d97d5	0.019237438
203	0xbdc00b7e	-0.09377192
204	0xbd69832c	-0.05700986
205	0xbe1e8fe8	-0.15484583
206	0xbdafb2fc	-0.085790604
207	0xbdb8508a	-0.089997366
208	0xbde00b86	-0.10939698
209	0xbd6929fe	-0.056924812
210	0xbe2757cc	-0.16342086
211	0xbd867154	-0.065645844
212	0xbcee94e6	-0.029123735
213	0x3c86b531	0.01644382
214	0xbdee59b6	-0.11638205
215	0xbd8c894c	-0.06862125
216	0xbda59f02	-0.08086969
217	0xbdad4808	-0.084610045
218	0x3c2d5976	0.010580411
219	0xbdcdde22	-0.10052134
220	0xbd9ff026	-0.078094766
221	0xbd775032	-0.060379215
222	0xbd73816a	-0.05944959
223	0xbdb3e00c	-0.08782968
224	0xbd5ae782	-0.05344344
225	0xbd332838	-0.043739527
226	0xbdaa5ae2	-0.08318116
227	0x3c930a3a	0.017949212
228	0x3b8a74f4	0.0042253677
229	0xbe2aa97f	-0.1666622
230	0xbe141714	-0.14461929
231	0x3bb10c8c	0.005403107
232	0xbd8afa27	-0.06785994
233	0xbd83f2f5	-0.06442825
234	0xbc86aebd	-0.016440744
235	0xbe31f119	-0.17377128
236	0xbd8529de	-0.06502126
237	0xbc9c346a	-0.019067962
238	0xbdc0ac8d	-0.094079114
239	0xbdbf1a58	-0.093311965
240	0xbd83f6f9	-0.06443591
241	0xbdf64168	-0.12024194
242	0xbe2ccb0e	-0.16874334
243	0xbe3334a2	-0.17500547
244	0xbe6858fb	-0.22690193
245	0x3d631c32	0.05544681
246	0xbdccb234	-0.09994927
247	0xbd5e3da6	-0.05425801
248	0xbd8f84f7	-0.07007783
249	0xbdcee008	-0.10101324
250	0xbd9750b6	-0.07388441
251	0xbdeeee7c	-0.11666581
252	0xbd6624b8	-0.05618736
253	0xbdaae590	-0.08344567
254	0xbe082a4e	-0.13297388
255	0xbc4677d8	-0.012113534

hidden1_layer.weight_log_sigma f4 [128, 128]
0	0xbf40e920	-0.7535572
1	0xbf3be468	-0.73395395
2	0xbf41a0a8	-0.75635767
3	0xbf5dcad0	-0.8663759
4	0xbf445774	-0.7669594
5	0xbf3ad11c	-0.72975326
6	0xbf2263f0	-0.6343374
7	0xbf45436c	-0.77056
8	0xbf3c18d8	-0.7347541
9	0xbf3d04d0	-0.7383547
10	0xbf3ec288	-0.7451558
11	0xbf340190	-0.70314884
12	0xbf3676d0	-0.71275043
13	0xbf3f3884	-0.7469561
14	0xbf27ebc0	-0.655941
15	0xbf157c60	-0.58392906
16	0xbf2df6a8	-0.6795449
17	0xbf3bfea0	-0.734354
18	0xbf518090	-0.81836796
19	0xbf56fb44	-0.8397715
20	0xbf43995e	-0.76405895
21	0xbf39caec	-0.7257526
22	0xbf33f474	-0.7029488
23	0xbf4e4d3a	-0.8058659
24	0xbf451c18	-0.7699599
25	0xbf364f7c	-0.71215034
26	0xbf3ee34e	-0.7456559
27	0xbf398960	-0.7247524
28	0xbf435e60	-0.7631588
29	0xbf2fa744	-0.686146
30	0xbf52d568	-0.8235688
31	0xbf5b62ac	-0.85697436
32	0xbf4584f8	-0.7715602
33	0xbf360df0	-0.71115017
34	0xbf415200	-0.7551575
35	0xbf40b4b0	-0.7527571
36	0xbf3243d8	-0.6963477
37	0xbf4a89b0	-0.79116344
38	0xbf2d24e8	-0.6763444
39	0xbf3cdd7c	-0.7377546
40	0xbf331598	-0.69954824
41	0xbf32acb8	-0.697948
42	0xbf32e128	-0.6987481
43	0xbf51b500	-0.8191681
44	0xbf2d873a	-0.67784464
45	0xbf35c5d6	-0.71005
46	0xbf3c8846	-0.73645437
47	0xbf2ec868	-0.68274546
48	0xbf2f3e64	-0.68454576
49	0xbf4c682e	-0.79846466
50	0xbf580174	-0.8437722
51	0xbf450efc	-0.7697599
52	0xbf55c0a4	-0.8349707
53	0xbf2a46c8	-0.66514254
54	0xbf4941f4	-0.7861626
55	0xbf3fa7f2	-0.7486564
56	0xbf45da2e	-0.7728604
57	0xbf2df6a8	-0.6795449
58	0xbf222f80	-0.6335373
59	0xbf2c8798	-0.673944
60	0xbf475ce8	-0.7787614
61	0xbf2a2c90	-0.66474247
62	0xbf5856aa	-0.8450724
63	0xbf1fd478	-0.62433577
64	0xbf501e9c	-0.81296706
65	0xbf3cd060	-0.73755455
66	0xbf538cf0	-0.8263693
67	0xbf47843c	-0.7793615
68	0xbf3e0472	-0.74225533
69	0xbf306be8	-0.6891465
70	0xbf3cb628	-0.7371545
71	0xbf43ba24	-0.76455903
72	0xbf3099ca	-0.68984663
73	0xbf21edf4	-0.6325371
74	0xbf430fb8	-0.7619586
75	0xbf474fcc	-0.77856135
76	0xbf447ec8	-0.7675595
77	0xbf2177f8	-0.6307368
78	0xbf6032f4	-0.8757775
79	0xbf2e03c4	-0.67974496
80	0xbf39d17a	-0.7258526
81	0xbf4934d8	-0.7859626
82	0xbf30ba90	-0.6903467
83	0xbf517374	-0.8181679
84	0xbf2e6616	-0.6812452
85	0xbf281314	-0.6565411
86	0xbf2967ec	-0.661742
87	0xbf3322b4	-0.6997483
88	0xbf4656b8	-0.7747607
89	0xbf47d2e4	-0.7805617
90	0xbf463c80	-0.77436066
91	0xbf43995e	-0.76405895
92	0xbf49e5d2	-0.788663
93	0xbf39b0b4	-0.7253525
94	0xbf4dddcc	-0.8041656
95	0xbf370704	-0.7149508
96	0xbf43092a	-0.7618586
97	0xbf4d74ec	-0.80256534
98	0xbf52318a	-0.8210684
99	0xbf39ff5c	-0.7265527
100	0xbf3af870	-0.73035336
101	0xbf279d18	-0.6547408
102	0xbf4a89b0	-0.79116344
103	0xbf4a2dec	-0.7897632
104	0xbf5b971c	-0.8577745
105	0xbf45ac4c	-0.7721603
106	0xbf5210c4	-0.8205683
107	0xbf4f59f8	-0.80996656
108	0xbf594930	-0.848773
109	0xbf462f64	-0.7741606
110	0xbf326b2c	-0.6969478
111	0xbf472878	-0.77796125
112	0xbf4bd16c	-0.7961643
113	0xbf3df0c8	-0.7419553
114	0xbf498380	-0.7871628
115	0xbf1ffbcc	-0.62493587
116	0xbf3ec288	-0.7451558
117	0xbf4b4e54	-0.79416394
118	0xbf5a280c	-0.85217357
119	0xbf2d7a1e	-0.6776446
120	0xbf2ca1d0	-0.67434406
121	0xbf40dc04	-0.7533572
122	0xbf3e9b34	-0.7445557
123	0xbf52b4a2	-0.82306874
124	0xbf472f06	-0.7780613
125	0xbf491aa0	-0.7855625
126	0xbf37a454	-0.7173512
127	0xbf313da8	-0.69234705
128	0xbf3208da	-0.69544756
129	0xbf469ed2	-0.7758609
130	0xbf3a1994	-0.7269528
131	0xbf496948	-0.7867627
132	0xbf3463e2	-0.7046491
133	0xbf46777e	-0.7752608
134	0xbf10e088	-0.5659261
135	0xbf3a961e	-0.7288531
136	0xbf5a630a	-0.8530737
137	0xbf3016b2	-0.6878463
138	0xbf4e3302	-0.8054658
139	0xbf1bae9c	-0.6081331
140	0xbf49b7f0	-0.7879629
141	0xbf3947d4	-0.72375226
142	0xbf2421a8	-0.64113855
143	0xbf383488	-0.71955156
144	0xbf4c682e	-0.79846466
145	0xbf5152ae	-0.81766784
146	0xbf3e118e	-0.74245536
147	0xbf3470fe	-0.7048491
148	0xbf4e401e	-0.80566585
149	0xbf4c3a4c	-0.79776454
150	0xbf3a2d3e	-0.72725284
151	0xbf2a2602	-0.66464245
152	0xbf3bd0be	-0.7336539
153	0xbf390cd6	-0.7228521
154	0xbf342f72	-0.70384896
155	0xbf48c56a	-0.7842623
156	0xbf469ed2	-0.7758609
157	0xbf4598a2	-0.77186024
158	0xbf25b80c	-0.6473396
159	0xbf335096	-0.7004484
160	0xbf3734e6	-0.7156509
161	0xbf3a0c78	-0.72675276
162	0xbf3abd72	-0.7294532
163	0xbf434ab6	-0.76285875
164	0xbf43e178	-0.76515913
165	0xbf46849a	-0.77546084
166	0xbf2c3f7e	-0.6728438
167	0xbf2ad06e	-0.6672429
168	0xbf3b5ac2	-0.7318536
169	0xbf2c5328	-0.67314386
170	0xbf3fb50e	-0.7488564
171	0xbf40fcca	-0.75385725
172	0xbf3b74fa	-0.7322537
173	0xbf3d815a	-0.740255
174	0xbf520a36	-0.8204683
175	0xbf53d50a	-0.82746947
176	0xbf3a9cac	-0.7289531
177	0xbf4e123c	-0.80496573
178	0xbf3c399e	-0.73525417
179	0xbf5942a2	-0.848673
180	0xbf4797e6	-0.77966154
181	0xbf443020	-0.7663593
182	0xbf4fd682	-0.8118669
183	0xbf368a7a	-0.7130505
184	0xbf437f26	-0.7636589
185	0xbf299c5c	-0.6625421
186	0xbf57fae6	-0.84367216
187	0xbf5b908e	-0.8576745
188	0xbf4de45a	-0.8042656
189	0xbf4a000a	-0.7890631
190	0xbf458b86	-0.7716602
191	0xbf3fa7f2	-0.7486564
192	0xbf4443ca	-0.7666594
193	0xbf32649e	-0.6968478
194	0xbf37b170	-0.71755123
195	0xbf2ab636	-0.6668428
196	0xbf3cc9d2	-0.73745453
197	0xbf24a4c0	-0.6431389
198	0xbf288282	-0.6582414
199	0xbf3e0472	-0.74225533
200	0xbf46777e	-0.7752608
201	0xbf425ebe	-0.75925815
202	0xbf4a4196	-0.79006326
203	0xbf35f3b8	-0.7107501
204	0xbf4635f2	-0.77426064
205	0xbf42ba82	-0.7606584
206	0xbf4abe20	-0.7919636
207	0xbf3734e6	-0.7156509
208	0xbf2c9b42	-0.67424405
209	0xbf3e0472	-0.74225533
210	0xbf2c8798	-0.673944
211	0xbf40fcca	-0.75385725
212	0xbf425830	-0.75915813
213	0xbf4797e6	-0.77966154
214	0xbf21088a	-0.62903655
215	0xbf2add8a	-0.6674429
216	0xbf49212e	-0.78566253
217	0xbf47bf3a	-0.78026164
218	0xbf37f98a	-0.7186514
219	0xbf457e6a	-0.7714602
220	0xbf4364ee	-0.7632588
221	0xbf446b1e	-0.7672595
222	0xbf44b338	-0.76835966
223	0xbf3f9ad6	-0.74845636
224	0xbf3c60f2	-0.73585427
225	0xbf40a794	-0.75255704
226	0xbf2b1888	-0.66834307
227	0xbf2ecef6	-0.6828455
228	0xbf3ecfa4	-0.74535584
229	0xbf50599a	-0.8138672
230	0xbf2f2aba	-0.6842457
231	0xbf1fd478	-0.62433577
232	0xbf49a446	-0.78766286
233	0xbf514592	-0.8174678
234	0xbf240770	-0.6407385
235	0xbf49a446	-0.78766286
236	0xbf41f5de	-0.7576579
237	0xbf43e806	-0.76525915
238	0xbf416c38	-0.75555754
239	0xbf3377ea	-0.7010485
240	0xbf2df01a	-0.6794449
241	0xbf5a55ee	-0.8528737
242	0xbf4a1a42	-0.78946316
243	0xbf4e18ca	-0.80506575
244	0xbf3afefe	-0.7304534
245	0xbf3030ea	-0.68824637
246	0xbf510406	-0.81646764
247	0xbf295442	-0.6614419
248	0xbf2c2546	-0.67244375
249	0xbf25142e	-0.64483917
250	0xbf29b006	-0.66284215
251	0xbf363bd2	-0.7118503
252	0xbf1f309a	-0.62183535
253	0xbf51943a	-0.818668
254	0xbf535f0e	-0.82566917
255	0xbf39270e	-0.7232522

hidden1_layer.bias_mu f4 [128]
0	0xbe3b65ce	-0.18300554
1	0xbda19b70	-0.078909755
2	0x3c582b02	0.013193848
3	0xbdb1d43e	-0.0868306
4	0xbdafc54f	-0.085825555
5	0xbdcfc9f4	-0.101459414
6	0xbe2624fe	-0.16225049
7	0xbcd34923	-0.02579171
8	0xbd9ca269	-0.07648165
9	0xbe245d47	-0.16051207
10	0xbe07e9eb	-0.13272826
11	0xbd331570	-0.043721616
12	0xbe26aa85	-0.16275986
13	0xbdb5bd57	-0.08874004
14	0xbd6a5514	-0.057210043
15	0xbe2f7155	-0.17133076
16	0xbd19d17d	-0.0375533
17	0xbdf18bca	-0.11794241
18	0xbe39951c	-0.18123287
19	0xbe2dbb8d	-0.16966076
20	0xbe2fdf1f	-0.17174958
21	0xbe29c50a	-0.1657907
22	0xbd832f6f	-0.064055316
23	0xbde4a580	-0.11164379
24	0xbe29d68d	-0.16585751
25	0xbd9f1eec	-0.0776957
26	0xbdb034ca	-0.08603819
27	0xbe00262c	-0.12514561
28	0xbe410213	-0.18848448
29	0xbdad0900	-0.08448982
30	0xbe246acb	-0.16056363
31	0xbdae910b	-0.085237585
32	0xbd41f5d4	-0.04735358
33	0xbe7e07e9	-0.24807705
34	0xbe00e816	-0.12588534
35	0xbd9818bb	-0.07426592
36	0xbe2f5885	-0.17123611
37	0xbe61680c	-0.22012347
38	0xbe2e0330	-0.16993403
39	0xbd91f3ef	-0.07126605
40	0xbe67d8d8	-0.22641313
41	0xbe09754d	-0.13423653
42	0x3bf3872c	0.007431885
43	0xbe039a69	-0.12851872
44	0xbd48a126	-0.048981808
45	0xbdeaabcc	-0.11458549
46	0xbdc2fe70	-0.09521186
47	0xbdf839a2	-0.121203676
48	0xbdb68db5	-0.08913747
49	0xbda1cf06	-0.07900815
50	0xbd9b992b	-0.07597574
51	0xbd885e05	-0.06658558
52	0xbd822016	-0.06353776
53	0xbdb55aa2	-0.088551775
54	0xbdcabadd	-0.098989226
55	0xbe2318d0	-0.15927434
56	0xbdfeb5b4	-0.12437001
57	0xbd880ff4	-0.06643668
58	0xbe01203c	-0.12609953
59	0xbe4d124c	-0.20026511
60	0xbe0583a6	-0.13038501
61	0xbddec04c	-0.108765215
62	0xbe227ad0	-0.15867162
63	0xbe35983f	-0.17733859
64	0xbdaac47e	-0.08338259
65	0xbddf8a89	-0.10915095
66	0xbe3c8324	-0.18409401
67	0xbdd4b2a8	-0.103856385
68	0xbdfc0270	-0.123051524
69	0xbde6e180	-0.112734795
70	0xbdfb419c	-0.12268373
71	0xbd9997fe	-0.07499693
72	0xbd74eeb8	-0.059797972
73	0xbe170a25	-0.14749964
74	0xbdd9f3b4	-0.10642186
75	0xbe2c8cba	-0.16850558
76	0xbdd80c55	-0.10549227
77	0xbd86f395	-0.06589428
78	0xbdff7e86	-0.12475304
79	0xbe41a79a	-0.18911591
80	0xbb9e843c	-0.004837541
81	0xbe43eb94	-0.19132835
82	0xbdb95eab	-0.090512596
83	0xbe3b2cf5	-0.18278868
84	0xbd257202	-0.04039193
85	0xbce362f3	-0.027757144
86	0xbdb87c88	-0.090081275
87	0xbce34e08	-0.02774717
88	0xbdb741e9	-0.08948118
89	0xbe1cf742	-0.15328696
90	0xbe4d0e18	-0.20024908
91	0xbe53506d	-0.20636149
92	0xbe0d80c7	-0.13818656
93	0xbdd6c94a	-0.104876116
94	0xbe3365b2	-0.17519262
95	0xbde77677	-0.11301892
96	0xbe48706e	-0.19574139
97	0xbe35e39d	-0.17762609
98	0xbd94d0a2	-0.07266356
99	0xbe10586e	-0.14096233
100	0xbd0c304c	-0.034225747
101	0xbe2b6d0b	-0.16740815
102	0xbdf079f6	-0.11742012
103	0xbe6479a8	-0.22312033
104	0xbe2a8008	-0.16650403
105	0xbddd3950	-0.10801947
106	0x3cdc6f20	0.026908457
107	0xbd27ba8b	-0.040949386
108	0xbded3bb6	-0.115836546
109	0xbcbe45a7	-0.023226572
110	0xbd89df4a	-0.06732042
111	0xbdf2a6aa	-0.11848195
112	0xbd9e90a6	-0.07742433
113	0xbdbe6770	-0.09297073
114	0xbe06dbdb	-0.13169806
115	0xbe1ddfbf	-0.15417384
116	0xbdc3b20b	-0.095554434
117	0xbd8f69e8	-0.07002622
118	0xbdee4356	-0.11633937
119	0xbd849d52	-0.06475319
120	0xbdb97434	-0.09055367
121	0xbdd52258	-0.10406941
122	0xbe25fc32	-0.16209486
123	0xbdc058a9	-0.093919106
124	0xbe058821	-0.1304021
125	0xbdab7aad	-0.08373008
126	0xbdf38152	-0.118899
127	0xbd8116c2	-0.06303169

hidden1_layer.bias_log_sigma f4 [128]
0	0xbf490d84	-0.7853625
1	0xbf3abd72	-0.7294532
2	0xbf40f63c	-0.75375724
3	0xbf421016	-0.75805795
4	0xbf4c3a4c	-0.79776454
5	0xbf5f1fa8	-0.8715768
6	0xbf3f45a0	-0.74715614
7	0xbf4392d0	-0.76395893
8	0xbf51b500	-0.8191681
9	0xbf534b64	-0.8253691
10	0xbf346a70	-0.7047491
11	0xbf3f7a10	-0.7479563
12	0xbf498380	-0.7871628
13	0xbf55d44e	-0.83527076
14	0xbf363544	-0.71175027
15	0xbf407324	-0.7517569
16	0xbf44c054	-0.7685597
17	0xbf5650d8	-0.8371711
18	0xbf497cf2	-0.78706276
19	0xbf3b95c0	-0.73275375
20	0xbf3ab6e4	-0.7293532
21	0xbf53e226	-0.8276695
22	0xbf55091c	-0.83217025
23	0xbf35d980	-0.71035004
24	0xbf5784ea	-0.84187186
25	0xbf303e06	-0.6884464
26	0xbf4a20d0	-0.7895632
27	0xbf353c30	-0.70794964
28	0xbf586a54	-0.84537244
29	0xbf4a5540	-0.7903633
30	0xbf575708	-0.84117174
31	0xbf42932e	-0.7600583
32	0xbf48bedc	-0.7841623
33	0xbf4b2700	-0.79356384
34	0xbf428612	-0.75985825
35	0xbf46e6ec	-0.7769611
36	0xbf452fc2	-0.77026
37	0xbf3d2596	-0.73885477
38	0xbf45c684	-0.77256036
39	0xbf379738	-0.71715117
40	0xbf48dfa2	-0.78466237
41	0xbf4385b4	-0.7637589
42	0xbf3aa9c8	-0.72915316
43	0xbf40f63c	-0.75375724
44	0xbf42b3f4	-0.76055837
45	0xbf517374	-0.8181679
46	0xbf48bedc	-0.7841623
47	0xbf47c5c8	-0.78036165
48	0xbf546bcc	-0.82976985
49	0xbf3d04d0	-0.7383547
50	0xbf521de0	-0.82076836
51	0xbf428ca0	-0.75995827
52	0xbf428612	-0.75985825
53	0xbf4cd79c	-0.80016494
54	0xbf518dac	-0.818568
55	0xbf327ed6	-0.69724786
56	0xbf364260	-0.7119503
57	0xbf467e0c	-0.7753608
58	0xbf4ed6e0	-0.80796623
59	0xbf5fd730	-0.87437725
60	0xbf35d2f2	-0.71025
61	0xbf594930	-0.848773
62	0xbf2f1710	-0.68394566
63	0xbf447ec8	-0.7675595
64	0xbf57435e	-0.8408717
65	0xbf510406	-0.81646764
66	0xbf493b66	-0.7860626
67	0xbf46152c	-0.77376056
68	0xbf46777e	-0.7752608
69	0xbf34b918	-0.7059493
70	0xbf45e0bc	-0.7729604
71	0xbf4cb048	-0.79956484
72	0xbf50e340	-0.81596756
73	0xbf358ad8	-0.70914984
74	0xbf371aae	-0.71525085
75	0xbf4c7bd8	-0.7987647
76	0xbf46a560	-0.7759609
77	0xbf459f30	-0.77196026
78	0xbf435e60	-0.7631588
79	0xbf408040	-0.75195694
80	0xbf3c3310	-0.73515415
81	0xbf36e63e	-0.7144507
82	0xbf4d1928	-0.8011651
83	0xbf360df0	-0.71115017
84	0xbf551cc6	-0.8324703
85	0xbf507a60	-0.8143673
86	0xbf3d8e76	-0.74045503
87	0xbf41d518	-0.7571578
88	0xbf49ec60	-0.78876305
89	0xbf4598a2	-0.77186024
90	0xbf349ee0	-0.70554924
91	0xbf50a842	-0.8150674
92	0xbf3f3884	-0.7469561
93	0xbf33f474	-0.7029488
94	0xbf5b908e	-0.8576745
95	0xbf4bcade	-0.79606426
96	0xbf425ebe	-0.75925815
97	0xbf4baa18	-0.7955642
98	0xbf55d44e	-0.83527076
99	0xbf404bd0	-0.7511568
100	0xbf462248	-0.7739606
101	0xbf2a1258	-0.6643424
102	0xbf41ef50	-0.75755787
103	0xbf32024c	-0.69534755
104	0xbf362828	-0.71155024
105	0xbf3c3310	-0.73515415
106	0xbf3e3f70	-0.7431555
107	0xbf52a0f8	-0.8227687
108	0xbf36eccc	-0.71455073
109	0xbf4670f0	-0.7751608
110	0xbf4a3b08	-0.78996325
111	0xbf459f30	-0.77196026
112	0xbf3e66c4	-0.7437556
113	0xbf56fb44	-0.8397715
114	0xbf3ef06a	-0.7458559
115	0xbf49be7e	-0.78806293
116	0xbf3e531a	-0.7434555
117	0xbf443d3c	-0.76655936
118	0xbf314436	-0.69244707
119	0xbf37d8c4	-0.71815133
120	0xbf536c2a	-0.8258692
121	0xbf369e24	-0.71335053
122	0xbf3dfde4	-0.7421553
123	0xbf4b2700	-0.79356384
124	0xbf39b742	-0.72545254
125	0xbf4934d8	-0.7859626
126	0xbf2e1dfc	-0.680145
127	0xbf3b6150	-0.7319536

hidden2_layer.weight_mu f4 [128, 128]
0	0xbe137243	-0.14399056
1	0xbe3d528d	-0.18488522
2	0xbe864fce	-0.2623276
3	0xbdde2159	-0.10846204
4	0xbe8fd77e	-0.28094095
5	0xbe1cfcfc	-0.15330881
6	0xbe514dfc	-0.20439905
7	0xbe83e27d	-0.25758734
8	0xbe57f3df	-0.21089123
9	0xbde70965	-0.11281089
10	0xbe1204ed	-0.14259692
11	0xbe284f16	-0.16436419
12	0xbe59ba68	-0.21262515
13	0xbe3a573f	-0.18197344
14	0xbe3b5a5d	-0.1829619
15	0xbe8d843a	-0.27639943
16	0xbe8d0000	-0.27539062
17	0xbe5a694c	-0.2132923
18	0xbe7dada1	-0.24773265
19	0xbe2af2ce	-0.16694185
20	0xbe7280be	-0.23681924
21	0xbdf9e0d8	-0.12201089
22	0xbdf259eb	-0.11833557
23	0xbde1e2c4	-0.1102958
24	0xbdf29f95	-0.11846844
25	0xbe70c7e3	-0.2351375
26	0xbe029e85	-0.12755783
27	0xbe743650	-0.23848844
28	0xbe218086	-0.15771684
29	0xbe376b4c	-0.17912024
30	0xbe7c8927	-0.24661694
31	0xbe8da4fb	-0.27664933
32	0xbdd70ab8	-0.10500091
33	0xbe15d808	-0.1463319
34	0xbe04e8eb	-0.12979476
35	0xbded5dcb	-0.11590155
36	0xbe85f049	-0.26159886
37	0xbe3d34fc	-0.18477243
38	0xbe2b7ab4	-0.16746026
39	0xbe70f01e	-0.23529097
40	0xbe3836ba	-0.17989627
41	0xbe1bc2aa	-0.15210977
42	0xbe75a66b	-0.23989265
43	0xbe416c5d	-0.18888994
44	0xbe07b67d	-0.13253208
45	0xbe85b0ed	-0.26111546
46	0xbe8ccdc2	-0.2750073
47	0xbe76775f	-0.24068974
48	0xbe3264de	-0.1742129
49	0xbe142eee	-0.14471027
50	0xbe307207	-0.17230998
51	0xbe33e88f	-0.17569183
52	0xbe492af0	-0.19645286
53	0xbe797302	-0.24360278
54	0xbe12e895	-0.14346536
55	0xbe8540e6	-0.26026076
56	0xbe25eca7	-0.16203557
57	0xbded88ed	-0.11598382
58	0xbe1256af	-0.1429088
59	0xbe2ad21c	-0.16681713
60	0xbe83cc04	-0.2574159
61	0xbe714a83	-0.2356358
62	0xbe8d1012	-0.27551323
63	0xbe56fa0d	-0.20993824
64	0xbe9113f5	-0.28335539
65	0xbe73c9b2	-0.2380741
66	0xbe300e90	-0.17193055
67	0xbe21c765	-0.15798719
68	0xbe91d595	-0.28483263
69	0xbdd4f1b1	-0.103976615
70	0xbe515e93	-0.20446233
71	0xbe827417	-0.25479195
72	0xbe5fb360	-0.2184577
73	0xbe6a3dd9	-0.22875156
74	0xbe48fd3f	-0.19627856
75	0xbe4ba933	-0.19888763
76	0xbe863a4a	-0.26216346
77	0xbe63f03b	-0.2225961
78	0xbe21ff3a	-0.15820017
79	0xbe7a3491	-0.24434115
80	0xbde2168e	-0.11039458
81	0xbe35ec31	-0.17765881
82	0xbe63e4bf	-0.22255228
83	0xbe3029f8	-0.1720351
84	0xbe012aef	-0.12614034
85	0xbe2051fc	-0.15656275
86	0xbe2b8a41	-0.16751958
87	0xbe82f3d7	-0.2557666
88	0xbdfd8cb3	-0.12380352
89	0xbe725602	-0.23665622
90	0xbe2d171f	-0.16903351
91	0xbe90a8ae	-0.28253692
92	0xbe7f9518	-0.24959219
93	0xbe412ade	-0.18864009
94	0xbe323995	-0.17404778
95	0xbe473862	-0.19455102
96	0xbe6b3701	-0.22970201
97	0xbe716f31	-0.23577572
98	0xbe5702f6	-0.20997223
99	0xbe1ffc0f	-0.15623496
100	0xbe595b12	-0.21226147
101	0xbe486dd0	-0.1957314
102	0xbe8cee6e	-0.27525657
103	0xbe266503	-0.1624947
104	0xbe4d47c8	-0.20046914
105	0xbe8b2bfa	-0.2718199
106	0xbe60cd25	-0.21953256
107	0xbe798183	-0.24365811
108	0xbe5f5429	-0.21809448
109	0xbe5bc5ba	-0.21462145
110	0xbe363cde	-0.17796656
111	0xbdf43caf	-0.11925637
112	0xbe0d8a41	-0.13822271
113	0xbe45e3c1	-0.19325162
114	0xbe6024c7	-0.2188903
115	0xbe262ca9	-0.16227974
116	0xbe875b4c	-0.2643684
117	0xbe04fbcf	-0.12986682
118	0xbe630f6b	-0.2217385
119	0xbe1fb794	-0.15597373
120	0xbe8d9a1b	-0.27656636
121	0xbe5e91f3	-0.21735363
122	0xbe44cf68	-0.19219744
123	0xbe8e7063	-0.2782012
124	0xbe8d42ae	-0.27589935
125	0xbe3b09b9	-0.18265428
126	0xbe5174cb	-0.20454709
127	0xbe5ff5b6	-0.21871075
128	0xbe819c05	-0.25314346
129	0xbe152b46	-0.14567289
130	0xbdfd3f84	-0.1236563
131	0xbe2ac82a	-0.16677919
132	0xbe0f8dee	-0.14018986
133	0xbdff64a1	-0.12470365
134	0xbe11e7be	-0.14248559
135	0xbe848875	-0.25885358
136	0xbe825298	-0.2545364
137	0xbe1f5dae	-0.1556308
138	0xbe29316b	-0.16522758
139	0xbe293e79	-0.16527738
140	0xbe88ee7b	-0.26744446
141	0xbe152061	-0.14563133
142	0xbe232d2e	-0.15935203
143	0xbe3f8fa3	-0.18707137
144	0xbe8ba7ce	-0.27276462
145	0xbe8d0c30	-0.2754836
146	0xbe0f652e	-0.1400344
147	0xbe363ec9	-0.17797388
148	0xbe375332	-0.1790283
149	0xbdfd256f	-0.123606555
150	0xbe10e32d	-0.1414916
151	0xbe18f187	-0.14935885
152	0xbe711e83	-0.23546796
153	0xbe741675	-0.23836692
154	0xbe5015be	-0.20320794
155	0xbe5d8b23	-0.21635108
156	0xbe7f1a90	-0.24912477
157	0xbe6ff4ea	-0.23433271
158	0xbe0b3f50	-0.1359837
159	0xbe161aea	-0.14658704
160	0xbe4671a5	-0.1937929
161	0xbe4838e6	-0.19552955
162	0xbe5d44ed	-0.21608324
163	0xbe41a094	-0.18908912
164	0xbe6a50bf	-0.22882365
165	0xbe435c8e	-0.19078276
166	0xbe28d5b7	-0.16487776
167	0xbe635767	-0.2220131
168	0xbe52767f	-0.20553015
169	0xbe4d4c2e	-0.20048591
170	0xbe1cffcf	-0.15331958
171	0xbe6bd50a	-0.23030487
172	0xbe0ff05a	-0.1405653
173	0xbe201d70	-0.1563623
174	0xbe3469d3	-0.17618494
175	0xbe685b1d	-0.22691007
176	0xbe5a98d1	-0.21347357
177	0xbe6e2310	-0.23255563
178	0xbe260811	-0.16214015
179	0xbe580d97	-0.21098934
180	0xbe838397	-0.25686333
181	0xbe05120c	-0.12995166
182	0xbe25b9dc	-0.16184181
183	0xbe74913c	-0.23883528
184	0xbe91fc2d	-0.28512707
185	0xbe28f9c5	-0.1650153
186	0xbdffeeca	-0.12496717
187	0xbe1207f1	-0.14260842
188	0xbe3b8e54	-0.18316013
189	0xbe32b1a8	-0.17450583
190	0xbe820144	-0.2539159
191	0xbe743116	-0.2384685
192	0xbe86e8a5	-0.2634937
193	0xbe3814c5	-0.17976673
194	0xbe8c263d	-0.27372923
195	0xbe6386a9	-0.22219338
196	0xbe71a1f1	-0.23596932
197	0xbe885750	-0.26629114
198	0xbe0a7a28	-0.13523161
199	0xbe64fc62	-0.22361901
200	0xbe1ec112	-0.15503338
201	0xbe6d2c49	-0.23161425
202	0xbe65f597	-0.22456966
203	0xbe836dbb	-0.25669655
204	0xbe8541d7	-0.26026794
205	0xbe476268	-0.19471133
206	0xbe266fbe	-0.16253564
207	0xbe4972eb	-0.19672744
208	0xbe7c7e98	-0.24657667
209	0xbe901977	-0.28144428
210	0xbe7439ce	-0.23850176
211	0xbe881093	-0.26575145
212	0xbe14fc03	-0.1454926
213	0xbe55d8c6	-0.20883474
214	0xbe1b9b49	-0.15195955
215	0xbe2dde79	-0.16979398
216	0xbe8004fc	-0.25003803
217	0xbe896cf9	-0.26840952
218	0xbe5f9620	-0.21834612
219	0xbe64fe2a	-0.22362581
220	0xbe3dfe55	-0.18554051
221	0xbe51f9d6	-0.20505461
222	0xbe6ee44f	-0.2332928
223	0xbe2129fb	-0.1573867
224	0xbe0815ce	-0.13289568
225	0xbe1f7912	-0.15573528
226	0xbdfd5758	-0.12370175
227	0xbdf3e00c	-0.11907968
228	0xbe8a02b0	-0.26955175
229	0xbe777e21	-0.24169208
230	0xbe377657	-0.17916237
231	0xbdf10e59	-0.11770315
232	0xbe1384c8	-0.14406121
233	0xbe020309	-0.1269647
234	0xbe2d19c8	-0.16904366
235	0xbe262d85	-0.16228302
236	0xbde2904f	-0.11062681
237	0xbe88302b	-0.2659925
238	0xbe6acc10	-0.22929406
239	0xbe908bf0	-0.28231764
240	0xbe7a5a3f	-0.24448489
241	0xbde780e7	-0.11303883
242	0xbe81f6a5	-0.25383487
243	0xbe16f587	-0.14742099
244	0xbe20faf7	-0.15720735
245	0xbe610f3d	-0.21978469
246	0xbe4d79b7	-0.20065962
247	0xbe40831b	-0.18800013
248	0xbe641971	-0.2227533
249	0xbe647bc8	-0.22312844
250	0xbe552be6	-0.20817527
251	0xbe035d1b	-0.12828486
252	0xbe515490	-0.20442414
253	0xbe6905bb	-0.22756092
254	0xbe19a014	-0.15002471
255	0xbe131cc9	-0.1436645
