model_stock/dynamic_small_evn_all_lr0.0001_2500EP.pth (torch, 356305 bytes, 16 tensors)

input_layer.weight_mu f4 [128, 43]
00000000: 81dd d1bc ea82 5fbe 894c cfbd 0917 a9be
00000010: b29f af3d 360a aebe 10fc a7be 904c 09be
00000020: 7efb 753e 3c53 3dbe c9a4 8fbd 3d71 91be
00000030: 3d6b afbe 0c4c 43be c932 b3be 2276 17b8
00000040: 0cb8 6638 2a12 14b8 f10c 583d e69b 93be
00000050: 41d9 18be 70cb 2fbe fdfc 263d ed4b acbe
00000060: b68b a9be f107 9bbe dcaa 523c b0ce 74be
00000070: 149e c9bd ad3f 66be baa9 56bd c44e a6be
00000080: e3d5 c0be 159c b038 6001 e4b6 5454 c837
00000090: deb1 42be b0ec b0be 5fa9 e9bd 2ec5 debd
000000a0: 6719 89be e2b0 c63d 65e3 93be f0e4 1f3e
000000b0: 046c c9be 74d3 8bbe 419c dbbd 4c65 833d
000000c0: 391d 87be acd2 2bbe e0bf 03be bda4 363e
000000d0: b5b6 c4be 515c bfbe 8158 9fbe 41c3 90be
000000e0: b80f f7bd 3fbc 12be 1028 5337 546c cb37
000000f0: 06ea 8ab8 db21 d839 9700 0abe 2825 b4be
00000100: ed4c 64be 0d5f bdbd 1bc3 cdbd 546c a9be
00000110: 371b 51be 8dfc ce3d 1222 2ebe 9c5c 06be
00000120: f702 98be 21f6 b8be 0379 babe 5370 9dbe
00000130: 1588 a6b8 2ab2 2838 22f6 0938 af9c bcbe
00000140: 9d04 a1be 97b5 2bbe a1d5 91bc 113a c8bd
00000150: 0b3b ca3d c54a 2bbe 38c8 cf3d 4db0 efbd
00000160: c48e 62be 4d39 70be 4a5e f93d 70d8 84be
00000170: 17b7 b5be cc05 85be 88a5 953e 1000 39be
00000180: e6bb aabe b079 a8be ee45 81be 7d71 7bbe
00000190: fa1d 3fbe 04c4 52b8 84d8 67b8 08ec 9bb7
000001a0: 2e14 64bd db6b 41be ee0d bbbe 6cc2 42be
000001b0: 1377 a83d c41e a4be 2485 babe a9c5 e9bd
000001c0: f3f3 113e 6812 1cbe 5650 fdbd 113a c6bd
000001d0: f609 b4be 7308 4fbe f61f cbbd 1018 48b7
000001e0: 081c 8d37 084c 8bb7 d07b 98be f1fa c7be
000001f0: e5ef d3bd e4b2 b1bc ffcf 07be 114c 633e
00000200: f27b 1fbe ee82 08be 6bdf dcbd 6d43 e7bd
00000210: c32a c7be 789b c13d b528 4dbe 2188 79be
00000220: 6b2b c1be e8c1 0d3e 83b7 91be 42b8 09be
00000230: 64ff 9dbe 2d21 63be cb85 75be abc2 febd
00000240: 2a82 0238 447c c6b7 2ab2 28b8 1530 c63d
00000250: 0162 b5be 245f 53be 5db6 6dbe 1a23 203e
00000260: 5501 b1be f7ff dbbd 1757 61be 0d5e 423e
00000270: 01dd b9bd 5bc7 89be 49c2 82be 46f4 24be
00000280: 20f7 94be a1a8 d9bd 44e2 d737 222e 06b8
00000290: 167c 0fb9 0225 fabd 7348 61be 8f16 bcbd
000002a0: 8ddb b0bd aadf 3ebe c571 7a3e 0387 45be
000002b0: 5e72 dcbc 1138 e5bd 0e98 a4be 4667 3cbe
000002c0: 61c3 a5bd d505 90be b57c 02be 1679 97be
000002d0: 06dc 893d bac8 6bbe 92bd bbbe 6163 4dbe
000002e0: 657e 00be b751 ebbd 89b9 92be f9c1 b938
000002f0: 25a8 f7b8 40a0 32b6 e3a4 073e d35d e4bd
00000300: 1874 89be 71d4 a0be 3229 bfbc 1c0a 7ebe
00000310: 6ef9 c1be 0086 1abe 5152 803e 4be7 01bd
00000320: 751f 84be b0ac 75be 8532 89be 8a34 78be
00000330: 229a c3be 0628 9338 094b beb8 067c 82b8
00000340: 42e8 65be b1a3 6ebe 60ca 68be da3f 36bd
00000350: 9a1e bfbd ec1f a33e ca97 17be 9868 d6bb
00000360: b0c4 05be 732a 95be 72e3 23be 1237 1d3c
00000370: a888 16be a1dd bdbe ab11 4dbe 3390 553e
00000380: c140 b9be 0ee3 b4be 16ae 9dbe 09de 42be
00000390: 8c7e 8fbe e46f 27be 10b8 2b37 7454 be37
000003a0: 2aca 4538 5883 4f3d 5dcd bcbe 4a10 c9be
000003b0: b59b 11be 7d48 8d3c f065 3abe 665d a6be
000003c0: b84a a7be 2ff2 af3d 9e7e a9be a9e9 84be
000003d0: 5f2e 29be 1921 80be 47f0 01be b1f1 00be
000003e0: 2a1a 3db8 5494 cab7 0280 85b8 3d43 8abe
000003f0: 718b c9be 3569 9abe d776 11bd f2cd 2ebe
-0.025618317 -0.21827284 -0.1012202 -0.33025387 0.08575381 -0.33992165 -0.32809496 -0.13408113
0.24021718 -0.18488783 -0.07013852 -0.28406706 -0.34261504 -0.19071978 -0.34999683 -3.6111225e-05
5.500768e-05 -3.5302866e-05 0.052746717 -0.2882988 -0.14926626 -0.17167449 0.040768612 -0.33651677
-0.33114403 -0.30279496 0.012858119 -0.2390697 -0.09844604 -0.22485228 -0.052407958 -0.32481968
-0.37663183 8.4214065e-05 -6.7950896e-06 2.3881126e-05 -0.19013163 -0.34555578 -0.11409258 -0.10877453
-0.26777193 0.097017065 -0.28884426 0.15614676 -0.39340222 -0.27309763 -0.107231624 0.06415805
-0.26389483 -0.16779584 -0.12866163 0.1783628 -0.38420644 -0.3737512 -0.3112221 -0.28273967
-0.12063545 -0.14329623 1.2585908e-05 2.424993e-05 -6.623943e-05 0.00041223955 -0.13476788 -0.35184598
-0.2229497 -0.09246645 -0.10046979 -0.3309046 -0.20420538 0.10106764 -0.17005184 -0.13121265
-0.29689762 -0.3612528 -0.3642045 -0.3074976 -7.940844e-05 4.022025e-05 3.2892574e-05 -0.3683829
-0.31448832 -0.1676849 -0.017802062 -0.097767 0.09874543 -0.16727741 0.101456106 -0.117035486
-0.22124773 -0.23459359 0.12176187 -0.2594638 -0.3549125 -0.25980985 0.29227853 -0.1806643
-0.3334648 -0.3290534 -0.25248665 -0.24555011 -0.18663779 -5.0250455e-05 -5.5276338e-05 -1.858735e-05
-0.055683307 -0.188888 -0.36534065 -0.19019479 0.082258366 -0.32054722 -0.36429703 -0.11414654
0.14253215 -0.15241396 -0.123688385 -0.09679044 -0.3516385 -0.20218067 -0.099182054 -1.1926531e-05
1.6821563e-05 -1.6605496e-05 -0.2978196 -0.3905864 -0.103484906 -0.021691747 -0.13262938 0.22196986
-0.15574625 -0.13331196 -0.10784801 -0.11292157 -0.38899812 0.094534814 -0.2003506 -0.24368335
-0.37728438 0.138435 -0.2846032 -0.13449195 -0.3085891 -0.22180624 -0.23976819 -0.12439474
3.111564e-05 -2.3661305e-05 -4.022025e-05 0.0967714 -0.35426334 -0.20641762 -0.23214097 0.1563839
-0.3457133 -0.10742181 -0.22005878 0.1898119 -0.09075356 -0.2690991 -0.25538853 -0.16108808
-0.2909479 -0.106278665 2.573536e-05 -3.1991054e-05 -0.00013683768 -0.1221409 -0.22000293 -0.0918399
-0.08635626 -0.18640009 0.24457462 -0.19289784 -0.026910003 -0.111923344 -0.3214726 -0.1839877
-0.08093906 -0.2812945 -0.12742884 -0.2958457 0.06731419 -0.2302579 -0.36668068 -0.20057441
-0.12548216 -0.11490195 -0.28657177 8.857618e-05 -0.00011809197 -2.6617345e-06 0.13246493 -0.11150708
-0.26846385 -0.3141208 -0.023335073 -0.24808544 -0.37885612 -0.1509018 0.25062802 -0.03171472
-0.2580525 -0.23991656 -0.26796356 -0.24238792 -0.38203532 7.016961e-05 -9.0738824e-05 -6.221984e-05
-0.2245188 -0.23304631 -0.2273345 -0.044494487 -0.09332009 0.31860292 -0.14803997 -0.0065432303
-0.13063312 -0.2913395 -0.16004732 0.009595649 -0.14700568 -0.37083152 -0.20026271 0.20855789
-0.36182216 -0.3532948 -0.3079688 -0.19030012 -0.28026235 -0.16351277 1.023525e-05 2.2689092e-05
4.715674e-05 0.05066237 -0.3687543 -0.3927024 -0.14219554 0.01724648 -0.18202949 -0.32493132
-0.32674193 0.08591115 -0.33104414 -0.2595952 -0.16521595 -0.25025252 -0.12689315 -0.12592198
-4.508548e-05 -2.4149347e-05 -6.3657775e-05 -0.27004424 -0.39364198 -0.30158392 -0.035513725 -0.1707075

input_layer.weight_log_sigma f4 [128, 43]
00000000: 74e5 4abf f8d8 6cbf 20b1 26bf 90e3 61bf
00000010: b8d5 63bf 6096 5dbf b81c 67bf 3445 52bf
00000020: 8ca0 65bf bca6 66bf 589e 6bbf 2274 61bf
00000030: d6a7 63bf 261c 33bf eacb 5abf 1872 31bf
00000040: 1872 31bf 1872 31bf 3c2e 5bbf 34a8 62bf
00000050: 1c5f 41bf c401 69bf 2464 57bf 6c34 5cbf
00000060: a84a 55bf f4a4 59bf ec02 54bf 8cf6 51bf
00000070: 5486 65bf 3a22 58bf 8a06 5cbf 4aa0 42bf
00000080: 42c4 5dbf 1872 31bf 1872 31bf 1872 31bf
00000090: 687f 66bf 8470 59bf 5803 41bf 9489 6ebf
000000a0: 5043 69bf 545b 6fbf 78ee 67bf 401b 6bbf
000000b0: c448 6cbf 04cd 57bf bc34 6dbf 94b4 64bf
000000c0: 70be 5bbf 2cb2 35bf 90ff 6ebf 408d 64bf
000000d0: e47c 5bbf e869 6bbf 78d2 5abf ec1e 61bf
000000e0: 98b2 22bf 189b 62bf 1872 31bf 1872 31bf
000000f0: 1872 31bf 14e6 6cbf d8fa 69bf a495 5fbf
00000100: 347d 6cbf bc5f 63bf d4b7 6dbf a8bc 4ebf
00000110: 589e 6bbf 045b 5ebf 240e 6bbf 0873 64bf
00000120: e001 45bf 60f9 6dbf 949a 1cbf e40a 62bf
00000130: 1872 31bf 1872 31bf 1872 31bf 54f8 5ebf
00000140: c401 69bf d843 32bf fca9 6fbf 88eb 6fbf
00000150: b863 6abf e4df 6bbf 0c28 5abf 301e 63bf
00000160: 5432 3ebf a8f4 68bf 98b0 5dbf b4d9 6abf
00000170: f4cf 4fbf 508a 6cbf 30d7 5fbf 1087 63bf
00000180: 2084 6bbf 4a59 3fbf 7ef6 63bf 6ec1 41bf
00000190: b8c8 3fbf 1872 31bf 1872 31bf 1872 31bf
000001a0: c88b 68bf 10ce 66bf a01a 49bf ccce 64bf
000001b0: 143c 59bf 20da 57bf 8400 25bf f407 6abf
000001c0: 8074 60bf ecac 67bf 5c28 6bbf 6232 2cbf
000001d0: a226 4cbf b603 40bf 787c 6ebf 1872 31bf
000001e0: 1872 31bf 1872 31bf 446d 50bf 60b2 6abf
000001f0: 2c40 3cbf 6c09 66bf 50fc 65bf 482f 6abf
00000200: 1040 60bf 14ca 5fbf c86f 5bbf e8a3 4abf
00000210: 5ce1 67bf 3841 4bbf c4e5 5bbf b042 47bf
00000220: 00a6 68bf 1024 53bf 0801 6bbf 7844 54bf
00000230: 10c1 42bf 983e 64bf e073 3ebf d897 59bf
00000240: 1872 31bf 1872 31bf 1872 31bf b44b 64bf
00000250: 78a7 64bf 5495 4ebf 4417 64bf b4db 2fbf
00000260: 741d 65bf 3cf6 40bf 68aa 5cbf 98db 53bf
00000270: 88cf 62bf c03f 4fbf 14ca 5fbf 0c6f 5dbf
00000280: 3445 52bf 9c0f 67bf 1872 31bf 1872 31bf
00000290: 1872 31bf 20f6 64bf 1411 63bf a488 3bbf
000002a0: 0034 6fbf e4df 6bbf 2030 44bf 0c44 67bf
000002b0: 2480 64bf e451 65bf a488 3bbf 902a 65bf
000002c0: 4c56 59bf 64bd 4cbf 6c18 4fbf 58e5 6ebf
000002d0: 143c 59bf 445e 67bf 54cd 68bf 3841 4bbf
000002e0: 0c8b 6abf d092 43bf 00ed 6bbf 1872 31bf
000002f0: 1872 31bf 1872 31bf a891 58bf 60dd 60bf
00000300: a4dc 62bf 741d 65bf fc71 55bf c4e5 5bbf
00000310: ccb2 57bf e4df 6bbf 7cea 60bf bcd1 5cbf
00000320: 2439 61bf 34d3 58bf dcda 55bf 1c99 20bf
00000330: 40ff 5dbf 1872 31bf 1872 31bf 1872 31bf
00000340: 0810 54bf d0e6 6abf 0027 4bbf a4f8 6fbf
00000350: acf0 61bf 94df 5abf d841 6dbf 1040 60bf
00000360: b017 51bf 2c5c 49bf 9442 6bbf 2c31 53bf
00000370: 2021 5bbf 30f5 31bf ec65 64bf 9071 68bf
00000380: 6096 5dbf 00a6 68bf e08f 4bbf f8bc 5fbf
00000390: 400e 47bf e822 68bf 1872 31bf 1872 31bf
000003a0: 1872 31bf 2898 6abf fc71 55bf 5cd4 43bf
000003b0: e4df 6bbf 8445 63bf 045b 5ebf e010 2ebf
000003c0: 74f2 6ebf 6c09 66bf 187f 55bf 8ce7 68bf
000003d0: 6ca6 55bf 48db 42bf 0866 40bf b420 6ebf
000003e0: 1872 31bf 1872 31bf 1872 31bf b008 68bf
000003f0: 0477 6bbf 5052 52bf 2cb0 70bf 90ff 6ebf
-0.7925637 -0.9251857 -0.6511402 -0.8823786 -0.88997984 -0.8655758 -0.90278196 -0.82136846
-0.896981 -0.90098166 -0.9203849 -0.8806783 -0.8892797 -0.69964826 -0.854674 -0.6931472
-0.6931472 -0.6931472 -0.85617423 -0.8853791 -0.7553575 -0.9101832 -0.8413718 -0.8601749
-0.8331704 -0.85017323 -0.8281696 -0.82016826 -0.89658093 -0.84427226 -0.8594748 -0.7602583
-0.8662759 -0.6931472 -0.6931472 -0.6931472 -0.90038157 -0.8493731 -0.7539573 -0.9317868
-0.91118336 -0.9349873 -0.9059825 -0.91838455 -0.9229853 -0.84297204 -0.9265859 -0.8933804
-0.8583746 -0.70974994 -0.9335871 -0.8927803 -0.8573744 -0.91958475 -0.854774 -0.8793781
-0.6355376 -0.88517904 -0.6931472 -0.6931472 -0.6931472 -0.9253857 -0.9139838 -0.8733771
-0.92378545 -0.88817954 -0.92858624 -0.80756617 -0.9203849 -0.8685763 -0.9181845 -0.89238024
-0.76955986 -0.9295864 -0.6117337 -0.8829787 -0.6931472 -0.6931472 -0.6931472 -0.8709767
-0.9101832 -0.6963477 -0.9361875 -0.9371877 -0.9155841 -0.92138505 -0.85217357 -0.8871794
-0.74295545 -0.90998316 -0.86597586 -0.9173844 -0.81176686 -0.9239855 -0.87437725 -0.88877964
-0.9199848 -0.7474562 -0.8904799 -0.75685775 -0.7491565 -0.6931472 -0.6931472 -0.6931472
-0.9083829 -0.90158176 -0.7855625 -0.89378047 -0.84857297 -0.8431721 -0.6445391 -0.91418386
-0.87677765 -0.9049823 -0.9185846 -0.6726438 -0.7974645 -0.7500566 -0.93158674 -0.6931472
-0.6931472 -0.6931472 -0.81416726 -0.9167843 -0.7353542 -0.89858127 -0.89838123 -0.91478395
-0.8759775 -0.8741772 -0.8571744 -0.7915635 -0.90578246 -0.7939639 -0.8589747 -0.7783613
-0.90878296 -0.824769 -0.9179845 -0.82916975 -0.7607584 -0.8915801 -0.7439556 -0.8499732
-0.6931472 -0.6931472 -0.6931472 -0.89178014 -0.8931804 -0.80696607 -0.89098 -0.68694615
-0.89498067 -0.75375724 -0.8619752 -0.8275695 -0.8859792 -0.8095665 -0.8741772 -0.8649757
-0.82136846 -0.90258193 -0.6931472 -0.6931472 -0.6931472 -0.89438057 -0.88697934 -0.7325537
-0.9343872 -0.92138505 -0.7663593 -0.90338206 -0.8925803 -0.8957808 -0.7325537 -0.8951807
-0.84897304 -0.7997649 -0.8089664 -0.933187 -0.84857297 -0.9037821 -0.90938306 -0.7939639
-0.9161842 -0.76395893 -0.9215851 -0.6931472 -0.6931472 -0.6931472 -0.84597254 -0.8783779
-0.8861792 -0.89498067 -0.8337705 -0.8589747 -0.842572 -0.92138505 -0.87857795 -0.8625753
-0.87977815 -0.8469727 -0.8353708 -0.62733626 -0.86717606 -0.6931472 -0.6931472 -0.6931472
-0.8283696 -0.9175844 -0.79356384 -0.9373877 -0.8825786 -0.85497403 -0.92678595 -0.8759775
-0.8167677 -0.7865627 -0.91898465 -0.82496905 -0.8559742 -0.6951475 -0.8921802 -0.9079828
-0.8655758 -0.90878296 -0.7951641 -0.8739772 -0.7775612 -0.9067826 -0.6931472 -0.6931472
-0.6931472 -0.9163842 -0.8337705 -0.7649591 -0.92138505 -0.8877795 -0.8685763 -0.679945
-0.93338704 -0.89858127 -0.83397055 -0.9097831 -0.83457065 -0.76115847 -0.7515569 -0.9301865
-0.6931472 -0.6931472 -0.6931472 -0.90638256 -0.9197848 -0.8215685 -0.94018817 -0.9335871

input_layer.bias_mu f4 [128]
00000000: aaad 5cbe c40f 7bbe 9ddc babe 3d46 b0be
00000010: 32f9 5dbe c1be 9fbe dd80 99be 65fa 1bbe
00000020: b01d c2be cbb8 d0bd 8b87 01be ec03 94be
00000030: f258 15be 1b26 e2bd 1f28 93be 2177 d3bd
00000040: 03e7 9fbe 85ba 94be cd32 43be 6d30 a2be
00000050: bbf3 28be 0520 cabd fd7f f6bd 4a3f 2dbe
00000060: 25d2 70be edfc b0be 5e0c 9abe cd94 1dbe
00000070: 3357 28be ad7e 22be bde7 d3bd 1597 1fbe
00000080: d39e 86be 0f18 9ebe 7bd8 88be dd4c 31be
00000090: 87b4 17be 528d aabe 7708 7ebe 7e1c 87be
000000a0: ed90 22be e4d5 25be 4c7e a0be da41 bbbe
000000b0: b993 24be 4b13 8ebe 9acb 08be 551b a6be
000000c0: 3e38 2abe 89f3 81be b577 8abe b908 cfbd
000000d0: 07f4 5abe b9cb 9cbe 334d b1be 5c3c a0be
000000e0: d47c b1be 3ef9 43be 0279 1dbe 4db5 23be
000000f0: dead 8cbe bcda 06be 1341 b7be 727b 82be
00000100: fd61 9abe 3017 adbe 87a8 87be 7004 cbbe
00000110: 5295 78be d350 4cbe 6e29 07be 908f b6be
00000120: a93b 56be 66ef a7be 7ad4 6fbe ac6b 84be
00000130: 506d 93be 953e adbe 30e8 82be 035e 81be
00000140: 853b d2bd 770a d4bd c7ac bcbe f7ca c1be
00000150: 06ee 5fbe 3f4b eebd bf2d d4bd 0316 47be
00000160: a23f 52be 649e b3be 5874 04be 3af4 c1be
00000170: b1ed 26be e001 69be 59a4 b7be d083 a6be
00000180: 70e0 1bbe 6b24 53be 602e a1be 570b 0fbe
00000190: f498 6ebe 7922 b8be 4161 f0bd 705d a3be
000001a0: 4a1a 1bbe 053c bbbe b9af c0be 58c9 75be
000001b0: 0b16 b9be 05f0 d2bd 3ace a8be 7401 79be
000001c0: ea7c 9fbe 3da1 a3be 7210 80be b9de 12be
000001d0: 199a 01be 3b6f 25be e82a 71be 529b 84be
000001e0: 3ef5 babe 64eb a6be 43e4 86be 8d3e b0be
000001f0: ecbe 21be 7997 8fbe 34d3 2cbe bda5 bbbe
-0.21550623 -0.24517733 -0.3649644 -0.34428588 -0.21677092 -0.3120022 -0.29981127 -0.15232237
-0.37913275 -0.101914965 -0.12649362 -0.28909242 -0.14584711 -0.11042424 -0.28741547 -0.103254564
-0.31230935 -0.29048553 -0.19062348 -0.3167757 -0.16499226 -0.098693885 -0.120361306 -0.16918674
-0.23517664 -0.34567967 -0.3008756 -0.15388794 -0.16439514 -0.15868635 -0.10346935 -0.15584977
-0.26293048 -0.3087773 -0.26727661 -0.17314477 -0.1481496 -0.33310944 -0.24807917 -0.26388925
-0.15875597 -0.16194874 -0.31346357 -0.36573678 -0.16071977 -0.27749094 -0.13358918 -0.32442728
-0.16623017 -0.25381115 -0.27044454 -0.101090856 -0.21382152 -0.30624178 -0.3462921 -0.3129605
-0.3466555 -0.19138047 -0.15378192 -0.1598713 -0.274764 -0.13169378 -0.35791835 -0.25484806
-0.30152884 -0.33806753 -0.26495764 -0.39651823 -0.24275711 -0.19952707 -0.13199398 -0.35656404
-0.20921196 -0.32799834 -0.23420897 -0.25863397 -0.28794336 -0.3383681 -0.2556777 -0.25267038
-0.10265259 -0.103535585 -0.3685057 -0.37850162 -0.21868142 -0.11635446 -0.10360288 -0.1944199
-0.20532086 -0.3508178 -0.12935007 -0.37881643 -0.1630161 -0.22754622 -0.35867575 -0.3252244
-0.15222335 -0.20619361 -0.31480694 -0.1396917 -0.23300534 -0.359638 -0.117373 -0.31907225
-0.15146747 -0.3656923 -0.37634066 -0.24002588 -0.3614963 -0.10299686 -0.32969838 -0.2431696
-0.3114999 -0.31958953 -0.25012547 -0.14342774 -0.1265644 -0.16155712 -0.23551524 -0.2589975
-0.3651523 -0.32601464 -0.26346025 -0.34422722 -0.15795487 -0.28045252 -0.16877443 -0.36649886

input_layer.bias_log_sigma f4 [128]
00000000: 8ca0 65bf 1c41 6fbf 7cbf 6abf e4df 6bbf
00000010: 8090 6dbf 18e2 65bf 04be 6ebf 885d 69bf
00000020: 26d3 6abf e055 6cbf 6ad2 6cbf 2084 6bbf
00000030: b04f 6bbf 6cde 6fbf d4b7 6dbf ac0c 6fbf
00000040: 0cd2 6dbf 4c00 6dbf fe6e 6fbf 38c0 68bf
00000050: e4df 6bbf 1cb3 68bf 90e3 61bf 5c6f 6ebf
00000060: 3807 6cbf 347d 6cbf 3436 69bf fc8d 62bf
00000070: 8049 6abf 240e 6bbf 9442 6bbf 8c2e 6cbf
00000080: 0477 6bbf 142d 70bf 04be 6ebf a6bd 6fbf
00000090: f0ef 63bf 680d 6dbf 6c50 69bf 6467 60bf
000000a0: 8c75 6fbf 5c6f 6ebf 44ec 6dbf b8aa 6dbf
000000b0: 3cd8 6ebf 8ca0 65bf 90ff 6ebf 58e5 6ebf
000000c0: 9426 5ebf 401b 6bbf f07d 6abf e4df 6bbf
000000d0: 30f3 6cbf 58e5 6ebf 9489 6ebf f8bc 5fbf
000000e0: c005 70bf a4dc 62bf a0e0 69bf 3c03 65bf
000000f0: f0c4 6dbf ceda 67bf c844 65bf 2851 67bf
00000100: d058 64bf 6838 63bf 0801 6bbf 7068 6fbf
00000110: 9c81 60bf 44a5 6abf a882 6fbf 1015 6abf
00000120: 4876 6dbf c014 59bf b008 68bf 8090 6dbf
00000130: 9813 6ebf 7c06 6ebf a4b1 6cbf 20cb 6ebf
00000140: 88eb 6fbf e822 68bf 8ccb 5bbf 1cb3 68bf
00000150: 60f9 6dbf 00a6 68bf de90 6cbf c48f 6fbf
00000160: 3c91 6bbf 0430 68bf e0c7 65bf dc12 70bf
00000170: 7464 68bf 9c9d 6dbf 88a4 6cbf e080 62bf
00000180: 189b 62bf 0034 6fbf 0c8b 6abf e00e 69bf
00000190: d86c 63bf 9489 6ebf f81f 70bf b476 5abf
000001a0: e426 6fbf 3a13 6fbf 8c2e 6cbf e09c 6fbf
000001b0: 1483 5cbf 00ed 6bbf 3879 65bf 28df 6dbf
000001c0: c0be 6cbf dccb 6cbf acc5 6bbf 20cb 6ebf
000001d0: cc87 61bf fc62 6cbf 5857 68bf e451 65bf
000001e0: 84b7 5cbf 4489 5dbf a6e8 65bf 2c69 6dbf
000001f0: 6483 6dbf a4b1 6cbf 3436 69bf 58e5 6ebf
-0.896981 -0.93458724 -0.9169843 -0.92138505 -0.92798615 -0.89798117 -0.9325869 -0.9115834
-0.91728437 -0.92318535 -0.92508566 -0.9199848 -0.9191847 -0.93698764 -0.92858624 -0.9337871
-0.9289863 -0.9257858 -0.93528736 -0.909183 -0.92138505 -0.908983 -0.8823786 -0.9313867
-0.92198515 -0.92378545 -0.9109833 -0.884979 -0.915184 -0.9181845 -0.91898465 -0.92258525
-0.9197848 -0.93818784 -0.9325869 -0.93648756 -0.8903799 -0.9259858 -0.9113834 -0.8765776
-0.9353874 -0.9313867 -0.9293864 -0.9283862 -0.932987 -0.896981 -0.9335871 -0.933187
-0.86777616 -0.91838455 -0.91598415 -0.92138505 -0.92558575 -0.933187 -0.9317868 -0.8739772
-0.93758774 -0.8861792 -0.91358376 -0.8945806 -0.9287863 -0.90568244 -0.89558077 -0.9035821
-0.8919802 -0.88757944 -0.9179845 -0.93518734 -0.8769777 -0.91658425 -0.9355874 -0.9143839
-0.9275861 -0.84797287 -0.90638256 -0.92798615 -0.9299865 -0.92978644 -0.9245856 -0.93278694
-0.9371877 -0.9067826 -0.8585746 -0.908983 -0.9295864 -0.90878296 -0.9240855 -0.93578744
-0.92018485 -0.90698266 -0.8975811 -0.9377878 -0.9077828 -0.9281862 -0.92438555 -0.884779
-0.88517904 -0.9343872 -0.9161842 -0.9103832 -0.8883796 -0.9317868 -0.9379878 -0.85337377
-0.9341872 -0.9338871 -0.92258525 -0.9359875 -0.8613751 -0.9215851 -0.8963809 -0.92918634
-0.9247856 -0.92498565 -0.920985 -0.93278694 -0.88097835 -0.9233854 -0.90758276 -0.8957808
-0.8621752 -0.86537576 -0.8980812 -0.92738605 -0.9277861 -0.9245856 -0.9109833 -0.933187

hidden1_layer.weight_mu f4 [128, 128]
00000000: ef0b 10be f8f6 e5bd 1ef1 77bd b06f 64be
00000010: b2de 673c ca82 21be 0c05 2fbd 3e59 7abe
00000020: 1cb2 ebbd e248 1fbd 00a5 47be 5203 d2bd
00000030: 4cda 3cbe d331 7bbe 009c 25bd 58a5 a9bd
00000040: 24ef febd 71b7 5bbe 32b5 85be 1bc0 39be
00000050: 9a4e 213c cae6 a2be 3265 ffbd e4ec 9ebb
00000060: 705e b9bb fa13 cabc 14bb bfbd 17bc 98bc
00000070: 4fbe 0bbe 1e71 4abe db67 7bbe 7685 fbbc
00000080: 08a3 e0bb 8600 93bd 6edc b1bd e0fb 97bd
00000090: 6c3e 71bd 7d14 1ebe d033 16be 10b8 92bd
000000a0: a2c6 23bd cd0e 61be 6887 1cbe a614 5dbe
000000b0: 289f 13be 9a91 6fbd 142c 07be 3f61 0dbe
000000c0: 7d37 c6bd 2dfd 20be e023 88bd 542b 24be
000000d0: 2622 92bd db43 43be b654 01bd f516 84bd
000000e0: aa12 69be 27f1 5bbe 1236 26bb e22d b7bd
000000f0: 25f9 0fbe ec82 8cbd 486e 28bd d25a 4cbe
00000100: 4f03 eebd 28ae 8abd 0649 edbd f6e7 c2bd
00000110: f6de 28bd 04aa 7fbe c6bd 07be 8037 65be
00000120: d637 72be e4af 81bd 5163 19be 3850 40bd
00000130: 04eb 40be 5eb2 973c 8684 e1bd bd2b 30be
00000140: de4f 17be cf9a 02be d20a c2bd b431 eebd
00000150: 3400 9ebd d0d7 9bbd d873 47be 906a d5bc
00000160: 8445 e7bd c062 7ebd 5f34 32be 0340 46be
00000170: 7bcf 19be 8936 33be 2a0c 93bd acd0 acbd
00000180: fa82 70be 0637 abbd 942e 57bd 0e22 61bd
00000190: f62d edbd e0cb 80be a741 28be 5047 febd
000001a0: cf4b 7dbe ff83 4ebe a388 23be 56c4 a6bd
000001b0: 9ee5 95bc c8ae eebd 269a 8ebe b5d3 27be
000001c0: 9cad 19bd 2c77 77be fcad bbbd 76fa 60be
000001d0: 67a0 15be 564d c2bd 70af a5bd 288f 4bbe
000001e0: dd4b 23be 2c8c d9bd dd0e 7cbe 0b8e 3cbe
000001f0: 4cf1 1b3c e030 83be a7f4 31be 5a2a afbd
00000200: f974 e3bc e8f2 fbbd 08dc 9bbd 12ae 03be
00000210: 897a a9bd 8ab7 19be 6345 80bd b3d5 f2bc
00000220: 00ee 07bd 42a1 9fbc aa8e 05be fe31 55be
00000230: 8ed4 2dbd 8ea6 c2bd a9cc 57bd 51b8 52be
00000240: b35f b3bd 480c 4ebd a153 39be f64d f3bd
00000250: ac83 adbd a89e c1bb f52b 1ebe f8a9 8cbd
00000260: 6481 14bd ca9f a9bd 1c08 bd3c 6084 eebd
00000270: e29c 5dbe ba19 1dbe fc1d 2ebd 081b 17be
00000280: 7f2b 98bc 52fc b8bd 51a9 aabc 06f9 0bbd
00000290: dd15 01be d50c 24be c073 a8bd 7240 13be
000002a0: 80f6 bf3b ba37 9cbc d67b 87bd e998 22be
000002b0: 1643 30bd 601a 5dbd 7862 64bd 9c4c aebd
000002c0: d571 b7bc 72a8 833d 238c 2dbe 7fe0 ed3c
000002d0: a280 0bbe a498 03be 9cad 3cbd 8573 d3bd
000002e0: 86ff a1bd f7d0 02be d05e 8dbc a406 c6bd
000002f0: 56ce f6bd 069f 83bd 1945 dcbd f1ee 253d
00000300: 842e 19be 9d70 49be 3699 24be aed3 16be
00000310: e858 46bc debc 01be fe79 57be 4a28 52be
00000320: a0d3 bdbd a8e4 1fbe f42c 59be 7ecb 1cbd
00000330: e621 72bd 64c8 35be 0cc8 8fbd fba9 5abe
00000340: cc4d c8bd cc7e 86bd 7c4d 38be 5c75 07be
00000350: 5799 2dbe f66c 93be 44c7 0fbe 084e 8cbd
00000360: ec03 6abd b4be 213d d61e 71bd 0e73 a5bd
00000370: f65b 0bbe d317 76be 7e1f a7bd 38a2 05be
00000380: 46e8 d0bd 8898 f03b ecbf 77bd 6035 5fbd
00000390: 0ae2 adbd 688c 0abc 8b44 25be 7886 283c
000003a0: d0a3 16be 6b62 c6bc 6d8e d0bd 701a 3abe
000003b0: 38a9 58bd 4434 ebbd ee4e f9bd 1db7 7dbe
000003c0: f46d 03be 4450 8bbd 4893 bcbd 01b3 96bd
000003d0: b9da 36be dcc6 e5bd e65f 69be 2e8a 0cbe
000003e0: a44b 7cbd 5a98 cabc f60c 89bd 5c64 673c
000003f0: 0787 3bbe 2d61 1bbe 946f 65bd c01b 04be
-0.14067052 -0.11228746 -0.06053268 -0.2230823 0.014152216 -0.15772548 -0.042729422 -0.24448106
-0.11508581 -0.038887866 -0.19496536 -0.102545395 -0.18442649 -0.24530725 -0.040431976 -0.0828349
-0.12447956 -0.21456696 -0.26114804 -0.18139689 0.0098454 -0.31816703 -0.12470473 -0.004850017
-0.00565701 -0.024667729 -0.09361854 -0.018644376 -0.13646816 -0.19769713 -0.24551336 -0.030703288
-0.0068553723 -0.07177834 -0.08684622 -0.07421088 -0.05889742 -0.15437503 -0.14668202 -0.071640134
-0.039984353 -0.21978302 -0.15286028 -0.21589908 -0.14416182 -0.058488466 -0.13200408 -0.13806628
-0.09678552 -0.15721579 -0.066474676 -0.16032153 -0.071354195 -0.19068854 -0.031574927 -0.06449691
-0.22761026 -0.21478711 -0.0025361818 -0.08944298 -0.14059885 -0.06860909 -0.041120797 -0.1995652
-0.11621725 -0.06771499 -0.11586194 -0.09516899 -0.041228257 -0.249672 -0.13255987 -0.22384453
-0.23654112 -0.063323766 -0.14979292 -0.046951503 -0.18839651 0.01851767 -0.11011605 -0.17204185
-0.1477656 -0.12754367 -0.0947472 -0.11630574 -0.077148825 -0.07609522 -0.19477785 -0.02605179
-0.11292556 -0.062105894 -0.1740279 -0.19360356 -0.15020554 -0.17501272 -0.071800545 -0.084382385
-0.23487464 -0.08360104 -0.052534655 -0.054964118 -0.11581032 -0.25155544 -0.16431294 -0.124159455
-0.2473595 -0.2016754 -0.15970092 -0.08142917 -0.018297967 -0.11654431 -0.2785198 -0.16389354
-0.037519082 -0.24166554 -0.09164044 -0.21970543 -0.1461197 -0.09487407 -0.08090103 -0.19878829
-0.15946908 -0.10622439 -0.24615045 -0.1841356 0.009517979 -0.25623226 -0.17378484 -0.08553
-0.027765738 -0.1230219 -0.07610327 -0.12859371 -0.08275325 -0.15011421 -0.062632345 -0.029642915
-0.03318596 -0.019486073 -0.13042703 -0.20819852 -0.042439036 -0.09504424 -0.052685414 -0.20578124
-0.087584876 -0.05030468 -0.18098308 -0.11880104 -0.0847238 -0.005908806 -0.15446456 -0.068683565
-0.03625621 -0.082824305 0.023075156 -0.11646342 -0.21641877 -0.15341845 -0.042509064 -0.14756405
-0.018575428 -0.09032501 -0.02083269 -0.034173034 -0.12605996 -0.1602052 -0.082252026 -0.14380053
0.0058582425 -0.019069541 -0.06615417 -0.15878643 -0.043032728 -0.05398023 -0.05575797 -0.08510706
-0.022393147 0.06428613 -0.16947989 0.029037712 -0.13623288 -0.12851197 -0.046064004 -0.10324768
-0.07910065 -0.12775026 -0.017257124 -0.09669235 -0.12051074 -0.06426816 -0.10755367 0.040511075
-0.1495915 -0.19671865 -0.1607407 -0.14729187 -0.012106158 -0.12669703 -0.2104263 -0.20523182
-0.0926888 -0.15614569 -0.21208555 -0.038280003 -0.05911436 -0.17752224 -0.07020578 -0.21353905
-0.097804636 -0.06567153 -0.17998308 -0.13228363 -0.16953026 -0.28794068 -0.14040858 -0.06850821
-0.057132646 0.03948851 -0.058867298 -0.080785856 -0.13609299 -0.24032526 -0.081603035 -0.13050163
-0.10200553 0.007342402 -0.060485765 -0.05449426 -0.08490379 -0.008456327 -0.16139428 0.010285966
-0.14710927 -0.024216851 -0.101834156 -0.18174148 -0.052895755 -0.11484578 -0.12173258 -0.24776883
-0.12834913 -0.06802419 -0.09207779 -0.07358361 -0.17856874 -0.1121957 -0.22790489 -0.13724586
-0.061595574 -0.02473085 -0.06691925 0.014123049 -0.18313228 -0.15173788 -0.056014612 -0.12901211

hidden1_layer.weight_log_sigma f4 [128, 128]
00000000: 5c46 3dbf 589e 6bbf 241d 54bf fcff 5bbf
00000010: e8ea 4dbf 8caf 4ebf f0ef 63bf 58ad 54bf
00000020: fe61 4bbf 00b7 16bf 5233 5fbf e0c9 2abf
00000030: 1c09 55bf fc71 55bf 94d2 36bf 94c3 4dbf
00000040: 44fb 56bf 4c56 59bf aa81 4ebf ec90 5abf
00000050: 6476 49bf 9cf3 59bf c837 41bf 509b 1abf
00000060: a4dc 62bf 743b 37bf 9055 5bbf 1c09 55bf
00000070: 749e 47bf ec02 54bf d0ca 5dbf cc08 44bf
00000080: 4cac 45bf d897 59bf 1ca6 44bf 9a21 36bf
00000090: 143c 59bf 008a 5bbf 4080 40bf 28ee 56bf
000000a0: ace3 3dbf 9806 4abf c837 41bf 8888 5fbf
000000b0: cc24 51bf 84f1 3bbf b863 6abf e0ad 1dbf
000000c0: 7c7a 2cbf 3ce7 57bf 9048 37bf 94b6 29bf
000000d0: 88b3 55bf a4eb 4bbf d0a1 2cbf e840 3abf
000000e0: 2a6c 53bf 3c2e 5bbf 5432 3ebf 802d 5dbf
000000f0: 4813 5dbf 1ed0 19bf bc6e 4cbf f8a0 52bf
00000100: b847 5dbf acab 23bf 08ad 43bf 8c4c 3ebf
00000110: 001a 27bf ec1e 61bf cc40 5ebf fce3 4ebf
00000120: fc2a 52bf ecbb 50bf 7482 3abf dc4c 4fbf
00000130: b856 46bf 2c15 46bf 0043 58bf d0f5 53bf
00000140: ec9f 43bf 0099 44bf c475 27bf b856 46bf
00000150: 401d 30bf 3011 3fbf 7292 44bf fc71 55bf
00000160: a0b7 38bf 0c37 43bf 68aa 5cbf 9c9f 32bf
00000170: 18f1 4ebf 8c3d 55bf 98f7 60bf 84d5 2ebf
00000180: cc24 51bf cc5e 30bf a488 3bbf 5423 55bf
00000190: 3c68 3abf 9c3a 5dbf dc4c 4fbf 6042 36bf
000001a0: 3454 3bbf 42c4 5dbf 7c24 40bf 485a 60bf
000001b0: 7c08 33bf d85f 3fbf 54dc 51bf 94fd 2cbf
000001c0: a8e7 44bf b0fb 43bf 44c3 3cbf 7c40 4dbf
000001d0: 50d3 34bf 44df 49bf 446d 50bf 30e6 48bf
000001e0: e4a7 51bf 7c96 39bf 625b 5dbf 14f5 55bf
000001f0: c87e 44bf ac7e 68bf c03f 4fbf 38b3 44bf
00000200: bcd1 5cbf 18c8 1dbf 54eb 3abf d8b5 2bbf
00000210: 08d8 39bf 8c77 34bf f45d 56bf ec1e 61bf
00000220: d87b 4cbf f07d 6abf fa90 48bf 58cb 26bf
00000230: 3825 3ebf a070 35bf b83a 39bf 44d0 60bf
00000240: 5c7e 57bf cc5e 30bf b223 54bf 4435 36bf
00000250: 5c9a 64bf f054 39bf fcd4 65bf 2457 33bf
00000260: 483e 53bf 08ad 43bf 0423 44bf 94ee 43bf
00000270: 88fa 58bf b089 4abf 743b 37bf 2c87 3fbf
00000280: 6404 50bf cc24 51bf 84d3 69bf 5eef 2fbf
00000290: 80d9 35bf 1cd1 3abf 7c6b 43bf 7c15 57bf
000002a0: e02c 3bbf d834 49bf 4894 3fbf 847f 42bf
000002b0: d8ed 45bf f8af 3bbf 6413 39bf 9c1e 50bf
000002c0: 54b1 5bbf a497 24bf b8ac 32bf 8ce9 2dbf
000002d0: 78f0 2cbf 6485 32bf 046a 47bf 2cec 14bf
000002e0: 4831 2fbf 1033 3cbf d438 50bf 94a7 40bf
000002f0: 1ced 47bf 1610 42bf 14bd 3bbf 78e3 08bf
00000300: c80c 4bbf 203d 68bf 7c6b 43bf e815 44bf
00000310: 94c3 4dbf 181c 45bf 1c50 58bf 9055 5bbf
00000320: 60ec 49bf 0866 40bf 8074 60bf 7093 65bf
00000330: 5052 52bf 70e9 51bf e85c 47bf f891 69bf
00000340: f47b 28bf ec49 57bf e0ab 58bf a423 66bf
00000350: 60a5 46bf ac62 5bbf 6ec1 41bf 182b 2ebf
00000360: 6c8a 48bf f46c 3fbf a46c 2ebf 7c4f 36bf
00000370: 3cbe 26bf b026 3abf 5416 31bf ccc1 40bf
00000380: 64f7 2bbf a875 4bbf 4cac 45bf e8f9 36bf
00000390: f0d3 56bf d456 22bf d47f 53bf 1856 24bf
000003a0: 081f 3dbf 4806 39bf 940a 51bf 7860 61bf
000003b0: 20cd 33bf 8002 67bf 302d 4cbf 0027 4bbf
000003c0: 748f 5ebf 44c3 3cbf c828 58bf d04b 40bf
000003d0: d8de 5cbf 4831 2fbf 8834 38bf 248f 4dbf
000003e0: 0cb8 25bf 0ce3 1bbf ae36 44bf 3c12 4ebf
000003f0: cc87 61bf d841 6dbf 5875 3abf 6856 35bf
-0.73935485 -0.9203849 -0.82856965 -0.85937476 -0.80436563 -0.80736613 -0.8903799 -0.83077
-0.794464 -0.58872986 -0.87187684 -0.66714287 -0.83217025 -0.8337705 -0.71415067 -0.80376554
-0.8397715 -0.84897304 -0.806666 -0.85377383 -0.78696275 -0.85137343 -0.7547574 -0.6039324
-0.8861792 -0.71575093 -0.85677433 -0.83217025 -0.77976155 -0.8281696 -0.8663759 -0.7657592
-0.7721603 -0.8499732 -0.7681596 -0.7114502 -0.84857297 -0.85757446 -0.75195694 -0.8395715
-0.74175525 -0.7891631 -0.7547574 -0.87317705 -0.8169677 -0.734154 -0.9155841 -0.6159344
-0.67374396 -0.8433721 -0.71595097 -0.6629422 -0.8347707 -0.79656434 -0.67434406 -0.7275529
-0.8258692 -0.85617423 -0.74295545 -0.8639755 -0.86357546 -0.60083187 -0.7985647 -0.8227687
-0.8643756 -0.63933825 -0.764359 -0.7433555 -0.6527405 -0.8793781 -0.8681762 -0.80816627
-0.8209684 -0.81536746 -0.72855306 -0.80976653 -0.7747607 -0.77376056 -0.84477234 -0.82796955
-0.76415896 -0.7679596 -0.6541407 -0.7747607 -0.6879463 -0.746356 -0.7678596 -0.8337705
-0.7215519 -0.7625587 -0.8619752 -0.69774795 -0.8083663 -0.8329704 -0.878778 -0.6829455
-0.8169677 -0.6889465 -0.7325537 -0.8325703 -0.728153 -0.86417556 -0.80976653 -0.7119503
-0.7317536 -0.8662759 -0.7505567 -0.8763776 -0.6993482 -0.7475562 -0.8197682 -0.6757443
-0.7691598 -0.7655592 -0.7373545 -0.8017652 -0.7063494 -0.788563 -0.81416726 -0.7847624
-0.81896806 -0.72495246 -0.86467564 -0.83577085 -0.7675595 -0.90818286 -0.8095665 -0.76835966
-0.8625753 -0.61633444 -0.7301533 -0.67074347 -0.7259526 -0.70494914 -0.8373711 -0.8793781
-0.7987647 -0.91598415 -0.78346217 -0.6515403 -0.7427554 -0.7087498 -0.7235522 -0.8781779
-0.84177184 -0.6889465 -0.82866967 -0.71175027 -0.89298034 -0.7239523 -0.89778113 -0.7005484
-0.8251691 -0.764359 -0.7661593 -0.76535916 -0.8475728 -0.79116344 -0.71575093 -0.7481563
-0.812567 -0.8169677 -0.9133837 -0.6872462 -0.71035004 -0.72975326 -0.76335883 -0.8401716
-0.7311535 -0.7859626 -0.74835634 -0.75975823 -0.77316046 -0.7331538 -0.7229521 -0.81296706
-0.85817456 -0.64293885 -0.697948 -0.6793449 -0.67554426 -0.6973479 -0.7789614 -0.5817287
-0.6843457 -0.73515415 -0.8133671 -0.75255704 -0.78096175 -0.75805795 -0.73335385 -0.5347209
-0.7931638 -0.9071827 -0.76335883 -0.76595926 -0.80376554 -0.7699599 -0.8449724 -0.85677433
-0.78876305 -0.7515569 -0.87677765 -0.89678097 -0.8215685 -0.8199682 -0.7787614 -0.91238356
-0.6581414 -0.8409717 -0.8463726 -0.89898133 -0.7759609 -0.85697436 -0.75685775 -0.68034506
-0.78336215 -0.74775624 -0.6813452 -0.71215034 -0.65134025 -0.7271528 -0.69174695 -0.7529571
-0.67174363 -0.79476404 -0.7721603 -0.71475077 -0.8391714 -0.6341374 -0.82616925 -0.6419387
-0.73875475 -0.7227521 -0.81656766 -0.88037825 -0.7023487 -0.9023819 -0.7975645 -0.79356384
-0.8693764 -0.7373545 -0.8443723 -0.7511568 -0.8627753 -0.6843457 -0.71955156 -0.8029654
-0.6473396 -0.6089332 -0.76645935 -0.80496573 -0.88097835 -0.92678595 -0.728353 -0.7083497

hidden1_layer.bias_mu f4 [128]
00000000: 3a6a 84bd 3527 4cbe bb9d 33be 826c 0ebe
00000010: e87a b5bb 8601 20be f236 e6bd 0f2c 7fbb
00000020: d2c5 0bbd d552 11be 5c3a f0bd eb53 4bbe
00000030: 96e9 cbbd 3810 20bd 904c 1ebd 14ec cabd
00000040: e833 94bc 1055 d6bd 2ef5 b7bd bc04 93bd
00000050: 6049 bbbd 6ccd 3abd dec7 8fbd dad4 07be
00000060: bc93 79bd 6c2d 10be 8659 30bd c2ef ffbd
00000070: e4f7 aebd 7c59 88bd b35e 1ebe 76a8 82bc
00000080: 0e8f fdbd 501b 02be 639f 06be b841 7abd
00000090: d24f 303a 5e6f e1bd 1407 ecbd 7874 aebd
000000a0: c0a4 2bbd aeca d8bd 84b2 02be 83ad 0abe
000000b0: 2ade c1bd 9831 683a 6cc3 05be eaaa 32be
000000c0: f015 61bd 28ba d4bd de56 04be be61 31bd
000000d0: ca94 0bbd 5ad5 8ebd b14c 9bbd 44e3 3abd
000000e0: 5649 92bd 783c a63c 74e3 803c f621 d4bc
000000f0: 021a 43bd 74ea eabb be0c 843c feeb 1cbe
00000100: 8c65 ccbb de91 e0bd 024d c0bd 7aa9 b2bd
00000110: 7e83 02be be1e 9ebd 1a9e e6bd ae73 24bd
00000120: 80b7 73bc a574 13be 6f10 13be 8c11 bbbd
00000130: 2c0c 1dbe 829a b9bd 9801 f9bd 9788 0cbe
00000140: a899 97bd 3c19 e1bd 7477 25be e34a 07be
00000150: 2b3c f7bc 87be b8bc 0c8a 81bd c4a2 e2bd
00000160: e04c 9bba 8075 cdbd 3cfc c7bd 967e 453d
00000170: bcd4 4abd d5c6 dbbc e040 433c d982 1cbe
00000180: 4009 48bd a836 8bbd b641 68bd 10db 11be
00000190: 541c aebc 01b1 0abe 92c6 10be 1e26 cdbd
000001a0: b497 f4bd 31ee 1fbe f769 bfbd 1a0d cfbd
000001b0: 4242 88bd a40e 9ebc 5466 d23c ba1b 31bd
000001c0: 24f4 84bd 52e7 17be 6ed6 1dbd 3a48 82bd
000001d0: 5092 363c 2211 01bd e860 c6bd a2eb 25be
000001e0: 0f76 29be 143d 4bbe a612 91bd fcff 22be
000001f0: 2abb acbd 98e0 5a39 13b4 c03a 8656 3bbd
-0.064655736 -0.19936831 -0.17540638 -0.1390858 -0.005538333 -0.15625581 -0.11240949 -0.0038936173
-0.034124203 -0.14191754 -0.11729881 -0.19856231 -0.09956662 -0.039077967 -0.038647234 -0.099083096
-0.018091157 -0.10465443 -0.08982311 -0.071786374 -0.091448545 -0.04560606 -0.070205435 -0.1326479
-0.060931906 -0.14079827 -0.043054126 -0.12496902 -0.08543375 -0.06657693 -0.15465812 -0.015949469
-0.12380801 -0.12705731 -0.13146739 -0.06109783 0.00067257613 -0.1100757 -0.115247875 -0.085183084
-0.041905165 -0.10585533 -0.12763411 -0.13542752 -0.094662026 0.00088574877 -0.13062829 -0.17448011
-0.05495256 -0.10387069 -0.12923762 -0.043306105 -0.034077443 -0.06974287 -0.07582987 -0.045626894
-0.07142894 0.020292506 0.015733458 -0.0258951 -0.047632225 -0.0071690623 0.016119357 -0.15324399
-0.0062376913 -0.10965322 -0.09389688 -0.08723731 -0.12745473 -0.07720707 -0.11260624 -0.040149383
-0.014875293 -0.14399965 -0.14361738 -0.09134206 -0.15336674 -0.09062673 -0.12158507 -0.1372398
-0.074023545 -0.10991141 -0.16158849 -0.13212161 -0.030180058 -0.022551788 -0.063251585 -0.11066201
-0.0011848472 -0.10032177 -0.09764907 0.048216425 -0.049519286 -0.026828209 0.011917323 -0.1528429
-0.048836946 -0.06797534 -0.05670329 -0.14243722 -0.021253742 -0.13544084 -0.14138249 -0.10017036
-0.119429976 -0.15618207 -0.09346383 -0.10109921 -0.06653263 -0.01929409 0.02568356 -0.043239333
-0.06491879 -0.14834335 -0.038534574 -0.063614324 0.011143282 -0.03151048 -0.09686452 -0.16203168
-0.16548942 -0.19847518 -0.07083635 -0.15917963 -0.08434136 0.00020873768 0.0014702104 -0.045736812

hidden1_layer.bias_log_sigma f4 [128]
00000000: 9cac 56bf 7401 58bf fe36 55bf 8e49 58bf
00000010: e498 68bf c403 2ebf 4039 3dbf 68b9 45bf
00000020: c014 59bf d438 50bf cc6b 54bf d8c2 4fbf
00000030: 3ee6 36bf 2819 4dbf e4a7 51bf acd4 54bf
00000040: d4f1 4cbf 4055 4abf 188e 3ebf d4aa 49bf
00000050: ee80 50bf 803c 46bf ea21 47bf 007d 37bf
00000060: a061 4cbf b413 4abf 9435 47bf 106b 56bf
00000070: 8264 56bf f4cf 4fbf c4f4 44bf 60c1 53bf
00000080: 94c3 4dbf 9080 51bf 02a5 47bf f8a0 52bf
00000090: 68d5 52bf b856 46bf 0c37 43bf be7a 4fbf
000000a0: 3461 5fbf 88de 4bbf 9cd7 4cbf 044e 3abf
000000b0: 5479 41bf 4426 4dbf 688e 4fbf 9055 5bbf
000000c0: ee39 4dbf bc52 3fbf c023 42bf 742c 4ebf
000000d0: b847 5dbf 742c 4ebf c4c9 4ebf 2654 4dbf
000000e0: 3c12 4ebf a8a0 41bf 0810 54bf f061 5dbf
000000f0: 005f 65bf 940a 51bf c4e5 5bbf c03f 4fbf
00000100: 80f5 42bf a01a 49bf 7c4f 36bf b042 47bf
00000110: fc2a 52bf 0c7e 46bf 688e 4fbf 900e 58bf
00000120: 5e5f 64bf 0882 4dbf ec49 57bf 142f 35bf
00000130: 583b 5bbf 947c 4abf 28ee 56bf c8e1 54bf
00000140: 90f2 4abf d47f 53bf 705b 4bbf 3651 55bf
00000150: 5e43 57bf 54f8 5ebf 8c84 58bf 2401 47bf
00000160: 20af 61bf 40e3 50bf f029 43bf 6404 50bf
00000170: 7cdd 3cbf 4426 4dbf 58d8 4abf acd4 54bf
00000180: 34ef 65bf 1420 4cbf 0c37 43bf a669 48bf
00000190: 24ab 5abf c862 37bf 44b4 53bf 9080 51bf
000001a0: c8e1 54bf 287c 5dbf 0cfd 63bf 9055 5bbf
000001b0: 10ec 38bf 00fc 54bf 14ae 52bf 30ca 3bbf
000001c0: b4e8 53bf 98bf 46bf bced 69bf b856 46bf
000001d0: be17 3fbf e815 44bf a0fe 3bbf 1492 45bf
000001e0: 3002 56bf c86f 5bbf 4417 64bf 68f1 5fbf
000001f0: fcb8 58bf 2030 44bf 3461 5fbf dc05 4cbf
-0.8385713 -0.8437722 -0.83287036 -0.84487236 -0.9085829 -0.67974496 -0.7391548 -0.7723603
-0.84797287 -0.8133671 -0.82976985 -0.8115668 -0.7144507 -0.8011651 -0.81896806 -0.8313701
-0.800565 -0.7903633 -0.7443557 -0.7877629 -0.8144673 -0.77436066 -0.77786124 -0.7167511
-0.79836464 -0.78936315 -0.7781613 -0.83757114 -0.8374711 -0.81176686 -0.7693598 -0.8271694
-0.80376554 -0.81836796 -0.77986157 -0.8227687 -0.8235688 -0.7747607 -0.7625587 -0.81046665
-0.87257695 -0.7963643 -0.80016494 -0.7277529 -0.7557576 -0.80136514 -0.8107667 -0.85677433
-0.8016652 -0.7473562 -0.758358 -0.8053658 -0.8643756 -0.8053658 -0.8077662 -0.80206525
-0.80496573 -0.75635767 -0.8283696 -0.86477566 -0.89598083 -0.81656766 -0.8589747 -0.8095665
-0.76155853 -0.7855625 -0.71215034 -0.7783613 -0.8209684 -0.7753608 -0.8107667 -0.8439722
-0.8920802 -0.80276537 -0.8409717 -0.7077496 -0.85637426 -0.7909634 -0.8395715 -0.83157015
-0.7927637 -0.82616925 -0.794364 -0.83327043 -0.8408717 -0.8709767 -0.8457725 -0.77736115
-0.88157845 -0.81596756 -0.76235867 -0.812567 -0.7377546 -0.80136514 -0.79236364 -0.8313701
-0.8981812 -0.7973645 -0.7625587 -0.78286207 -0.8541739 -0.71635103 -0.8269694 -0.81836796
-0.83157015 -0.8651757 -0.89057994 -0.85677433 -0.722352 -0.8319702 -0.8229687 -0.7335539
-0.8277695 -0.776361 -0.9137838 -0.7747607 -0.746456 -0.76595926 -0.734354 -0.7717602
-0.8359709 -0.8571744 -0.89098 -0.8747773 -0.84657264 -0.7663593 -0.87257695 -0.7969644

hidden2_layer.weight_mu f4 [128, 128]
00000000: 7900 a3be a798 57be d863 66be 277a 84be
00000010: c252 9fbe f1f2 48be 7156 a0be f58e 7dbe
00000020: 3113 9fbe f6f5 81be a17f 59be e3eb a9be
00000030: 8662 26be ac5a 54be 05f4 72be 1620 34be
00000040: 3e10 26be 5154 8cbe e632 74be 22e3 8cbe
00000050: 7e68 a2be d97e 3dbe a2c7 9dbe 0adb 98be
00000060: 6194 50be 9dff 9abe 6acd 44be 7c3c a8be
00000070: b3c5 acbe 2644 84be 9f66 27be 313d 8ebe
00000080: 396c 4ebe eb02 29be 0d24 93be 48a7 9ebe
00000090: dd80 90be e2e0 88be 1791 89be 0d65 84be
000000a0: 24e5 86be 1126 29be 2d20 83be 307d 75be
000000b0: cfd6 95be 115c 7cbe a633 31be 0d92 59be
000000c0: db44 9abe 4e70 34be 08fa 7fbe 5764 7abe
000000d0: f5fc 3fbe 8f25 a8be 844a 77be f672 a9be
000000e0: b6a8 76be bd66 88be 938f 9dbe 30dd 48be
000000f0: a1b9 90be 488c 83be 94e5 88be 015b 35be
00000100: e558 3cbe 2765 21be cb8d 83be 475c 8ebe
00000110: c02e 44be 6e1b aabe 6d06 4bbe 2259 83be
00000120: 3383 98be 1b6c 45be 5059 2dbe 59b8 88be
00000130: 08dd 42be 9a91 6abe 9422 65be 0f32 8dbe
00000140: 5e69 4fbe ca24 77be ea0d 7cbe 42f8 6cbe
00000150: a9cf 7fbe 1665 9ebe 61f4 9dbe 0014 95be
00000160: 1e28 55be f93f 65be 689d a5be 2c12 97be
00000170: 9ea7 aabe 6ed1 2fbe e3f2 5cbe fe8e 82be
00000180: 877a 6ebe 709c 82be dd8c a7be f3b2 98be
00000190: 6030 a8be 5c9f 60be 6fcb 73be 73e9 57be
000001a0: 7654 99be 5bef 4dbe 71e8 a7be 8c0c a7be
000001b0: 0d9d a6be 67d2 78be 72fe 6ebe f863 5dbe
000001c0: b0b2 87be 6b42 4fbe 5dc8 4bbe 2f69 45be
000001d0: 9525 4abe d349 9dbe d163 a5be bdec 29be
000001e0: f6c8 82be 24f4 a7be d96d 93be 234c 8dbe
000001f0: 1abc 83be 692e 59be 9826 93be 9eb1 21be
00000200: 42c9 90be ce90 5dbe a0a0 a0be 464b 2abe
00000210: 930e 88be d070 37be 16a0 59be a166 87be
00000220: d607 72be ae7c a9be 00ce 6fbe df75 8abe
00000230: 60e0 a2be 39e8 a6be f854 9ebe 2084 34be
00000240: e736 33be dad4 6dbe 30ed 9ebe 6b4b 97be
00000250: 7fc1 42be 815f 4cbe 5604 93be a971 8fbe
00000260: 3d7b a2be c9ff 9cbe 2cc8 4dbe b30f 9bbe
00000270: 4e8d 8bbe bf48 4fbe 2cc2 9ebe c104 93be
00000280: 3226 84be 6dfd 4dbe 9495 37be b435 68be
00000290: 8bef 70be ac40 48be 848d 7fbe 402b 82be
000002a0: 1612 a6be c46a 91be 63b8 42be 86ce 51be
000002b0: 5f10 79be 7a58 8bbe 0c39 61be 5ab9 a9be
000002c0: 7372 24be 2c5c 6cbe e278 8ebe 88b7 94be
000002d0: 5ed7 a0be a79d 79be 7cca 69be 4774 5dbe
000002e0: 7144 85be 0e42 97be f696 84be dbc3 32be
000002f0: 4ce9 6bbe 2aee 9abe f41a a6be 1d4e 30be
00000300: 54d4 6bbe bfa7 89be a34b a1be 372f 75be
00000310: e8f2 80be 307a a2be c46c 5dbe 8ee8 9ebe
00000320: 1964 68be a502 3bbe a79b 57be 6f54 72be
00000330: f322 78be e574 54be 8551 2abe 9cc4 8fbe
00000340: bc98 aabe 9522 99be 55c5 23be 5249 7cbe
00000350: 95c0 2fbe 6aff 54be ffe3 8abe 12c4 7bbe
00000360: 6878 88be aa31 76be 61b9 75be 2d92 4cbe
00000370: 9a4f 66be f944 46be 999c 7ebe 8f44 9abe
00000380: 343f 47be 285a 84be 3e78 a4be 074d 9dbe
00000390: 1c7e a4be 8ea3 80be 4a60 a6be b48d 98be
000003a0: 5ee7 86be 0669 8dbe 25f4 8fbe 80fb a9be
000003b0: c593 70be d5c4 65be 4fde 98be e23d 90be
000003c0: 0aec 47be 40bc 97be 9b32 7dbe 7037 7fbe
000003d0: e974 89be 58c5 69be e671 96be f7f1 a1be
000003e0: 1c80 8bbe 5f94 5abe 1afa a3be be56 66be
000003f0: d8d1 a1be 2030 73be de01 96be 89d2 5fbe
-0.31836298 -0.21054326 -0.22499025 -0.25874445 -0.31117827 -0.19623925 -0.3131595 -0.24761565
-0.3106933 -0.25382966 -0.21240093 -0.3318778 -0.16248521 -0.20737714 -0.23725899 -0.17590365
-0.16217133 -0.27408078 -0.23847541 -0.2751704 -0.31720346 -0.1850542 -0.3081637 -0.29854614
-0.20369102 -0.30273142 -0.19218984 -0.32858646 -0.33744583 -0.25833243 -0.1634774 -0.2778106
-0.20158471 -0.1650502 -0.28738442 -0.30987 -0.28223315 -0.26734072 -0.26868507 -0.25858346
-0.26346695 -0.16518427 -0.25610486 -0.23973536 -0.29265448 -0.24644496 -0.17304859 -0.2124712
-0.30130658 -0.17620966 -0.24997723 -0.24452339 -0.18748839 -0.32841155 -0.24149519 -0.3309552
-0.24087796 -0.26640883 -0.307736 -0.19615626 -0.28266624 -0.25692964 -0.26737654 -0.17710496
-0.18393286 -0.15761243 -0.25694117 -0.27804777 -0.19158459 -0.33224052 -0.1982667 -0.2565394
-0.29787597 -0.1927952 -0.16928601 -0.26703146 -0.19029629 -0.22907105 -0.22376472 -0.27577254
-0.20255038 -0.24135128 -0.24614683 -0.23141578 -0.2498156 -0.30936497 -0.3085051 -0.2911682
-0.20816085 -0.22387685 -0.32346654 -0.29506052 -0.33331007 -0.17169735 -0.21577029 -0.2549972
-0.23288928 -0.25509977 -0.32724658 -0.29824027 -0.32849407 -0.21935791 -0.23808073 -0.21085148
-0.2994725 -0.20110838 -0.32794526 -0.3262676 -0.32541695 -0.24299012 -0.2333925 -0.21620166
-0.26503515 -0.2024018 -0.19900651 -0.19278406 -0.19740899 -0.30720386 -0.32302716 -0.16594215
-0.25543946 -0.32803452 -0.28794745 -0.2759715 -0.25729448 -0.2120911 -0.28740382 -0.15790412
-0.28278548 -0.2163727 -0.31372547 -0.16630277 -0.2657362 -0.17914128 -0.21252474 -0.26445487
-0.23635802 -0.33102936 -0.23418427 -0.27043054 -0.3181181 -0.32599047 -0.309242 -0.17628527
-0.17501412 -0.23225728 -0.31040335 -0.29549727 -0.19019125 -0.19958307 -0.28714246 -0.28016403
-0.31734648 -0.306639 -0.20095891 -0.30285415 -0.27256244 -0.20242594 -0.31007516 -0.28714564
-0.2581039 -0.20116206 -0.17928153 -0.22676736 -0.23528878 -0.1955592 -0.24956328 -0.25423622
-0.32435673 -0.28401768 -0.1901565 -0.20488939 -0.24322651 -0.2721594 -0.21994418 -0.33149225
-0.16059284 -0.23082036 -0.278266 -0.29046273 -0.31414312 -0.24376546 -0.22831148 -0.21626388
-0.2602878 -0.29542583 -0.25896424 -0.17457525 -0.23038214 -0.3025983 -0.3244244 -0.17217298
-0.23030216 -0.26885793 -0.3150302 -0.23943792 -0.25185323 -0.31733847 -0.21623522 -0.310368
-0.22694434 -0.18262728 -0.2105547 -0.23665021 -0.24232082 -0.20747717 -0.1663266 -0.2807969
-0.33319652 -0.29909196 -0.15993245 -0.24637344 -0.17163308 -0.20800558 -0.27127072 -0.24586514
-0.26654363 -0.24042383 -0.23996498 -0.19977637 -0.22491303 -0.19362248 -0.24864425 -0.3013043
-0.19457704 -0.25850034 -0.32122988 -0.3072283 -0.32127464 -0.25124782 -0.32495338 -0.2979561
-0.26348394 -0.2761919 -0.28115955 -0.33199692 -0.2349387 -0.22438367 -0.29857108 -0.28172213
-0.19523636 -0.2963581 -0.24726336 -0.24923491 -0.26847008 -0.22829187 -0.29383773 -0.31629917
-0.27246177 -0.21345662 -0.3202675 -0.22494027 -0.3160541 -0.23748827 -0.292983 -0.21857657

hidden2_layer.weight_log_sigma f4 [128, 128]
00000000: 1483 5cbf 5043 69bf fa81 5fbf 928c 54bf
00000010: 64ae 63bf 00a6 68bf 24ab 5abf b80f 43bf
00000020: 2898 6abf 16f2 6fbf d454 5dbf 005f 65bf
00000030: 5ed1 5dbf 0c8b 6abf b863 6abf a0e0 69bf
00000040: c88b 68bf f81f 70bf 4c47 70bf 7835 6bbf
00000050: d68b 56bf 90b8 6bbf 0a7f 67bf 0ce1 56bf
00000060: 8ca0 65bf d429 67bf 7077 58bf 2c94 63bf
00000070: fae4 6fbf 8c2e 6cbf e4c3 5ebf 2cbf 59bf
00000080: 00d1 5ebf e0c7 65bf b682 5dbf 8ccb 5bbf
00000090: 6492 56bf 5cf0 50bf 9869 5abf 1673 52bf
000000a0: f4cf 4fbf 6ced 58bf 34c4 6fbf 5027 5cbf
000000b0: 688e 4fbf 4c72 66bf 8c59 62bf bca6 66bf
000000c0: cebe 5abf f407 6abf 2c69 6dbf a099 66bf
000000d0: acf0 61bf 7835 6bbf 3002 56bf 22bb 64bf
000000e0: 50fc 65bf f479 63bf 9c02 43bf 7c06 6ebf
000000f0: 9426 5ebf bc18 60bf 28df 6dbf 74ba 54bf
00000100: 4c9d 5cbf 8816 66bf 28ee 56bf ecf3 6abf
00000110: f4eb 5cbf 1cb3 68bf b4bd 5dbf 3c03 65bf
00000120: 2645 64bf fce3 4ebf 643c 6abf f2fb 66bf
00000130: 7c78 67bf b8d5 63bf 9055 5bbf 8058 53bf
00000140: c42c 5fbf 4c72 66bf a00b 60bf ea3d 54bf
00000150: 86c3 5fbf 2c94 63bf 7cea 60bf 10ce 66bf
00000160: 5486 65bf 688e 4fbf 4876 6dbf a882 6fbf
00000170: 4869 49bf 20f6 64bf 90e3 61bf 94fb 67bf
00000180: 78ee 67bf d0ae 50bf 680d 6dbf 329c 5fbf
00000190: e8db 64bf 88eb 6fbf d6d2 59bf b07a 61bf
000001a0: 1c7b 4ebf 8461 70bf b404 61bf 1087 63bf
000001b0: 0873 64bf 08e5 5dbf b44b 64bf 445e 67bf
000001c0: b476 5abf 642f 46bf 48a1 63bf 4417 64bf
000001d0: b25b 6ebf 2464 57bf 9894 50bf 78a7 64bf
000001e0: dcf6 62bf 1015 6abf 482f 6abf 28ee 56bf
000001f0: d0e6 6abf bc34 6dbf e451 65bf a8ad 65bf
00000200: 30f3 6cbf 0857 57bf 3e90 4abf 5692 68bf
00000210: 98cc 6abf ec1e 61bf 5810 65bf 2cea 4fbf
00000220: e40a 62bf 7c31 64bf e8b0 6ebf 88cf 62bf
00000230: eada 43bf 9c90 49bf 7005 5fbf fc1b 69bf
00000240: ece6 46bf 1c41 6fbf 6c97 6cbf 1c41 6fbf
00000250: 3a22 58bf c457 55bf 2202 68bf 18b7 6fbf
00000260: 3cbc 61bf 841a 6dbf 9813 6ebf 8ca0 65bf
00000270: c663 58bf 3065 66bf d470 6abf 0430 68bf
00000280: ecf3 6abf 5857 68bf 26d3 6abf f803 63bf
00000290: e8b0 6ebf 187f 55bf 20cb 6ebf 86c3 5fbf
000002a0: 4813 5dbf 1467 4fbf fca9 6fbf 149f 69bf
000002b0: 04dc 40bf 3049 59bf d0f5 53bf c88b 68bf
000002c0: c2ca 6fbf 70cd 44bf e00e 69bf 9c2d 39bf
000002d0: 4c00 6dbf bced 69bf 6024 64bf 8ab0 6fbf
000002e0: 36fb 68bf c828 58bf 3ce7 57bf a217 63bf
000002f0: f803 63bf 5cc5 5abf 98f7 60bf 5c7e 57bf
00000300: 70e9 51bf e8b0 6ebf fc1b 69bf 04e9 64bf
00000310: 1467 4fbf 385d 58bf 44d0 60bf b008 68bf
00000320: 4a66 63bf e080 62bf a495 5fbf 6854 70bf
00000330: e09c 6fbf 0477 6bbf b847 5dbf b6e5 6dbf
00000340: 92ef 64bf f0ef 63bf fc8d 62bf 32e3 62bf
00000350: b657 67bf b476 5abf 52a5 58bf dcf6 62bf
00000360: 60f9 6dbf a479 52bf 8074 60bf a882 6fbf
00000370: 1c97 5bbf b420 6ebf d083 5abf 50b5 62bf
00000380: 70da 68bf 68f1 5fbf ac7e 68bf 8a31 52bf
00000390: c283 6cbf b8d5 63bf 8c84 58bf a8ad 65bf
000003a0: 142d 70bf 9885 67bf 8445 63bf 3090 5cbf
000003b0: 1cfa 6bbf 20af 61bf c0a2 5fbf 3cd8 6ebf
000003c0: b847 5dbf f036 67bf a882 6fbf 4876 6dbf
000003d0: d6a7 63bf 4417 64bf 7c31 64bf 0cb6 60bf
000003e0: e080 62bf 90ff 6ebf 8841 5cbf bc6e 4cbf
000003f0: be96 5cbf daa3 5cbf 7670 6bbf 5cc5 5abf
-0.8613751 -0.91118336 -0.87307703 -0.83026993 -0.88937974 -0.90878296 -0.8541739 -0.7619586
-0.9163842 -0.9372877 -0.8645756 -0.89598083 -0.86647594 -0.9161842 -0.9155841 -0.91358376
-0.9083829 -0.9379878 -0.9385879 -0.9187846 -0.8380712 -0.92078495 -0.9042822 -0.83937144
-0.896981 -0.902982 -0.8455725 -0.8889797 -0.93708766 -0.92258525 -0.87017655 -0.8505733
-0.8703766 -0.8975811 -0.86527574 -0.8585746 -0.83817124 -0.8161676 -0.85317373 -0.8220686
-0.81176686 -0.8473728 -0.9365876 -0.85997486 -0.8107667 -0.90018153 -0.8841789 -0.90098166
-0.85447395 -0.91418386 -0.92738605 -0.90078163 -0.8825786 -0.9187846 -0.8359709 -0.8934804
-0.89838123 -0.8885796 -0.76175857 -0.92978644 -0.86777616 -0.8753774 -0.92918634 -0.83097005
-0.86177516 -0.8987813 -0.8395715 -0.91778445 -0.86297536 -0.908983 -0.8661759 -0.8945806
-0.8916801 -0.80816627 -0.914984 -0.9022819 -0.9041822 -0.88997984 -0.85677433 -0.82556915
-0.8717768 -0.90018153 -0.8751774 -0.82906973 -0.8740772 -0.8889797 -0.87857795 -0.90158176
-0.89658093 -0.8107667 -0.9275861 -0.9355874 -0.7867627 -0.89438057 -0.8823786 -0.9061825
-0.9059825 -0.8151674 -0.9259858 -0.8734771 -0.8939805 -0.9371877 -0.85087335 -0.8807783
-0.806566 -0.938988 -0.878978 -0.88877964 -0.89238024 -0.866776 -0.89178014 -0.9037821
-0.85337377 -0.7741606 -0.8891797 -0.89098 -0.93108666 -0.8413718 -0.81476736 -0.8931804
-0.8865793 -0.9143839 -0.91478395 -0.8395715 -0.9175844 -0.9265859 -0.8957808 -0.89718103
-0.92558575 -0.84117174 -0.79126346 -0.9084829 -0.91718435 -0.8793781 -0.89478064 -0.8121669
-0.8829787 -0.8913801 -0.9323869 -0.8859792 -0.7650591 -0.7873628 -0.8711767 -0.91058326
-0.7769611 -0.93458724 -0.9241855 -0.93458724 -0.84427226 -0.83337045 -0.90628254 -0.93638754
-0.8817785 -0.92618585 -0.9299865 -0.896981 -0.8452724 -0.8999815 -0.9157841 -0.90698266
-0.91778445 -0.90758276 -0.91728437 -0.8867793 -0.9323869 -0.83397055 -0.93278694 -0.8740772
-0.86357546 -0.8101666 -0.9361875 -0.9125836 -0.7533572 -0.848773 -0.82796955 -0.9083829
-0.9366876 -0.7687597 -0.9103832 -0.7233522 -0.9257858 -0.9137838 -0.89118004 -0.9362875
-0.9100832 -0.8443723 -0.8433721 -0.88707936 -0.8867793 -0.85457397 -0.878778 -0.84177184
-0.8199682 -0.9323869 -0.91058326 -0.89418054 -0.8101666 -0.8451724 -0.8781779 -0.90638256
-0.88827956 -0.884779 -0.8733771 -0.93878794 -0.9359875 -0.9197848 -0.8643756 -0.92928636
-0.89428055 -0.8903799 -0.884979 -0.8862792 -0.9036821 -0.85337377 -0.8462726 -0.8865793
-0.9295864 -0.8221686 -0.87677765 -0.9355874 -0.8577745 -0.9301865 -0.8535738 -0.8855791
-0.9095831 -0.8747773 -0.90818286 -0.8210684 -0.92388546 -0.88997984 -0.8457725 -0.89718103
-0.93818784 -0.9043822 -0.8877795 -0.8615751 -0.9217851 -0.88157845 -0.8735771 -0.932987
-0.8643756 -0.903182 -0.9355874 -0.9275861 -0.8892797 -0.89098 -0.8913801 -0.8777778
-0.884779 -0.9335871 -0.8603749 -0.7985647 -0.86167514 -0.8618752 -0.91968477 -0.85457397
