model_stock/dynamic_small_evn_all_lr0.001_2000EP.pth (torch, 356287 bytes, 16 tensors)

input_layer.weight_mu f4 [128, 43]
000000 cb 36 d2 bf 7d f3 6a bf 56 e5 71 bf bb b8 89 bf
       -1.6422971 -0.91777784 -0.94490564 -1.07595
000010 6d 7d 01 c0 63 ef 5c bf b3 d1 8a bf f2 00 ee bf
       -2.0232804 -0.86302775 -1.0845245 -1.8594038
000020 88 3a c4 3f 83 d1 d5 bf b7 30 e6 bf fe 46 bc bf
       1.5330362 -1.6704563 -1.7983617 -1.4709165
000030 73 45 d2 bf 31 07 b1 bf 51 6c b1 bf f4 1b a9 ba
       -1.6427444 -1.383032 -1.386118 -0.0012902007
000040 68 5f 47 b9 aa 1c 2d ba 53 6f ea bf 3c e8 72 bf
       -0.0001901366 -0.00066036975 -1.8315223 -0.9488561
000050 71 fc 80 bf 4d cb 80 bf a9 37 f0 bf d0 06 53 bf
       -1.0077039 -1.0062042 -1.8766986 -0.8243227
000060 8a d1 80 bf 78 e2 d7 bf b9 e5 c2 3f ee b3 e5 bf
       -1.0063946 -1.6865988 1.5226356 -1.7945535
000070 74 ed d4 bf ee 71 bb bf ca 43 bd bf da bb b2 bf
       -1.6634965 -1.4644144 -1.4786313 -1.3963578
000080 db 28 cf bf 50 06 ef 38 74 b0 b6 b9 88 e3 07 39
       -1.6184343 0.00011397584 -0.00034845213 0.00012959365
000090 43 d8 84 bf 92 30 69 bf 01 77 88 bf 54 af bc 3f
       -1.0378498 -0.9108974 -1.0661317 1.4741006
0000a0 9f ab 01 c0 f7 6c a4 3f 21 79 e1 bf e4 91 de be
       -2.0261 1.2845753 -1.7615091 -0.4347068
0000b0 76 a8 04 c0 bd 67 05 c0 aa d8 04 c0 d5 18 00 c0
       -2.072782 -2.0844567 -2.0757241 -2.0015156
0000c0 c6 cd 05 c0 42 41 f3 bf a8 1f c2 bf 07 7e 88 bc
       -2.0906844 -1.900429 -1.5165911 -0.016661657
0000d0 61 24 3d bd 76 62 c5 bc 0d 92 8f bf b0 1f 9c bf
       -0.04617727 -0.024094801 -1.1216446 -1.219717
0000e0 c2 dd 76 bf d6 62 a3 bf 54 69 f3 b9 44 fd d0 39
       -0.96432126 -1.2764537 -0.00046427047 0.0003986155
0000f0 b2 57 53 ba 84 08 cf be fa d5 03 c0 ed 98 03 c0
       -0.0008062079 -0.40436184 -2.059935 -2.0562088
000100 83 ff ff bf 7e cd ee bf 7b 7d 05 c0 ea 26 06 c0
       -1.9999851 -1.8656461 -2.0857837 -2.0961251
000110 e0 54 cc bf fc b5 fd ba 07 c9 00 be 28 fa e1 bd
       -1.5963402 -0.0019356604 -0.12576686 -0.11034042
000120 b3 1b 8b bf c8 a1 9a bf e5 8e 5f bf 1f a2 9a bf
       -1.0867828 -1.2080622 -0.87327415 -1.2080725
000130 e8 b1 c9 39 08 9f 6a b9 54 c6 a3 39 10 78 04 c0
       0.00038470258 -0.00022375223 0.0003123755 -2.069828
000140 f2 e3 06 c0 97 b4 ec bf bc 41 a7 be e4 87 ef bd
       -2.1076627 -1.8492612 -0.3266734 -0.11695841
000150 4d c5 14 3f a6 dd ed bf e4 1d 8c bf d4 0e fd bf
       0.5811356 -1.8583267 -1.0946622 -1.977015
000160 4d e0 e1 bf 2c 9e 00 c0 9f e9 53 bf 54 57 03 c0
       -1.7646576 -2.009654 -0.8277835 -2.052205
000170 70 b6 dc bf d8 0e f1 bf 2a f9 c6 3f 81 49 be bf
       -1.7243176 -1.8832655 1.5544789 -1.4866182
000180 c5 b4 00 c0 ea e2 af bf d9 42 cd bf ba 58 95 bf
       -2.0110333 -1.3741124 -1.6036025 -1.1667702
000190 98 8e c1 bf 90 47 22 39 50 f0 5e b9 b4 39 18 3a
       -1.5121641 0.00015476183 -0.00021261093 0.0005806938
0001a0 56 74 73 bf 5f 32 06 c0 0a ad d2 bf 78 a5 00 c0
       -0.9509939 -2.0968244 -1.6459057 -2.0100994
0001b0 80 78 62 bf 02 74 08 c0 54 55 c8 bf 00 a8 04 c0
       -0.8846512 -2.1320806 -1.565104 -2.072754
0001c0 2e 1d d8 3f 1b eb bc bf 45 8a f0 bf bf e3 9e bf
       1.6883905 -1.4759248 -1.8792197 -1.2413253
0001d0 bb af d3 bf ef 58 9f bf 8c 75 c3 bf 88 17 27 b9
       -1.6538004 -1.2449015 -1.5270247 -0.00015935127
0001e0 20 0b a5 38 74 9d ef 39 a1 f5 b6 bf bc 19 ee bf
       7.869885e-05 0.00045702944 -1.429371 -1.8601604
0001f0 7a f3 cf bf c6 34 c2 bf 06 65 e4 bf d3 60 f0 3f
       -1.6246178 -1.5172355 -1.784333 1.8779548
000200 72 9d e0 bf 91 54 2a bf 32 10 dd bf 97 2a d4 bf
       -1.7548048 -0.6653529 -1.7270567 -1.6575497
000210 d7 6f f5 bf cd 78 5b bf bf e8 f3 bf 62 77 ea bf
       -1.9174756 -0.857312 -1.9055403 -1.8317683
000220 a3 fc 01 c0 fa 03 80 3f 59 0d 44 bf 7d 01 43 bf
       -2.0310447 1.0001214 -0.76582867 -0.76174146
000230 e0 cb ab bf dd 7d cf bf 72 f9 ad bf bd 7d c5 bf
       -1.3421593 -1.6210285 -1.359175 -1.5428997
000240 28 51 df 39 42 80 54 ba a4 3e 28 ba 91 29 60 bf
       0.0004259434 -0.000810627 -0.00064180256 -0.87563425
000250 ce 4c e8 bf b6 40 e6 bf 93 75 e7 bf 08 5d 33 bf
       -1.8148439 -1.7988498 -1.8082756 -0.7006383
000260 10 e6 df bf af 7d ee bf e4 15 05 c0 c8 88 7d 3f
       -1.7492085 -1.8632106 -2.079461 0.99036837
000270 0b c3 4f bf 82 44 73 bf b4 da a2 bf 27 14 d0 bf
       -0.81156987 -0.9502641 -1.2722993 -1.625615
000280 32 f0 ae bf b7 3d b3 bf b9 ab 9a 3a c8 e7 f3 b9
       -1.3667052 -1.4003209 0.0011800445 -0.00046521262
000290 e8 ba 9c b9 a1 13 db bf a9 c1 d2 bf 6f 5b d9 bf
       -0.00029893895 -1.7115365 -1.646535 -1.6981028
0002a0 d7 1d d7 bf 01 85 fc bf d7 d4 27 3f 61 05 81 bf
       -1.6805981 -1.972809 0.6555914 -1.0079767
0002b0 2a 3a 58 bf e2 1c ee bf 1e 97 d9 bf 91 d7 f8 bf
       -0.8446375 -1.8602564 -1.6999242 -1.9440786
0002c0 de 1b 9f bf 3a d3 02 c0 f5 1a cd bf 2c c8 ff bf
       -1.2430379 -2.0441422 -1.6023852 -1.9982963
0002d0 53 a9 b8 3f 7d b2 d6 bf a3 78 ff bf 68 a6 8e bf
       1.4426674 -1.677322 -1.995869 -1.1144533
0002e0 61 82 be bf 97 69 96 bf b7 ff 9a bf 89 0c af 3a
       -1.4883538 -1.1750973 -1.2109288 0.0013355176
0002f0 78 99 8c b9 82 4c 3e ba 93 ba 3a bf b3 31 03 c0
       -0.00026817224 -0.00072593254 -0.7294094 -2.0499084
000300 29 f2 e1 bf 80 65 f7 bf ed f1 81 bf 6e bb 01 c0
       -1.7652026 -1.932785 -1.0151955 -2.0270648
000310 af bd d5 bf 20 12 01 c0 96 ea c6 3f 6d 84 cc bf
       -1.6698512 -2.0167313 1.554034 -1.5977913
000320 d7 83 f8 bf cd 68 8d bf 4a 3d b4 bf 3d a2 77 bf
       -1.9415234 -1.1047608 -1.4081204 -0.9673193
000330 86 4a a5 bf c2 57 6d ba 74 6b c5 39 35 84 84 3a
       -1.2913368 -0.00090539095 0.00037654827 0.0010110202
000340 be c9 8e bf 0e d6 fc bf 65 51 db bf f4 4c b1 bf
       -1.1155317 -1.9752824 -1.7134215 -1.3851609
000350 44 a3 e0 bf bc 1b d9 3f 0a 7a ca bf 88 5e 4e bf
       -1.7549825 1.6961589 -1.5818493 -0.80612993
000360 e3 4c ff bf 65 ff f1 bf 8f f3 04 c0 60 bb 7f bf
       -1.9945339 -1.8906065 -2.0773656 -0.99895287
000370 e6 7e fa bf c4 33 d6 bf 8b 28 ef bf 70 28 d7 3f
       -1.9569976 -1.6734548 -1.8684248 1.6809216
000380 68 63 cf bf ed 4f 09 c0 7c 85 c4 bf 4a a4 d3 bf
       -1.6202211 -2.1455033 -1.5353236 -1.6534512
000390 aa 62 b2 bf a8 3f b6 bf f4 f0 47 ba 00 c6 94 36
       -1.393636 -1.4238176 -0.00076271524 4.433794e-06
0003a0 e8 0b 84 39 47 f0 3f bf e2 46 06 c0 44 69 eb bf
       0.00025185873 -0.7497601 -2.0980763 -1.83915
0003b0 b7 1b f7 bf eb 1e 8f bf 57 45 f1 bf 41 f0 d0 bf
       -1.9305333 -1.118131 -1.8849286 -1.632332
0003c0 b6 7d 06 c0 a1 5a d1 3f 58 21 db bf 41 6d 05 c0
       -2.1014228 1.6355783 -1.7119551 -2.0847933
0003d0 34 c3 b6 bf 64 67 c0 bf 4c 90 a5 bf a1 e4 c8 bf
       -1.4278321 -1.5031552 -1.2934661 -1.5694772
0003e0 a0 eb 65 b8 28 4d 2e b9 78 ff d4 39 9f 02 c7 bf
       -5.4817297e-05 -0.00016622676 0.0004062613 -1.5547675
0003f0 30 32 04 c0 b8 0c f5 bf d5 86 d4 bf 3f 05 f2 bf
       -2.0655632 -1.9144506 -1.6603647 -1.8907851

input_layer.weight_log_sigma f4 [128, 43]
000000 f3 69 cb bf 67 67 03 c0 73 91 fc bf 99 7e d9 bf
       -1.5891708 -2.0531862 -1.9731888 -1.699176
000010 8f c0 01 3f e9 4f fc bf 47 c3 12 c0 67 98 0b c0
       0.50684446 -1.9711887 -2.2931688 -2.181177
000020 6f 24 d5 bf db aa 82 3f 63 6b 09 c0 67 c9 13 c0
       -1.6651744 1.0208391 -2.1471794 -2.3091676
000030 b3 5c 1c c0 c4 36 9b be 5b a4 1d c0 18 72 31 bf
       -2.443158 -0.3031522 -2.4631565 -0.6931472
000040 18 72 31 bf 18 72 31 bf 45 8f f1 bf d5 07 db bf
       -0.6931472 -0.6931472 -1.8871847 -1.7111765
000050 97 83 1d c0 f5 bd ce bf e1 3a ce bf b8 ad 7e 3f
       -2.4611566 -1.615172 -1.6111718 0.99483824
000060 d1 51 2f 3f a3 46 03 c0 57 d9 2b c0 23 5f 07 c0
       0.68484217 -2.0511863 -2.6851404 -2.1151817
000070 0f af 04 c0 9f 4a 09 c0 ab d1 0f c0 0f af 04 c0
       -2.0731847 -2.1451795 -2.247172 -2.0731847
000080 7b 48 0e c0 18 72 31 bf 18 72 31 bf 18 72 31 bf
       -2.2231739 -0.6931472 -0.6931472 -0.6931472
000090 11 b4 3f 3f 3f ce c6 bf d5 42 ba bf 0f 78 b8 bf
       0.74884135 -1.5531691 -1.4551646 -1.4411639
0000a0 cb 6a 29 c0 63 f1 e1 bf 17 c8 c5 bf 29 6d 81 bf
       -2.6471431 -1.765179 -1.5451688 -1.0111438
0000b0 f0 96 37 bf e8 3c 9c be 07 b7 10 c0 eb 70 2a c0
       -0.7171469 -0.30515218 -2.261171 -2.663142
0000c0 50 7a a6 be 91 a4 8a bf 07 63 8a bf e4 75 62 be
       -0.32515192 -1.0831472 -1.0811471 -0.22115284
0000d0 73 b2 2a c0 d9 84 62 3f 7a aa bd bc b2 48 3d 3e
       -2.6671417 0.8848396 -0.023152579 0.18484762
0000e0 f0 e6 8d be bf b2 1a c0 18 72 31 bf 18 72 31 bf
       -0.27715254 -2.4171598 -0.6931472 -0.6931472
0000f0 18 72 31 bf 73 81 22 c0 b5 92 61 bf 93 b8 2b c0
       -0.6931472 -2.539151 -0.8811448 -2.6831405
000100 a3 3b 2c c0 63 9c 11 c0 85 71 97 bf 67 05 a7 3f
       -2.69114 -2.27517 -1.1831518 1.3048524
000110 48 f7 1c bf fd 8a 63 3f c7 01 62 3f 97 a0 94 bf
       -0.6131482 0.88883954 0.8828396 -1.1611508
000120 e1 ff ee bf 35 b4 f7 bf 5b dc b3 bf 2e 09 08 3e
       -1.8671838 -1.935187 -1.4051622 0.13284752
000130 18 72 31 bf 18 72 31 bf 18 72 31 bf 5a 7a 1d bf
       -0.6931472 -0.6931472 -0.6931472 -0.6151482
000140 1f 76 47 bf 93 b8 2b c0 db 3e 3e bf 57 d9 2b c0
       -0.77914613 -2.6831405 -0.7431466 -2.6851404
000150 37 40 12 c0 43 34 00 c0 79 c8 e5 bf cf 97 2b c0
       -2.2851694 -2.0031898 -1.7951804 -2.6811407
000160 51 8d 0e 3f fb f3 2a c0 87 9e 0c c0 cf 97 2b c0
       0.5568438 -2.6711414 -2.1971757 -2.6811407
000170 1f 94 15 c0 63 2f 2a c0 9b 4e 0f c0 7b 17 06 c0
       -2.3371656 -2.6591423 -2.2391727 -2.0951831
000180 f7 c6 28 c0 af 1d 36 3e d9 be 24 c0 b6 f7 e0 3d
       -2.6371439 0.17784761 -2.5741484 0.10984747
000190 e5 81 0a c0 18 72 31 bf 18 72 31 bf 18 72 31 bf
       -2.1641781 -0.6931472 -0.6931472 -0.6931472
0001a0 43 34 00 c0 ff 61 df bf 4b f0 14 c0 d7 c0 27 c0
       -2.0031898 -1.7451781 -2.3271663 -2.621145
0001b0 98 49 99 3d bf 14 2b c0 53 e8 08 c0 1b fa 2b c0
       0.0748474 -2.6731412 -2.13918 -2.6871402
0001c0 73 bd 01 c0 57 e4 02 c0 cb 39 21 c0 9d 1b 04 c0
       -2.027188 -2.0451868 -2.5191524 -2.0641854
0001d0 4d ee 11 c0 92 e3 0b bd 11 de 09 c0 18 72 31 bf
       -2.2801697 -0.034152575 -2.1541789 -0.6931472
0001e0 18 72 31 bf 18 72 31 bf 53 c7 85 bf 1b fa 2b c0
       -0.6931472 -0.6931472 -1.0451454 -2.6871402
0001f0 73 81 22 c0 1b fa 2b c0 9f 0e 2a c0 eb 0e 1a c0
       -2.539151 -2.6871402 -2.6571424 -2.4071605
000200 07 b7 10 c0 3f cb 1e c0 c7 0c 1f c0 a6 9c 20 3e
       -2.261171 -2.4811552 -2.4851549 0.15684757
000210 07 4a 29 c0 65 b1 a3 3f 97 83 1d c0 47 56 2b c0
       -2.6451433 1.2788512 -2.4611566 -2.677141
000220 09 7c ae bf ff be 1c c0 2b 4b c6 bf 95 11 b2 bf
       -1.3631603 -2.4491575 -1.549169 -1.3911616
000230 0e cf 5d bd 07 c2 1e bf ee c9 f3 be fc bd d3 3c
       -0.05415254 -0.6201481 -0.47614998 0.025847428
000240 18 72 31 bf 18 72 31 bf 18 72 31 bf 5f d1 1f c0
       -0.6931472 -0.6931472 -0.6931472 -2.497154
000250 9f 0e 2a c0 f1 15 c8 bf f5 f8 ad bf 5b a4 1d c0
       -2.6571424 -1.5631696 -1.3591601 -2.4631565
000260 2f 48 1e c0 76 9b 4e bb db ed 29 c0 87 00 1d c0
       -2.4731557 -0.0031525767 -2.6551425 -2.4531572
000270 bb c3 af bf 83 35 2b c0 4d 8c 01 c0 71 f0 0c c0
       -1.3731607 -2.675141 -2.0241883 -2.2021754
000280 51 b9 03 c0 25 8e 0c c0 18 72 31 bf 18 72 31 bf
       -2.0581858 -2.1961758 -0.6931472 -0.6931472
000290 18 72 31 bf 3f cb 1e c0 98 86 a8 be a0 46 12 3e
       -0.6931472 -2.4811552 -0.32915187 0.14284754
0002a0 df e6 ca bf a7 06 1e c0 bf b2 1a c0 3f cb 1e c0
       -1.5851706 -2.469156 -2.4171598 -2.4811552
0002b0 35 b4 f7 bf 0d 56 05 3f 7f d7 20 c0 df 1a 2c c0
       -1.935187 0.5208443 -2.5131528 -2.68914
0002c0 d5 cc fb bf 17 cd 29 c0 3b 9e 1c c0 27 ee 19 c0
       -1.9671885 -2.6531427 -2.4471576 -2.4051607
0002d0 db f8 00 c0 c3 df 1c c0 33 a6 28 c0 e8 a5 fa bf
       -2.015189 -2.4511573 -2.635144 -1.958188
0002e0 05 88 0b c0 72 22 da bf 55 17 0e c0 18 72 31 bf
       -2.180177 -1.7041762 -2.220174 -0.6931472
0002f0 18 72 31 bf 18 72 31 bf c3 4c 04 c0 ef 3b 1c c0
       -0.6931472 -0.6931472 -2.0671852 -2.441158
000300 27 50 2a c0 27 50 2a c0 2b 10 e7 bf cb 6a 29 c0
       -2.661142 -2.661142 -1.8051809 -2.6471431
000310 62 a6 89 3e 93 b8 2b c0 8f 5a 21 c0 23 f2 1f c0
       0.26884753 -2.6831405 -2.5211523 -2.4991539
000320 47 56 2b c0 5c 10 f7 bf 8e 6b a6 bf 8b 66 d9 bd
       -2.677141 -1.9301867 -1.3001573 -0.10615262
000330 09 84 05 c0 18 72 31 bf 18 72 31 bf 18 72 31 bf
       -2.0861838 -0.6931472 -0.6931472 -0.6931472
000340 77 4c 14 c0 7f a6 18 c0 20 b6 80 3d 73 81 22 c0
       -2.317167 -2.385162 0.062847376 -2.539151
000350 1b fa 2b c0 c3 10 25 c0 fb c2 22 c0 ad 5f 2e bf
       -2.6871402 -2.579148 -2.5431507 -0.6811474
000360 57 d9 2b c0 d6 eb bf 3e 47 56 2b c0 9b 1d 07 c0
       -2.6851404 0.37484616 -2.677141 -2.111182
000370 93 56 1b c0 51 8d 0e 3f 93 b8 2b c0 cb d7 10 c0
       -2.427159 0.5568438 -2.6831405 -2.263171
000380 1b 67 13 c0 57 d9 2b c0 1f dd f3 bf 9f 4a 09 c0
       -2.303168 -2.6851404 -1.9051856 -2.1451795
000390 f7 d6 f2 bf cb d7 10 c0 18 72 31 bf 18 72 31 bf
       -1.8971852 -2.263171 -0.6931472 -0.6931472
0003a0 18 72 31 bf cb d7 10 c0 47 56 2b c0 1b fa 2b c0
       -0.6931472 -2.263171 -2.677141 -2.6871402
0003b0 bf 14 2b c0 1c 89 ce 3d 0b 77 2b c0 76 65 0a be
       -2.6731412 0.10084745 -2.6791408 -0.13515267
0003c0 0b 77 2b c0 b3 5c 1c c0 12 79 d7 3e 8b 5e 27 c0
       -2.6791408 -2.443158 0.42084557 -2.6151454
0003d0 c8 77 1a 3e 83 d3 1a c0 ef a8 03 c0 cb d7 10 c0
       0.15084755 -2.4191597 -2.057186 -2.263171
0003e0 18 72 31 bf 18 72 31 bf 18 72 31 bf 37 0f 0a c0
       -0.6931472 -0.6931472 -0.6931472 -2.1571786
0003f0 df 1a 2c c0 87 00 1d c0 53 ac 29 c0 fb f3 2a c0
       -2.68914 -2.4531572 -2.6511428 -2.6711414

input_layer.bias_mu f4 [128]
000000 d0 2c 81 bf fb e2 f9 bf 79 ce f0 bf 03 c3 ec bf
       -1.0091801 -1.9522394 -1.881301 -1.8497013
000010 d9 54 05 c0 93 34 f8 bf 5d d8 f2 bf 60 f2 07 c0
       -2.0833037 -1.9391044 -1.8972279 -2.1241684
000020 1a af f2 bf 3e 7d f8 bf 3f 38 de bf ec 81 05 c0
       -1.8959687 -1.9413221 -1.7360915 -2.0860548
000030 95 57 e0 bf 84 93 02 c0 7d 8d f1 bf d0 e9 01 c0
       -1.7526728 -2.0402536 -1.8871304 -2.0298958
000040 df 28 91 bf 79 ab ff bf 0d d7 02 c0 62 cd 00 c0
       -1.1340598 -1.9974204 -2.0443757 -2.0125356
000050 44 e4 08 c0 c4 91 f5 bf 28 59 fe bf a8 24 00 c0
       -2.1389322 -1.9185109 -1.9870958 -2.0022373
000060 d4 f7 cd bf ee 22 f4 bf 9b b4 fa bf ea 9a fb bf
       -1.6091256 -1.907316 -1.9586366 -1.9656651
000070 1d c3 06 c0 b2 03 99 bf 96 19 02 c0 60 77 02 c0
       -2.1056588 -1.1954253 -2.0328116 -2.038536
000080 3f 57 ed bf 30 30 08 c0 79 ce ab bf 90 c5 f3 bf
       -1.854225 -2.1279411 -1.3422385 -1.9044666
000090 ea 79 fa bf b8 dc fa bf b5 ea f3 bf e4 5e f2 bf
       -1.9568455 -1.9598608 -1.9056002 -1.8935208
0000a0 58 ed fa bf e9 cf 00 c0 09 ca f8 bf a9 6a f8 bf
       -1.9603682 -2.0126898 -1.9436656 -1.940755
0000b0 bc ec fb bf dc d4 f7 bf b8 f1 a7 bf ff 97 06 c0
       -1.9681621 -1.9361835 -1.3120642 -2.103027
0000c0 e8 69 ee bf be e7 00 c0 4f 38 ef bf 7e 90 00 c0
       -1.862607 -2.0141444 -1.8689059 -2.008819
0000d0 97 af 00 c0 98 45 04 c0 3b 75 fa bf 68 fb 02 c0
       -2.0107172 -2.0667477 -1.9567026 -2.0465946
0000e0 ce e5 04 c0 a8 c6 fe bf 8c ea ee bf 29 14 ac bf
       -2.0765262 -1.9904375 -1.8665328 -1.3443652
0000f0 48 00 f9 bf 56 49 00 c0 b2 c7 01 c0 a1 c3 08 c0
       -1.9453211 -2.004476 -2.0278134 -2.1369402
000100 42 34 fd bf 05 86 bb bf b2 63 db bf 7d dd f9 bf
       -1.9781573 -1.4650275 -1.71398 -1.9520718
000110 4b 82 f3 bf 42 3e f4 bf aa 64 ae bf e5 83 01 c0
       -1.9024137 -1.90815 -1.362447 -2.0236752
000120 79 87 fd bf 39 75 ee bf 41 33 02 c0 e1 ca f5 bf
       -1.9806968 -1.8629524 -2.0343783 -1.9202539
000130 e4 ba f4 bf d6 87 ea bf 56 55 00 c0 47 4b 04 c0
       -1.9119534 -1.8322704 -2.0052085 -2.0670946
000140 0f 2a f9 bf ba a8 fe bf 7d 7b f2 bf a7 f5 ed bf
       -1.946596 -1.9895241 -1.8943936 -1.8590592
000150 c8 7f 05 c0 36 f1 fc bf b0 dc ec bf a5 17 05 c0
       -2.0859241 -1.9761112 -1.8504848 -2.0795681
000160 21 17 8d bf 10 dd fd bf 99 d7 fa bf 04 66 fa bf
       -1.1022683 -1.9833088 -1.9597045 -1.9562383
000170 48 f2 ef bf 4f a4 05 c0 7f b9 b5 bf c6 f4 f3 bf
       -1.8745813 -2.0881536 -1.4197234 -1.9059074
000180 bd f8 f0 bf 8f 6c 07 c0 2a d4 fd bf f7 ef 00 c0
       -1.8825909 -2.116001 -1.9830372 -2.0146463
000190 e9 1a fe bf b6 61 f8 bf 18 0c 05 c0 a0 85 a3 bf
       -1.9851962 -1.9404819 -2.0788631 -1.2775154
0001a0 e2 09 f8 bf 3a 7c 08 c0 8b 76 d0 bf fd 8a 08 c0
       -1.9378016 -2.1325822 -1.6286176 -2.1334832
0001b0 69 3a 00 c0 9f d4 06 c0 2f b1 ff bf 8f b5 ee bf
       -2.003565 -2.1067274 -1.9975947 -1.8649157
0001c0 9e e7 c1 bf 17 b1 07 c0 d3 4a fa bf 3c 9e eb bf
       -1.5148809 -2.1201837 -1.9554085 -1.8407664
0001d0 cf db 02 c0 da ee f9 bf 2f f4 f9 bf aa 4a 07 c0
       -2.044666 -1.9526017 -1.9527644 -2.1139321
0001e0 79 13 ff bf 86 7b ed bf 0d 25 07 c0 31 77 e0 bf
       -1.9927818 -1.8553321 -2.1116364 -1.7536374
0001f0 99 e2 ea bf 19 fe 03 c0 58 c2 f4 bf cf 3f fc bf
       -1.8350402 -2.062384 -1.9121809 -1.9706973

input_layer.bias_log_sigma f4 [128]
000000 af 55 dd bf 6b 58 26 c0 cf 97 2b c0 cb 9e a9 bf
       -1.7291774 -2.5991466 -2.6811407 -1.3251585
000010 67 2b 24 c0 73 b2 2a c0 cd 2d 8c bf df 1a 2c c0
       -2.565149 -2.6671417 -1.0951477 -2.68914
000020 83 35 2b c0 93 b8 2b c0 53 4a 19 c0 1b fa 2b c0
       -2.675141 -2.6831405 -2.3951614 -2.6871402
000030 b1 bd 68 bf df 1a 2c c0 63 2f 2a c0 cf 97 2b c0
       -0.90914446 -2.68914 -2.6591423 -2.6811407
000040 df 56 0b c0 cf 97 2b c0 11 cc bb bf bf 14 2b c0
       -2.1771772 -2.6811407 -1.4671651 -2.6731412
000050 0b 77 2b c0 63 2f 2a c0 df 1a 2c c0 8b fc 16 c0
       -2.6791408 -2.6591423 -2.68914 -2.359164
000060 47 92 0a c0 eb 70 2a c0 d3 93 25 c0 57 d9 2b c0
       -2.165178 -2.663142 -2.5871475 -2.6851404
000070 1b fa 2b c0 5f 6f 0f c0 1b fa 2b c0 23 23 28 c0
       -2.6871402 -2.2411726 -2.6871402 -2.6271446
000080 fb f3 2a c0 51 fd c3 bf b1 e4 bf bf 0b 77 2b c0
       -2.6711414 -1.5311681 -1.4991666 -2.6791408
000090 93 b8 2b c0 1b c9 23 c0 5f 02 28 c0 bb e7 28 c0
       -2.6831405 -2.5591495 -2.6251447 -2.6391437
0000a0 1b fa 2b c0 ef 6c 24 c0 0b 77 2b c0 bb e7 28 c0
       -2.6871402 -2.5691488 -2.6791408 -2.6391437
0000b0 4f 7f 27 c0 fb f3 2a c0 07 e8 18 c0 eb 70 2a c0
       -2.6171453 -2.6711414 -2.3891618 -2.663142
0000c0 1b fa 2b c0 33 a6 28 c0 ef 6c 24 c0 1b fa 2b c0
       -2.6871402 -2.635144 -2.5691488 -2.6871402
0000d0 83 35 2b c0 15 ea 80 bf 9b e1 27 c0 37 d3 2a c0
       -2.675141 -1.0071436 -2.6231449 -2.6691415
0000e0 9b d2 dc bf 93 f8 8d bf 47 56 2b c0 a7 06 1e c0
       -1.7251772 -1.1091484 -2.677141 -2.469156
0000f0 43 29 29 c0 bf 14 2b c0 47 56 2b c0 47 56 2b c0
       -2.6431434 -2.6731412 -2.677141 -2.677141
000100 5d 04 2b c0 bb 54 10 c0 43 c7 18 c0 9f 0e 2a c0
       -2.6721413 -2.2551715 -2.387162 -2.6571424
000110 0f 73 25 c0 4d 55 bd bf 13 5b 9e bf 9f b5 c2 bf
       -2.5851476 -1.4791657 -1.2371544 -1.5211676
000120 9f 0e 2a c0 47 56 2b c0 37 d3 2a c0 a3 3b 2c c0
       -2.6571424 -2.677141 -2.6691415 -2.69114
000130 9f 0e 2a c0 27 ee 19 c0 5b d5 25 c0 cf 97 2b c0
       -2.6571424 -2.4051607 -2.5911472 -2.6811407
000140 73 b2 2a c0 fc 15 22 bf bf 14 2b c0 57 d9 2b c0
       -2.6671417 -0.63314795 -2.6731412 -2.6851404
000150 6b 58 26 c0 bb e7 28 c0 11 a2 2a c0 8f 8b 29 c0
       -2.5991466 -2.6391437 -2.6661417 -2.649143
000160 8d 4b e6 bf 1b fa 2b c0 d7 5e 17 c0 fb f3 2a c0
       -1.7991806 -2.6871402 -2.3651636 -2.6711414
000170 11 cc bb bf 67 5c 2c c0 65 45 e5 bf 93 b8 2b c0
       -1.4671651 -2.6931398 -1.7911803 -2.6831405
000180 b9 34 cd bf e5 45 2b c0 df 1a 2c c0 0b 77 2b c0
       -1.6031715 -2.676141 -2.68914 -2.6791408
000190 53 ac 29 c0 9f 0e 2a c0 57 d9 2b c0 f3 a4 aa bf
       -2.6511428 -2.6571424 -2.6851404 -1.3331589
0001a0 37 43 da bf 6f 85 28 c0 93 bd ae bf 1b fa 2b c0
       -1.7051762 -2.6331441 -1.3651603 -2.6871402
0001b0 4b 52 25 c0 3d 7a c3 bf 57 d9 2b c0 cf 97 2b c0
       -2.5831478 -1.5271679 -2.6851404 -2.6811407
0001c0 98 d4 d7 bf 53 ac 29 c0 83 35 2b c0 db bc 21 c0
       -1.6861753 -2.6511428 -2.675141 -2.5271518
0001d0 ab 64 28 c0 6b 58 26 c0 83 35 2b c0 35 ef d6 bf
       -2.6311443 -2.5991466 -2.675141 -1.679175
0001e0 63 2f 2a c0 4b 52 25 c0 17 cd 29 c0 cf 97 2b c0
       -2.6591423 -2.5831478 -2.6531427 -2.6811407
0001f0 0e 58 f8 bf fb f3 2a c0 17 cd 29 c0 0b 77 2b c0
       -1.9401872 -2.6711414 -2.6531427 -2.6791408

hidden1_layer.weight_mu f4 [128, 128]
000000 e8 d1 e9 bf 41 f9 da bf 52 dc e7 bf d6 1c d0 bf
       -1.8267183 -1.7107316 -1.8114111 -1.62588
000010 e4 dd f1 bf 86 9b d0 bf cb 50 b0 bf 82 45 e4 bf
       -1.8895841 -1.6297462 -1.3774656 -1.7833712
000020 6e 47 dc bf fb 36 de bf 77 d5 cc bf 12 39 e1 bf
       -1.7209299 -1.7360529 -1.6002644 -1.7595541
000030 de 3e de bf 43 34 eb bf 0a c9 ca bf 81 1b de bf
       -1.7362936 -1.8375324 -1.5842602 -1.7352144
000040 9e 53 b7 bf 39 60 df bf da d4 d1 bf 3b 3b e7 bf
       -1.4322393 -1.745124 -1.6393082 -1.8064951
000050 bc cd e2 bf 0f d6 c0 bf ea a4 f4 bf d4 4f e6 bf
       -1.7719035 -1.5065325 -1.9112828 -1.7993112
000060 3b e2 e8 bf de 91 db bf 7f 95 e4 bf fb 2f d4 bf
       -1.819404 -1.715389 -1.7858123 -1.6577142
000070 d9 56 b9 bf cb 3f cf bf b4 ea b8 bf 57 7b f1 bf
       -1.4479629 -1.6191343 -1.4446626 -1.8865765
000080 30 af e4 bf d0 64 e8 bf 98 2e 8b bf c4 6b fa bf
       -1.7865963 -1.8155766 -1.0873594 -1.9564137
000090 ce 52 cf bf 94 04 d7 bf 61 50 e5 bf 36 d3 4b 3e
       -1.6197145 -1.6798272 -1.7915155 0.1990479
0000a0 1b 86 e7 bf ea 62 b3 bf d7 f5 d7 bf c2 e7 f6 bf
       -1.8087801 -1.4014561 -1.6871899 -1.9289477
0000b0 4a 78 b7 bf f4 88 e0 bf 8f 0d bd bf 4a 93 dc bf
       -1.4333584 -1.7541795 -1.4769763 -1.7232449
0000c0 e2 81 e6 bf a8 69 e4 bf ea 91 e8 bf f0 50 ca bf
       -1.8008387 -1.7844744 -1.816953 -1.580595
0000d0 c4 ef e1 bf 58 90 bc bf 02 67 e1 bf 99 23 da bf
       -1.7651296 -1.473155 -1.760956 -1.7042114
0000e0 f9 ac d5 bf 05 b1 dd bf b1 56 e2 bf 11 ab ed bf
       -1.6693412 -1.7319647 -1.7682706 -1.856783
0000f0 d8 e9 e2 bf 4f 06 e0 bf c4 0a c4 bf c5 6a c5 bf
       -1.7727613 -1.7501925 -1.5315785 -1.5423208
000100 6e b4 de bf 0c 0e fd bf cb a0 f2 bf 11 4f e8 bf
       -1.7398813 -1.9769912 -1.895532 -1.8149129
000110 97 12 e8 bf d3 6d ea bf 9b 0d 85 bf db d1 e0 bf
       -1.8130673 -1.8314766 -1.0394777 -1.7564043
000120 c5 ae d6 bf b1 5d e0 bf ac a9 dc bf bd 8a ec bf
       -1.6772085 -1.7528592 -1.723928 -1.847984
000130 ad ca dc bf 19 fa ed bf 51 26 de bf 12 0c d5 bf
       -1.7249352 -1.8591949 -1.7355443 -1.6644309
000140 53 a6 e9 bf 3e b0 c9 bf ff 0c e0 bf 4b e1 e6 bf
       -1.8253883 -1.575691 -1.7503966 -1.8037504
000150 a0 9f e5 bf a7 12 de bf b3 9d b4 bf 1a c7 f1 bf
       -1.7939339 -1.7349442 -1.4110626 -1.8888886
000160 7a 0d cf bf c5 be e1 bf 4f f8 e2 bf 61 16 d9 bf
       -1.6175988 -1.7636343 -1.7732028 -1.6959955
000170 74 e9 e3 bf 01 04 f0 bf cd 47 af 3f 91 d4 d7 bf
       -1.7805619 -1.8751222 1.3693787 -1.6861745
000180 08 a5 a5 bf 80 5a e4 bf 52 49 eb bf 28 43 cc bf
       -1.2940989 -1.7840118 -1.838175 -1.5957994
000190 04 b7 cd bf 2a 34 e1 bf 9f 31 c5 bf 56 b2 dc bf
       -1.6071477 -1.7594044 -1.5405768 -1.7241924
0001a0 2d ee 88 bf c6 f5 e3 bf 2e 13 eb bf 1e b9 d4 bf
       -1.0697685 -1.7809379 -1.8365228 -1.6618993
0001b0 94 ba eb bf 73 09 b9 bf f9 71 dd bf 68 45 ed bf
       -1.8416314 -1.4456009 -1.7300407 -1.8536806
0001c0 02 28 88 bf e2 73 eb bf 9c 60 de bf 07 81 e9 bf
       -1.063721 -1.839474 -1.7373233 -1.8242501
0001d0 c2 8f fb bf 7f ca bb bf ce 8c e3 bf 7b da dd bf
       -1.9653246 -1.4671172 -1.7777345 -1.73323
0001e0 ea dc c2 bf 75 e5 d0 bf 25 a0 95 3f e0 1b c6 bf
       -1.5223668 -1.6320025 1.1689497 -1.5477257
0001f0 52 52 f3 bf ac 63 c6 bf c3 31 e1 bf 77 41 9d bf
       -1.9009497 -1.5499167 -1.7593311 -1.2285603
000200 29 17 ed bf d8 51 1e be 17 5c e7 bf 52 3a cb bf
       -1.8522693 -0.15460908 -1.8074979 -1.5877173
000210 8c b8 e4 bf f9 43 ed bf cd f2 e4 bf cb 9f ef bf
       -1.7868819 -1.8536369 -1.7886597 -1.872064
000220 74 59 e6 bf 29 c2 e0 bf 58 49 cd bf a4 18 da bf
       -1.7996049 -1.7559253 -1.6038008 -1.703877
000230 f4 da 9b bd 7f 05 e8 bf 12 df ef bf 4c f4 e3 bf
       -0.07610121 -1.8126677 -1.8739951 -1.7808928
000240 95 7f fb bf b0 2c e1 bf 6c d4 df bf b8 af e3 bf
       -1.964831 -1.7591763 -1.7486701 -1.7788
000250 6a 96 f7 bf 7d 1d d5 bf 58 2b fb bf 71 2c ce bf
       -1.9342778 -1.6649624 -1.9622602 -1.6107312
000260 dd 41 fc bf 34 bf eb bf 3f 95 e8 bf 2d 64 eb bf
       -1.97076 -1.8417726 -1.8170546 -1.8389946
000270 fc da 32 be da 3e e4 bf ee 85 ed bf 14 c9 e9 bf
       -0.17466348 -1.7831681 -1.8556497 -1.8264489
000280 28 c2 f2 bf f8 f6 e5 bf 4b 22 76 bf 64 e7 d6 bf
       -1.8965502 -1.7965994 -0.96146077 -1.6789365
000290 d4 18 ef bf 3f 65 f5 bf 0b 71 d2 bf 93 7a ed bf
       -1.8679452 -1.9171523 -1.6440748 -1.8553032
0002a0 fb 04 ea bf 8f bb e9 bf 9c a6 eb bf 06 61 e4 bf
       -1.828277 -1.8260363 -1.841022 -1.7842109
0002b0 a0 bd e7 bf d2 24 d3 bf 0e 6c eb bf 87 d9 e2 bf
       -1.8104744 -1.6495612 -1.8392351 -1.7722634
0002c0 4e 0c db bf 67 95 d5 bf 96 79 fa bf 5a 91 e8 bf
       -1.711313 -1.6686219 -1.9568355 -1.8169358
0002d0 4f d9 e7 bf ad ba eb bf b0 33 e5 bf 00 b1 e5 bf
       -1.8113192 -1.8416344 -1.7906399 -1.7944641
0002e0 a8 07 ea bf 6b be ea bf f9 7a e3 bf c9 a3 f6 bf
       -1.8283587 -1.8339361 -1.7771903 -1.9268733
0002f0 b8 81 e3 bf 3d 60 e3 bf 61 3d d3 bf d7 f5 e5 bf
       -1.7773962 -1.7763745 -1.6503106 -1.7965649
000300 65 ee e3 bf 0f 38 e1 bf 7e 1f b8 be fd ad e5 bf
       -1.7807127 -1.7595233 -0.35961527 -1.7943722
000310 2e 76 fb bf 22 3c f1 bf cb e5 7f bf 7e 54 df bf
       -1.964544 -1.8846476 -0.9996001 -1.744766
000320 86 a1 e3 bf 6d 54 f8 bf 6d 71 e0 bf 45 97 e8 bf
       -1.7783668 -1.9400765 -1.7534615 -1.8171164
000330 e9 50 f1 bf ff 44 e8 bf e6 58 ea bf 36 b0 d0 bf
       -1.8852817 -1.8146056 -1.830838 -1.6303775
000340 1f 29 f4 bf e1 6e da bf c4 a3 ed bf 8a 38 e7 bf
       -1.9075049 -1.7065088 -1.8565602 -1.8064129
000350 5d c0 ca bf c8 48 e7 bf db 44 d6 bf d4 8f f5 bf
       -1.5839955 -1.8069086 -1.6739763 -1.9184518
000360 b7 0d e6 bf 7e aa e6 bf 63 b7 f4 bf 26 ff ee bf
       -1.7972935 -1.802078 -1.9118465 -1.8671615
000370 18 4b c1 bf 45 c4 f4 bf bb 42 ed bf 8f 80 ee bf
       -1.5101042 -1.9122397 -1.853599 -1.8632983
000380 a1 05 e0 bf 97 c0 d9 bf 13 9b f4 bf c5 0b f3 bf
       -1.7501718 -1.7011899 -1.9109825 -1.8987967
000390 81 89 dd bf ab 58 e3 bf 9a ee cd bf 5d 10 02 c0
       -1.7307588 -1.7761434 -1.608844 -2.0322487
0003a0 e5 ef d2 bf 21 c2 ed bf ac fe df bf 43 f0 e3 bf
       -1.647946 -1.8574868 -1.7499595 -1.7807697
0003b0 87 17 e3 bf 8c 60 d7 bf 46 fb e7 bf 15 0b ef bf
       -1.7741555 -1.6826339 -1.8123558 -1.8675257
0003c0 c2 f1 ce bf c3 17 ef bf 22 24 e7 bf 06 41 da bf
       -1.6167529 -1.8679127 -1.8057902 -1.7051094
0003d0 97 2a ee bf 21 9e ec bf 14 ab ee bf 09 34 8a bf
       -1.8606747 -1.8485757 -1.8645959 -1.079713
0003e0 4e a9 e8 bf 22 e1 ee bf 85 1e ee bf a7 ef 7d bf
       -1.8176668 -1.8662455 -1.8603064 -0.99193805
0003f0 19 21 f7 bf 1b 1d ae bf a3 2f ef bf ba c5 f4 bf
       -1.9306976 -1.3602632 -1.8686413 -1.9122841

hidden1_layer.weight_log_sigma f4 [128, 128]
000000 df 1a 2c c0 13 6f 1f c0 cb 6a 29 c0 3b 6d 14 c0
       -2.68914 -2.4911544 -2.6471431 -2.319167
000010 df e9 23 c0 1f 94 15 c0 89 45 2d 3f 1f 94 15 c0
       -2.5611494 -2.3371656 0.6768423 -2.3371656
000020 1b fa 2b c0 27 5b 01 c0 3b cf 24 c0 23 23 28 c0
       -2.6871402 -2.0211885 -2.5751483 -2.6271446
000030 c7 aa 0e c0 df 1a 2c c0 53 ac 29 c0 1b fa 2b c0
       -2.2291734 -2.68914 -2.6511428 -2.6871402
000040 c7 78 20 3f 5b d5 25 c0 83 d3 1a c0 c7 78 20 3f
       0.6268429 -2.5911472 -2.4191597 0.6268429
000050 df 1a 2c c0 f3 28 13 3f 7f 08 29 c0 da c0 b8 3e
       -2.68914 0.5748436 -2.6411436 0.36084634
000060 e7 12 20 c0 57 d9 2b c0 5e 5a d2 3e c7 3d 27 c0
       -2.5011537 -2.6851404 0.4108457 -2.6131456
000070 13 5a 1b 3f 07 19 21 c0 79 68 08 3f ab d1 0f c0
       0.6068432 -2.5171525 0.5328441 -2.247172
000080 9f 0e 2a c0 cb 4d 19 3f dd c3 a6 3f cf 35 1b c0
       -2.6571424 0.5988433 1.3028523 -2.4251592
000090 47 56 2b c0 eb 70 2a c0 b3 c6 02 3f 84 ca 58 3f
       -2.677141 -2.663142 0.5108444 0.84684014
0000a0 cf 97 2b c0 3f cb 1e c0 18 b8 55 3f 45 0e 24 3f
       -2.6811407 -2.4811552 0.8348403 0.64084274
0000b0 96 c3 51 3e df b8 1b c0 af 2f 1a c0 93 b8 2b c0
       0.20484766 -2.4331586 -2.4091604 -2.6831405
0000c0 bf 14 2b c0 28 0c 39 3f c3 a3 27 3f 33 8b 23 3f
       -2.6731412 0.72284174 0.65484256 0.63884276
0000d0 cb 6a 29 c0 07 b7 10 c0 2e 4c a5 3e 23 f2 1f c0
       -2.6471431 -2.261171 0.32284683 -2.4991539
0000e0 f7 02 08 c0 97 83 1d c0 33 a6 28 c0 11 cc bb bf
       -2.125181 -2.4611566 -2.635144 -1.4671651
0000f0 e1 a5 12 3f a3 3b 2c c0 5b a4 1d c0 06 8b 06 3d
       0.5728436 -2.69114 -2.4631565 0.032847427
000100 ac 6a ea 3e 67 5c 2c c0 d7 c0 27 c0 95 c4 17 3f
       0.4578451 -2.6931398 -2.621145 0.59284335
000110 5e d1 90 3e 9b 7f 17 c0 6a d9 bc 3e 33 a6 28 c0
       0.28284734 -2.3671634 0.36884624 -2.635144
000120 b5 f5 1f 3f c2 c2 e3 3e 47 56 2b c0 76 1c 51 3f
       0.62484294 0.44484526 -2.677141 0.8168405
000130 72 0c f0 3e 93 b8 2b c0 a6 a1 3c 3f af 60 22 c0
       0.46884495 -2.6831405 0.73684156 -2.537151
000140 a3 72 1f 3f fe 4f fb 3e 3f fc 26 c0 fb 60 12 c0
       0.62284297 0.49084467 -2.6091459 -2.2871692
000150 f2 47 cf 3e a3 3b 2c c0 89 fe 19 c0 ca a7 3d 3f
       0.40484577 -2.69114 -2.4061606 0.7408415
000160 9b e1 27 c0 27 50 2a c0 ff be 1c c0 c7 3d 27 c0
       -2.6231449 -2.661142 -2.4491575 -2.6131456
000170 eb 3f 22 c0 6f f2 0f c0 83 d3 1a c0 e7 43 28 c0
       -2.5351512 -2.249172 -2.4191597 -2.6291444
000180 98 f3 34 3f 01 1f 2a c0 62 6a 33 3f 32 21 9e 3e
       0.70684195 -2.6581423 0.700842 0.308847
000190 96 12 f1 3e 4f 4e 1f c0 d3 f7 0a 3f 3f fc 26 c0
       0.47084492 -2.4891546 0.542844 -2.6091459
0001a0 0b 77 2b c0 e3 16 26 c0 bf ce 2e 3f a7 ca f0 bf
       -2.6791408 -2.595147 0.6828422 -1.8811845
0001b0 57 d9 2b c0 a3 d9 1b c0 73 ed 33 3f 63 2f 2a c0
       -2.6851404 -2.4351585 0.70284194 -2.6591423
0001c0 04 20 a6 3f f3 68 1e c0 12 b4 3f 3f 1b fa 2b c0
       1.297852 -2.4751556 0.7488414 -2.6871402
0001d0 67 5c 2c c0 5b 42 0d c0 fb f3 2a c0 5c 90 1e 3e
       -2.6931398 -2.207175 -2.6711414 0.15484756
0001e0 98 ad 10 bf 23 c1 17 c0 1f f6 25 c0 8e 68 ff 3e
       -0.56514883 -2.3711631 -2.593147 0.49884456
0001f0 05 4c 2c c0 9f 4a 09 c0 57 77 1b c0 bf e3 22 c0
       -2.6921399 -2.1451795 -2.429159 -2.5451505
000200 07 19 21 c0 0e 57 6a 3e ab 64 28 c0 d3 31 15 c0
       -2.5171525 0.22884771 -2.6311443 -2.331166
000210 95 85 20 c0 ae 10 c6 3e 9c 19 60 3e 83 35 2b c0
       -2.5081532 0.386846 0.21884769 -2.675141
000220 8b fc 16 c0 55 62 07 3f 57 d9 2b c0 23 23 28 c0
       -2.359164 0.5288442 -2.6851404 -2.6271446
000230 db 6f a3 3f 53 e8 08 c0 12 b4 3f 3f 2a 77 ac 3e
       1.276851 -2.13918 0.7488414 0.33684665
000240 86 35 cc 3e 0f 73 25 c0 ff 8d 14 c0 9b b0 1f c0
       0.39884585 -2.5851476 -2.3211668 -2.4951541
000250 98 c6 22 3f 6f 23 18 c0 8f 8b 29 c0 e3 e5 1d c0
       0.6358428 -2.3771627 -2.649143 -2.4671562
000260 63 2f 2a c0 57 d9 2b c0 5a 85 d9 3e 25 dd 1b 3f
       -2.6591423 -2.6851404 0.42484552 0.60884315
000270 00 eb 1a bf bb 85 18 c0 af f1 09 3f 3e a0 88 3e
       -0.6051483 -2.3831623 0.53884405 0.26684755
000280 df 1a 2c c0 48 3d 41 3f d1 5f d4 bf 68 6e 49 3f
       -2.68914 0.7548413 -1.6591741 0.7868409
000290 ef 0a 14 c0 bb e7 28 c0 d3 00 0d c0 c6 0e 9b 3e
       -2.3131673 -2.6391437 -2.2031753 0.3028471
0002a0 2e d5 e6 3e 13 5a 1b 3f 3e 29 ca 3e ff ef 24 c0
       0.45084518 0.6068432 0.3948459 -2.5771482
0002b0 82 60 d3 3e 2f 17 16 c0 a3 3b 2c c0 eb 3f 22 c0
       0.41284567 -2.345165 -2.69114 -2.5351512
0002c0 37 d3 2a c0 ea 14 9c 3e fb f3 2a c0 7b 97 25 3f
       -2.6691415 0.30484706 -2.6711414 0.64684266
0002d0 67 5c 2c c0 ff ef 24 c0 f3 99 26 c0 03 ec 1e c0
       -2.6931398 -2.5771482 -2.6031463 -2.483155
0002e0 47 56 2b c0 83 d3 1a c0 43 f8 20 c0 85 c0 f9 bf
       -2.677141 -2.4191597 -2.5151527 -1.9511877
0002f0 a2 6f 6e 3e b5 f5 1f 3f 7f a6 18 c0 e6 3f a3 3e
       0.23284772 0.62484294 -2.385162 0.31884688
000300 a9 66 2b c0 df 1a 2c c0 b5 bd a5 3f e3 53 f2 bf
       -2.6781409 -2.68914 1.2948519 -1.893185
000310 cf 97 2b c0 47 92 0a c0 a3 3b 2c c0 b9 ed ef bd
       -2.6811407 -2.165178 -2.69114 -0.11715264
000320 1f 94 15 c0 29 4e 27 c0 13 a0 27 c0 a3 3b 2c c0
       -2.3371656 -2.6141455 -2.6191452 -2.69114
000330 fb f3 2a c0 0d 56 05 3f 9f dd 21 c0 13 0d 0f c0
       -2.6711414 0.5208443 -2.5291517 -2.235173
000340 bd c0 30 bd e3 e5 1d c0 93 b8 2b c0 7b aa 1e c0
       -0.04315256 -2.4671562 -2.6831405 -2.4791553
000350 0f 85 22 3f f7 33 10 c0 a8 95 f1 3e 36 7f d8 3e
       0.6348428 -2.2531717 0.4718449 0.42284554
000360 9f 9d 26 3f 96 12 f1 3e 82 55 17 bf a3 3b 2c c0
       0.6508426 0.47084492 -0.5911485 -2.69114
000370 cb 28 eb bf fe 4f fb 3e 2b 4c 24 c0 cf 97 2b c0
       -1.8371824 0.49084467 -2.567149 -2.6811407
000380 45 0e 24 3f 68 33 e1 3e b1 20 27 3f 63 2f 2a c0
       0.64084274 0.43984532 0.6528426 -2.6591423
000390 a3 a8 13 c0 ca a0 76 3e 4d b8 15 3f 63 10 0f 3f
       -2.3071678 0.24084774 0.58484346 0.5588438
0003a0 8d 1a 26 3f 52 db e7 3e 6f 85 28 c0 7e 8b da 3e
       0.64884263 0.45284516 -2.6331441 0.4268455
0003b0 cb 6a 29 c0 42 fe c2 3e 67 5c 2c c0 c3 10 25 c0
       -2.6471431 0.38084608 -2.6931398 -2.579148
0003c0 f5 35 13 c0 67 5c 2c c0 c7 3d 27 c0 ab a0 07 c0
       -2.3001683 -2.6931398 -2.6131456 -2.1191814
0003d0 a3 3b 2c c0 64 2c c4 be 63 2f 2a c0 1b fa 2b c0
       -2.69114 -0.38315117 -2.6591423 -2.6871402
0003e0 5b d5 25 c0 8e df bd 3e eb 0e 1a c0 93 b8 2b c0
       -2.5911472 0.3708462 -2.4071605 -2.6831405
0003f0 e1 18 29 c0 3f cb 1e c0 47 56 2b c0 fb c2 22 c0
       -2.6421435 -2.4811552 -2.677141 -2.5431507

hidden1_layer.bias_mu f4 [128]
000000 36 6a 81 bf 63 47 48 bf 5e 35 a6 3e 5a 47 57 bf
       -1.0110538 -0.7823393 0.3246259 -0.8409325
000010 53 f9 b6 bc 70 27 80 be 2c b5 9e bf a3 17 4f bf
       -0.022335684 -0.25030088 -1.2399039 -0.8089544
000020 04 59 55 bf 8e 65 c3 bc c9 0c f6 bf 83 08 f4 3c
       -0.8333895 -0.023852136 -1.9222652 0.029789215
000030 fe a9 bf 3e 36 cf 8b bf 90 00 f0 bf 3c ff ef bf
       0.3743438 -1.0922611 -1.8750172 -1.8749766
000040 1e 97 34 be b6 5e 02 c0 1c e6 f9 bf 58 d3 26 3f
       -0.17635772 -2.0370307 -1.9523349 0.65166235
000050 2a 3a f1 bf cd e4 b5 bf 53 f5 32 3f 1d 98 45 bf
       -1.8845875 -1.421045 0.69905585 -0.7718523
000060 8a 60 b1 bf 44 9d bb be 8b 5e 38 3e 70 f7 a2 be
       -1.3857586 -0.36643422 0.18004815 -0.31829405
000070 90 6a 85 bf 8f c1 7b bf 3c 16 d4 3c 93 b8 7c 3f
       -1.0423145 -0.9834222 0.025889508 0.9871914
000080 89 19 0c bf 89 76 04 bf 7c 34 70 bf fa 32 24 be
       -0.54726464 -0.5174337 -0.93830085 -0.16035071
000090 9e f6 e2 be 96 12 16 bf 17 72 47 bf bf 08 7c 3f
       -0.4432878 -0.5862211 -0.7790846 0.98450845
0000a0 4e 94 ea 3e 27 b0 35 3f 12 bd 94 3e a4 c3 5c bf
       0.45816272 0.7097191 0.290505 -0.86236024
0000b0 99 7c 75 be 6c c7 49 bf 77 f2 ef bf a7 c0 7a 3f
       -0.23973311 -0.7881992 -1.8745869 0.97950214
0000c0 c9 02 41 3f 20 9c bf 3e b4 ff a3 3e 08 eb c8 3e
       0.75394875 0.374238 0.32031024 0.39241815
0000d0 07 bc 89 bf ce ba 76 be 85 47 b4 bf 08 53 eb 3e
       -1.0760506 -0.24094698 -1.4084326 0.45961785
0000e0 71 ff 2e 3f 4c 70 87 3e 0d 6c a9 bf 6a 93 b3 be
       0.6835852 0.26452863 -1.32361 -0.35073406
0000f0 1b 75 be bf d8 e3 90 bf fb 1c 4e bf 3e 8f 87 be
       -1.4879488 -1.1319532 -0.8051297 -0.26476473
000100 ae c5 44 3f a2 d3 14 3f f0 c7 e0 bf e5 86 cc bf
       0.76864135 0.58135426 -1.7561016 -1.5978667
000110 36 32 8e 3e 0d 66 e2 bf 39 54 96 bf 8e 4e 48 3e
       0.27772683 -1.7687393 -1.1744453 0.19561216
000120 6a e5 69 be 0e 56 8b 3e ab 19 c3 bf 26 d2 32 3f
       -0.22841421 0.27214092 -1.5242208 0.6985191
000130 b4 e2 da bf 1c 32 3e 3e 0d 90 cb bf 0c 5b 1d 3f
       -1.7100434 0.18573803 -1.5903336 0.6146705
000140 36 f8 34 3c ba 7d 7d bf 52 c7 d8 bf 40 6f 94 bf
       0.011045506 -0.9901997 -1.6935828 -1.1596451
000150 24 3c 83 be 65 d2 e8 bf ea 76 64 3f 2c ab ea be
       -0.2563182 -1.8189207 0.8924395 -0.4583372
000160 36 98 f8 3e 5c a0 85 be 8a 13 15 3f be 2e f5 3e
       0.48553628 -0.26098907 0.5823294 0.47887224
000170 e9 fb 02 c0 bf b7 0a 3f ad 7c 55 bf 7b 6f 44 bf
       -2.0466254 0.54186624 -0.83393365 -0.76732606
000180 1e eb ab bf fa d9 be bf e6 6f fa bf c4 a4 71 bf
       -1.3431127 -1.4910271 -1.9565399 -0.9439204
000190 ab 1a 0d bf 11 97 4a bf 36 14 6c 3d 33 c9 fb bf
       -0.5511882 -0.7913676 0.057636462 -1.9670776
0001a0 f0 e2 a7 3d 1a b6 2a bf da 3e dc bd 39 79 fc bf
       0.08197582 -0.66684115 -0.107541755 -1.9724494
0001b0 19 f1 02 c0 55 14 92 3d 02 be 44 3f 0a b4 ad 3e
       -2.0459654 0.07132784 0.7685243 0.3392642
0001c0 99 46 06 3f 78 13 c4 bf cc 8d 7b bf 0d 1e e8 bf
       0.52451473 -1.5318441 -0.9826324 -1.8134171
0001d0 e1 ba 50 3f 9c 0f fd 3e da 76 e0 3e 56 02 3e 3f
       0.81535155 0.49425972 0.43840677 0.74222314
0001e0 61 cb c4 3c 06 7d a5 be 43 44 f5 bf b0 d1 ca be
       0.02402276 -0.32321948 -1.9161457 -0.39613104
0001f0 32 64 a0 be cf 32 4c 3f 20 36 06 bf 2e f4 29 3f
       -0.31326443 0.7976503 -0.5242634 0.66388214

hidden1_layer.bias_log_sigma f4 [128]
000000 2d 32 64 3e 1b fa 2b c0 56 b0 e0 3e 72 a5 04 bf
       0.22284766 -2.6871402 0.43884534 -0.5181495
000010 03 1a 38 bf d3 cf 04 c0 90 b4 b6 3e 2a dc a3 bf
       -0.7191469 -2.0751846 0.35684633 -1.2801564
000020 1e 4f df be 5b b9 7a 3e c3 10 25 c0 d7 5b de bf
       -0.4361505 0.2448477 -2.579148 -1.7371777
000030 30 f2 80 3e 6d 0b b1 bf 47 56 2b c0 47 56 2b c0
       0.25184774 -1.3831612 -2.677141 -2.677141
000040 57 d9 2b c0 db ed 29 c0 25 8e 0c c0 8f 49 43 3f
       -2.6851404 -2.6551425 -2.1961758 0.76284117
000050 d1 95 28 c0 1b 98 1b c0 df 7e f7 3d a4 dd 92 3e
       -2.634144 -2.4311588 0.120847456 0.28684723
000060 9f 19 01 c0 c7 db 16 c0 e1 a5 12 3f 64 04 c4 3e
       -2.0171888 -2.3571641 0.5728436 0.382846
000070 c1 bf b9 bf 2b f5 31 bf 12 84 1c 3e 0e 4a ba 3e
       -1.4511644 -0.6951472 0.15284756 0.36384624
000080 e3 52 05 c0 e8 ab a9 3d 99 81 1a c0 94 d8 17 bf
       -2.083184 0.08284742 -2.41416 -0.59314847
000090 57 3a 10 3e 5f 84 ba bf db ed 29 c0 12 6e 1b bf
       0.14084755 -1.4571646 -2.6551425 -0.6071483
0000a0 3d e6 81 3f a4 66 d4 3e 5a ad d9 be ff be 1c c0
       1.0148388 0.4148456 -0.4251507 -2.4491575
0000b0 a1 96 12 be a9 1e f4 bf 93 b8 2b c0 55 1b 89 bf
       -0.14315273 -1.9071857 -2.6831405 -1.0711466
0000c0 04 71 ab 3e 97 13 52 be 79 15 0a 3e 46 d3 bb 3e
       0.33484662 -0.20515285 0.13484754 0.36684626
0000d0 61 d8 bd bf f4 23 2a be 5b 17 93 bf c0 71 0c be
       -1.4831659 -0.16615278 -1.1491503 -0.13715267
0000e0 7c 3d 01 3f 4f 93 a5 3d bf 14 2b c0 bb 4d f1 bf
       0.5048444 0.080847375 -2.6731412 -1.8851846
0000f0 24 7a 5d bf d5 c2 2a c0 ff 5c 0c c0 12 7e 57 bc
       -0.86514497 -2.6681416 -2.193176 -0.013152616
000100 95 61 59 bf f5 57 30 3f 8b fc 16 c0 75 30 51 bf
       -0.84914523 0.6888421 -2.359164 -0.81714565
000110 73 07 bb bf 97 83 1d c0 d4 d3 97 bf 1b 04 0d 3f
       -1.4611648 -2.4611566 -1.186152 0.5508439
000120 8f 29 19 c0 c1 fd 4b 3f d7 ff 8c 3d 14 4e d0 3e
       -2.3931615 0.7968407 0.06884735 0.4068457
000130 25 7a 5d bf 7e 59 b6 be 1d 89 f0 bf 25 86 47 3e
       -0.865145 -0.35615152 -1.8791844 0.19484766
000140 c0 c2 e3 3e 11 07 9b bf 1f c5 1d c0 b1 bd 68 bf
       0.4448452 -1.2111531 -2.4651563 -0.90914446
000150 b0 0d bf be 1d c4 cf bf 84 ac 8a 3e 6b f2 8c bf
       -0.3731513 -1.6231724 0.27084744 -1.101148
000160 43 68 48 3f 23 b6 80 3d 9c 5b a1 be 55 63 6c 3e
       0.7828409 0.0628474 -0.31515205 0.23084767
000170 92 d8 cd bf 4f e7 32 3f 0b 77 2b c0 17 cd 29 c0
       -1.6081717 0.698842 -2.6791408 -2.6531427
000180 25 8a 9b bf 5c a9 3a bf 07 4a 29 c0 dd 6d 5b bf
       -1.2151533 -0.7291467 -2.6451433 -0.85714513
000190 cc f2 21 be 37 d3 2a c0 b6 38 3d bf bb c3 af bf
       -0.15815276 -2.6691415 -0.7391466 -1.3731607
0001a0 73 72 02 3d cc 48 ab bf 88 81 83 3e 83 6c f6 bf
       0.03184743 -1.3381591 0.25684762 -1.9251865
0001b0 15 74 c2 bf f5 33 8d bf f6 1c c8 3e d1 23 37 3e
       -1.5191675 -1.1031481 0.39084595 0.17884757
0001c0 ae 10 c6 3e 17 cd 29 c0 ff 9c be bf 5a 24 98 be
       0.386846 -2.6531427 -1.4891661 -0.29715234
0001d0 ba f4 59 3e 51 8d 0e 3f b3 4f 44 3f 47 ed 16 3d
       0.21284762 0.5568438 0.7668411 0.03684738
0001e0 1c 6f 80 3e bd dc d3 bf 84 ac 8a 3e ef c1 c4 bf
       0.2508477 -1.6551739 0.27084744 -1.5371684
0001f0 63 cd 19 c0 02 be 08 bf cf 1d 29 be ef 57 c6 3d
       -2.4031608 -0.5341493 -0.16515277 0.09684741

hidden2_layer.weight_mu f4 [128, 128]
000000 24 16 f1 bf 9e 93 fb bf 1b a4 f5 bf ef c6 e2 bf
       -1.8834882 -1.9654424 -1.9190706 -1.771696
000010 ab 0c f4 bf 85 ae ee bf 15 e9 ed bf b0 45 00 c0
       -1.9066366 -1.8647009 -1.8586756 -2.0042534
000020 70 45 03 c0 72 fd de bf 26 77 f2 bf 4f 97 e2 bf
       -2.0511131 -1.7421095 -1.8942611 -1.7702426
000030 f3 e7 de bf e6 78 e8 bf ae 8b ed bf 6c 3d d8 bf
       -1.7414535 -1.8161895 -1.8558252 -1.6893744
000040 2f 46 e9 bf 84 4d dd bf d8 6b fa bf 25 12 f4 bf
       -1.8224543 -1.7289281 -1.9564161 -1.9068037
000050 57 26 00 c0 de 10 e5 bf 72 48 fe bf 72 63 ef bf
       -2.00234 -1.7895772 -1.9865859 -1.8702223
000060 c7 17 ed bf 1d fb f6 bf e7 b7 da bf bf ef f7 bf
       -1.8522881 -1.9295384 -1.7087373 -1.937004
000070 fc e9 ed bf ee 63 e7 bf ea bb 01 c0 8c 81 e4 bf
       -1.8587031 -1.8077371 -2.0270944 -1.7852035
000080 ad 77 ee bf fa ec f5 bf bc 43 e5 bf 1c da e0 bf
       -1.8630272 -1.9212945 -1.7911296 -1.7566562
000090 30 11 ec bf 63 ce d9 bf b9 92 ea bf 69 5a eb bf
       -1.8442745 -1.7016109 -1.8326026 -1.8386966
0000a0 70 83 df bf fb 90 e5 bf ab 3a e6 bf 49 68 f6 bf
       -1.7461987 -1.793487 -1.7986654 -1.9250575
0000b0 ec 46 f3 bf 51 14 00 c0 0c bc f2 bf d2 39 e5 bf
       -1.9006019 -2.00124 -1.8963637 -1.790827
0000c0 74 61 ec bf 1a f6 f2 bf 34 b3 d7 bf 26 c5 01 c0
       -1.846724 -1.8981354 -1.6851563 -2.027658
0000d0 5d 8d ec bf 6f 79 e5 bf 58 31 f1 bf a8 ac 04 c0
       -1.8480641 -1.7927684 -1.8843184 -2.073038
0000e0 9c b7 db bf 31 9d f7 bf eb e3 e5 bf fb d9 04 c0
       -1.7165408 -1.9344846 -1.796018 -2.0758045
0000f0 3c 16 f7 bf a7 e5 de bf 60 a2 fa bf e0 cd ec bf
       -1.930366 -1.7413834 -1.9580803 -1.8500328
000100 31 ee da bf 8b 8e e4 bf fb 10 e3 bf 24 29 dd bf
       -1.710394 -1.7856001 -1.7739557 -1.727818
000110 ca 65 e5 bf 27 7b ed bf 82 ba f5 bf 41 d9 f5 bf
       -1.7921689 -1.8553208 -1.9197543 -1.9206926
000120 a2 ba fa bf be b9 fa bf 54 23 e0 bf c5 c5 f8 bf
       -1.9588206 -1.9587934 -1.7510781 -1.9435354
000130 3b 7a 02 c0 8b e8 e9 bf 51 77 e8 bf ee 16 e9 bf
       -2.0387104 -1.8274091 -1.8161412 -1.8210123
000140 39 b0 e0 bf bb 0e db bf 5d 86 f1 bf a0 2c f6 bf
       -1.7553779 -1.711387 -1.886913 -1.9232368
000150 9f 40 f5 bf 2f e2 f8 bf 86 d2 00 c0 75 c8 e1 bf
       -1.9160346 -1.9444026 -2.0128493 -1.76393
000160 66 82 fb bf 2c 25 f7 bf 6a 92 e9 bf 0f af e2 bf
       -1.964917 -1.9308219 -1.8247807 -1.7709674
000170 7e 4e 00 c0 57 7a d9 bf a7 f6 e4 bf 00 15 dd bf
       -2.0047908 -1.699046 -1.7887772 -1.7272034
000180 3b 74 e0 bf d4 2c f8 bf bf ea e6 bf 48 e9 d9 bf
       -1.7535471 -1.938868 -1.8040389 -1.7024317
000190 88 0f 01 c0 4c 66 e7 bf 35 1b f1 bf 2a 54 ef bf
       -2.016573 -1.8078094 -1.8836428 -1.869756
0001a0 4f 1f f4 bf 10 81 e6 bf c2 85 d6 bf 80 a0 fa bf
       -1.9072055 -1.8008137 -1.675957 -1.9580231
0001b0 d5 a9 f3 bf e0 d7 e8 bf bf 78 e5 bf 4d 85 f1 bf
       -1.9036204 -1.819088 -1.7927474 -1.8868805
0001c0 51 d9 fd bf 06 40 f4 bf 6e e9 f3 bf 7a 57 fa bf
       -1.9831945 -1.9082038 -1.9055612 -1.9557946
0001d0 a4 f3 e8 bf 07 67 fa bf 0a 9d de bf 55 cf f1 bf
       -1.8199353 -1.9562691 -1.7391675 -1.8891398
0001e0 4f 32 e4 bf 2a 54 f4 bf e5 a1 ff bf 1e 6f f6 bf
       -1.7827853 -1.9088185 -1.9971281 -1.925266
0001f0 8f b7 f0 bf fa 0c f7 bf 59 23 ee bf 0f bf d2 bf
       -1.8806018 -1.9300835 -1.8604537 -1.6464556
000200 35 be d4 bf 97 07 d2 bf 75 52 f0 bf 7f 1d d0 bf
       -1.6620547 -1.6408566 -1.8775164 -1.6259001
000210 78 4f fe bf 69 b1 eb bf ac 66 de bf 15 3a f1 bf
       -1.9868002 -1.8413516 -1.7375083 -1.884585
000220 62 b0 e3 bf 5c f3 e9 bf 86 b6 e2 bf 97 e3 db bf
       -1.7788203 -1.8277392 -1.7711952 -1.717883
000230 c1 18 fc bf 9b d9 cf bf 74 46 e5 bf d6 47 c7 bf
       -1.9695054 -1.6238283 -1.7912126 -1.5568798
000240 d8 2a b1 bf f6 72 e2 bf 66 2b ed bf c2 8d f3 bf
       -1.38412 -1.7691333 -1.8528869 -1.9027636
000250 dc 1e d7 bf 60 86 d6 bf 01 19 f3 bf 1a c8 db bf
       -1.6806293 -1.6759758 -1.8992006 -1.7170441
000260 36 6b f7 bf d4 37 e3 bf 62 fa b9 bf dc e9 ec bf
       -1.9329593 -1.7751412 -1.4529536 -1.8508868
000270 34 0d eb bf 2c 6c e3 bf 84 df de bf be ab c6 bf
       -1.8363404 -1.7767386 -1.7411962 -1.5521162
000280 f7 04 e1 bf d0 db e5 bf 7b 67 d3 bf 05 55 fa bf
       -1.757964 -1.7957706 -1.6515955 -1.9557196
000290 e9 05 d3 bf 28 6d ce bf 27 fe f0 bf 1c 04 ff bf
       -1.6486179 -1.6127062 -1.8827561 -1.9923129
0002a0 d0 ed f8 bf e1 b4 f0 bf 11 ca e6 bf f3 dc ee bf
       -1.9447575 -1.88052 -1.8030416 -1.8661178
0002b0 67 b2 e4 bf 1c 8e d3 bf b7 74 ef bf 59 5a 01 c0
       -1.7866944 -1.6527743 -1.8707494 -2.0211394
0002c0 12 a3 e6 bf cd a3 eb bf 36 3d ec bf 62 ed e9 bf
       -1.8018515 -1.8409363 -1.845618 -1.8275568
0002d0 ce 86 f2 bf 6b 43 dc bf c2 bb 00 c0 c4 5e fc bf
       -1.8947389 -1.7208074 -2.0114598 -1.971642
0002e0 49 63 fc bf 55 64 ee bf a0 fb f3 bf 5f a5 dd bf
       -1.97178 -1.8624369 -1.9061165 -1.7316092
0002f0 28 31 04 c0 c8 fa e2 bf d0 82 e8 bf 35 5e df bf
       -2.0655003 -1.7732782 -1.8164921 -1.7450625
000300 16 44 df bf 6b f3 ea bf fc 92 d6 bf 48 7b e9 bf
       -1.7442653 -1.8355535 -1.6763606 -1.8240747
000310 af 5c e3 bf 4f 07 dd bf 19 7c dc bf 28 c2 eb bf
       -1.776266 -1.7267855 -1.7225372 -1.8418627
000320 1d 16 dd bf 8a e6 d4 bf a8 1d ef bf e8 92 f1 bf
       -1.7272373 -1.6632855 -1.8680925 -1.8872957
000330 2d 1c fc bf 01 25 f7 bf ff 66 cb bf 01 77 fa bf
       -1.9696099 -1.9308168 -1.5890807 -1.9567567
000340 ea 17 ff bf 47 5d d0 bf 02 4b e9 bf c1 c7 eb bf
       -1.9929173 -1.6278466 -1.8226016 -1.8420335
000350 75 fb e5 bf ce 87 db bf cb 8d e1 bf bf 05 e1 bf
       -1.7967364 -1.7150819 -1.7621397 -1.7579879
000360 d5 63 e4 bf e3 ea e7 bf ca 8d e0 bf 32 25 d4 bf
       -1.7842966 -1.8118557 -1.754327 -1.6573851
000370 63 8f f1 bf 2d 0c 05 c0 f1 38 f4 bf 48 be d6 bf
       -1.8871883 -2.0788682 -1.9079877 -1.6776819
000380 f7 13 f1 bf 0c 5b d7 bf 46 15 dd bf 36 2b e7 bf
       -1.8834218 -1.682466 -1.7272117 -1.8060062
000390 7b ac d7 bf 53 27 e1 bf 6b 41 f7 bf 82 56 db bf
       -1.6849512 -1.7590126 -1.9316839 -1.7135775
0003a0 69 42 d9 bf 5b e6 eb bf 19 c5 c2 bf 56 59 cb bf
       -1.6973392 -1.8429674 -1.52164 -1.5886638
0003b0 7a 31 cb bf 64 85 cc bf d0 46 e9 bf 64 70 d3 bf
       -1.5874474 -1.5978208 -1.8224735 -1.6518674
0003c0 11 03 c7 bf b4 a9 e2 bf cb b7 dc bf b8 83 e0 bf
       -1.5547811 -1.7708039 -1.7243589 -1.7540197
0003d0 e4 67 02 c0 de 44 de bf a8 15 c5 bf e5 a1 e0 bf
       -2.037591 -1.7364767 -1.5397234 -1.7549406
0003e0 67 a5 03 c0 1c 9c e9 bf 5f 6f c3 bf 0c 47 e6 bf
       -2.0569704 -1.8250766 -1.5268363 -1.7990432
0003f0 18 ad ec bf b6 31 f7 bf a9 f5 dd bf b8 9b e1 bf
       -1.8490324 -1.9312046 -1.7340595 -1.7625647
