model_stock/dynamic_small_evn_25_lr0.001_2000EP.pth (torch, 356269 bytes, 16 tensors)

input_layer.weight_mu f4 [128, 43]
00000000: 6f9b a63f 6a57 edbf 7724 f3bf c178 ecbf
00000010: 6d8c b23f 403a 08c0 2e82 9fbf ed37 d93c
00000020: 2403 14ba 2d21 e3ba 8067 02c0 2101 82ba
00000030: 847b d339 c4f3 5bba 74ae 4a3a 0ad2 133a
00000040: 35fb 823a a86f 3339 1199 a23f 5d1d 04c0
00000050: 8e7c e5bf 1ee7 06c0 f203 b13f 6a1d 07c0
00000060: 044d 9dbf b367 a8bd a694 9a3e 25f6 243d
00000070: ba0c f3bf 7afe 7eba c46c e5b9 1069 9f38
00000080: 24bc 1a3a fc13 05ba 88a3 08b9 fa0a 473a
00000090: fb0d c33f 0fd3 ecbf 7853 e4bf d25a b73f
000000a0: cf23 00c0 e428 b03f 9148 b83f be2d e13f
000000b0: f092 02c0 d5f7 f9bf da6f f8bf a34b ca3f
000000c0: 8b80 f5bf 1800 d9bf cd31 38be 1f11 c9bc
000000d0: 4e6d 9fbd 3aa6 edbf aadd 43ba 62b4 253a
000000e0: 226a 033a 20ff d3b8 e080 f538 80c3 9537
000000f0: 70ee 3fb9 247b dc3f ef1e 01c0 d0b5 02c0
00000100: 6fec febf 3015 d13f 4ba7 07c0 25d7 ccbf
00000110: 6dd1 26bd 5a6f 9d3e e8b3 f2bd 6e0d 01c0
00000120: 5423 b1b9 e0fd b0ba 9095 1939 8880 6939
00000130: a22a 3e3a c090 42b8 2c65 45ba 94fd c63f
00000140: d1ef ffbf 13ff fabf d787 d03f 35bb f3bf
00000150: 7785 cdbf b1ba ec3f e0f3 d03f 6c00 f1bf
00000160: 4f6c 02c0 8799 05c0 885b d73f ef73 efbf
00000170: 2cf6 c2bf 2aeb 1fbe cc79 afbc 78f7 fabb
00000180: a74d 00c0 3255 3bba 906a 0a39 c047 973a
00000190: 508d bcb8 fa22 10ba f4c3 43ba 9cd1 633a
000001a0: f6ca bb3f 86cf 05c0 1a9a 07c0 3d05 f0bf
000001b0: 1bf5 d33f c25d 00c0 f730 c7bf dec0 b03c
000001c0: 82f0 8c3e 8b9a 5c3d 6347 f3bf 1214 25ba
000001d0: 0028 f835 4007 3fb8 001a a336 4293 783a
000001e0: 54fe c3b9 7484 c239 9a96 c73f 0dba 06c0
000001f0: 03b2 03c0 be60 e73f bde0 fdbf 6329 b23f
00000200: 472d d43f f3ba af3f e6eb f6bf 2e2e fbbf
00000210: 4c8e eebf 8428 c13f 6a94 f9bf 2bbe a4bf
00000220: e3f7 813c 6e0c 953e 776c c13b 31a2 01c0
00000230: 6836 4cb9 7cf9 0eba 346a 733a 4cac 63ba
00000240: d40b d239 6886 f9b9 aa48 083a 0242 be3f
00000250: 4e96 f1bf ec3c debf 6d9d edbf 0a1a ac3f
00000260: 5fcd eebf 5ebb b5bf d862 313b 8c20 b0bc
00000270: 8db5 27bd 556f 03c0 7428 fcb9 e424 9c3a
00000280: e8ee 9739 4982 90ba 4418 523a 823c 50ba
00000290: 3c0e 073a a1ac ac3f 8a85 01c0 d354 e3bf
000002a0: bf4f 92bf 8411 f8bf d89f c9bf be6c de3f
000002b0: 9800 be3f dedd 01c0 cd12 00c0 9388 fabf
000002c0: ae45 c13f bf4d f8bf ccfa b7bf 959b 3fbe
000002d0: e03a 84be 57c0 ac3d fa69 f3bf a2ec 15ba
000002e0: e258 313a a878 ad39 fa4b 363a bd9c a23a
000002f0: 18ca 123a 7452 0eba e048 b93f 1cfc f6bf
00000300: 83c7 f6bf eb60 f4bf 8207 c13f 4f1b efbf
00000310: 405c d1bf 7cc9 f6bd 767c 763e 6f2f 8c3d
00000320: 4aed 05c0 e030 9db8 a040 d138 7806 bfb9
00000330: 2028 9bba b000 0c39 f450 07ba 5013 a1b8
00000340: d5c2 c03f ed38 f0bf 6edd 06c0 2742 cd3f
00000350: 922b 02c0 c655 c9bf 553b b63f 71d4 af3f
00000360: 7e1b fcbf ab14 ddbf b051 ecbf bdf5 903f
00000370: 6576 e7bf 6ecd 9dbf 459e ab3d 4076 41b8
00000380: 4ccf a9ba c2e1 07c0 68cd 8ab9 f4cb 3fba
00000390: d0c3 6a39 a2f9 1d3a e875 d239 80f3 9eb7
000003a0: fc20 633a 1387 b53f 6010 04c0 a910 eabf
000003b0: 7ec4 f7bf a05d a33f e631 f5bf 0a12 9abf
000003c0: e6a8 f1bc 1141 3c3e 210e 873a d46f fcbf
000003d0: 7828 9639 ea54 6a3a 686e d7b9 68c4 04b9
000003e0: c874 97b9 289b 3db9 7473 8c3a 9192 9e3f
000003f0: 8868 01c0 9c0a dbbf b6e0 d23f 5001 fdbf
1.3016185 -1.8542302 -1.8995503 -1.8474351 1.3949105 -2.1285553 -1.2461603 0.026515925
-0.000564622 -0.0017328613 -2.0375671 -0.0009918549 0.00040337082 -0.0008390511 0.0007731684 0.0005638903
0.0009993078 0.00017112365 1.2702962 -2.0642922 -1.7928636 -2.1078563 1.3829329 -2.1111703
-1.2289128 -0.08222904 0.30191535 0.040273804 -1.8988259 -0.0009727251 -0.0004375932 7.60128e-05
0.0005902669 -0.0005076525 -0.00013030891 0.0007592883 1.5238642 -1.850191 -1.7837973 1.4324591
-2.0021856 1.3762479 1.4397146 1.7592084 -2.0402184 -1.9528757 -1.9409134 1.5804332
-1.9179853 -1.6953154 -0.17987747 -0.024544297 -0.0778452 -1.8566353 -0.000747169 0.00063211296
0.00050130684 -0.00010108785 0.00011706515 1.7853221e-05 -0.00018304004 1.722508 -2.017513 -2.042347
-1.9915904 1.6334591 -2.1195858 -1.6003157 -0.040727068 0.30749017 -0.11850721 -2.0164447
-0.00033786392 -0.0013503395 0.00014646933 0.00022268493 0.00072542776 -4.6388013e-05 -0.00075300294 1.5546136
-1.9995061 -1.9609092 1.6291455 -1.9041506 -1.6056355 1.8494474 1.6324425 -1.8828254
-2.0378606 -2.0874956 1.6824808 -1.8707255 -1.5231376 -0.15617052 -0.021420382 -0.007658895
-2.0047395 -0.0007146179 0.00013200403 0.0011541769 -8.99086e-05 -0.0005498376 -0.0007467859 0.0008690597
1.4671314 -2.0907912 -2.1187806 -1.8751599 1.6559175 -2.0057225 -1.5561818 0.021576341
0.27527243 0.05385832 -1.900616 -0.0006297241 1.8489081e-06 -4.55447e-05 4.8608053e-06 0.00094823923
-0.00037382788 0.0003710125 1.5592835 -2.1051056 -2.05774 1.8076398 -1.983421 1.391888
1.6576318 1.3728927 -1.929074 -1.9623468 -1.8637176 1.5090489 -1.9498417 -1.2870535
0.015865272 0.29111046 0.0059028226 -2.0255244 -0.00019475224 -0.0005454046 0.000928554 -0.0008685037
0.00040063134 -0.0004759312 0.0005198816 1.4863894 -1.8873994 -1.7362342 -1.8563668 1.3445446
-1.8656424 -1.4197805 0.0027066972 -0.021499895 -0.040944625 -2.0536702 -0.00048095325 0.001191285
0.00028978963 -0.0011025156 0.000801448 -0.00079435867 0.00051519624 1.3490182 -2.0237756 -1.7760261
-1.1430587 -1.9380345 -1.5751905 1.7376935 1.4843931 -2.0291667 -2.0011475 -1.9572929
1.509939 -1.9398726 -1.4373412 -0.18711694 -0.25826168 0.084351234 -1.9016716 -0.000571916
0.0006765259 0.00033087027 0.00069540704 0.0012406331 0.00055995723 -0.00054291566 1.4475365 -1.9295688
-1.9279636 -1.9092077 1.5080416 -1.8680209 -1.6356277 -0.12050149 0.24070916 0.06844985
-2.092608 -7.495447e-05 9.977934e-05 -0.00036435178 -0.001183752 0.00013351697 -0.0005161904 -7.6806755e-05
1.5059458 -1.8767372 -2.107265 1.6035813 -2.0339093 -1.5729301 1.4236857 1.3736707
-1.969589 -1.7271932 -1.8462429 1.1324993 -1.8083006 -1.2328317 0.08379797 -4.6124915e-05
-0.0012955456 -2.1231542 -0.0002647445 -0.0007316463 0.00022388925 0.0006026273 0.00040142168 -1.8948456e-05
0.0008664278 1.4181846 -2.0634995 -1.8286334 -1.935684 1.2762947 -1.9155853 -1.2036755
-0.029499482 0.18384196 0.0010303893 -1.9721627 0.0002864038 0.0008939045 -0.00041090255 -0.00012661668
-0.00028887973 -0.00018082245 0.001071556 1.2388479 -2.022005 -1.7112613 1.6474826 -1.9766026

input_layer.weight_log_sigma f4 [128, 43]
00000000: 6963 aabf f7c6 28c0 bf14 2bc0 f7c6 28c0
00000010: 8d4b e6bf 0b77 2bc0 a377 0bc0 6b57 42bf
00000020: 5b7a 1dbf 1972 31bf bf14 2bc0 1872 31bf
00000030: 1872 31bf 1872 31bf 1872 31bf 1872 31bf
00000040: 1872 31bf 1872 31bf 96c3 513e 93b8 2bc0
00000050: 616a 333f 93b8 2bc0 831d 94bf 8335 2bc0
00000060: a346 03c0 1872 31bf 1872 31bf 77d6 2cbf
00000070: 57d9 2bc0 1872 31bf 1872 31bf 1872 31bf
00000080: 1872 31bf 1872 31bf 1872 31bf 1872 31bf
00000090: 2f17 16c0 bf14 2bc0 172f 143f 8304 23c0
000000a0: 8570 343f fbc2 22c0 bfe3 22c0 7aaa bdbc
000000b0: bf14 2bc0 d28d 853e d7c0 27c0 ebdd 11c0
000000c0: c779 06c0 d216 c73e 1872 31bf 10c8 3fbf
000000d0: 1872 31bf 0b77 2bc0 1872 31bf 1872 31bf
000000e0: 1872 31bf 1872 31bf 1872 31bf 1872 31bf
000000f0: 1872 31bf 9689 af3e 4756 2bc0 2fb6 2a3f
00000100: 53ac 29c0 bd52 92bf 9f0e 2ac0 57e4 02c0
00000110: 87b3 51bf 1872 31bf 1872 31bf 0b77 2bc0
00000120: 1872 31bf 1872 31bf 1872 31bf 1872 31bf
00000130: 1872 31bf 1872 31bf 1872 31bf 1b98 1bc0
00000140: 17cd 29c0 73b2 2ac0 bbe7 28c0 4756 2bc0
00000150: 8b5e 27c0 9356 1bc0 8a81 833e 93b8 2bc0
00000160: 2437 403f cf97 2bc0 abad d6bf 9049 433f
00000170: db29 09c0 211c 23bf 8c2e 26bf 1872 31bf
00000180: b8ad 7e3f 1872 31bf 1872 31bf 1872 31bf
00000190: 1872 31bf 1872 31bf 1872 31bf 1872 31bf
000001a0: 3acb 8f3e 1bfa 2bc0 df1a 2cc0 9999 103f
000001b0: ca6c d53e 632f 2ac0 9689 af3e 6928 25bf
000001c0: 1872 31bf 1872 31bf a33b 2cc0 1872 31bf
000001d0: 1872 31bf 1872 31bf 1872 31bf 1872 31bf
000001e0: 1872 31bf 1872 31bf 9c19 603e 675c 2cc0
000001f0: 8731 25c0 57d9 2bc0 3fcb 1ec0 57d9 2bc0
00000200: fb2f 0ac0 0671 ab3e b38d 24c0 e1a5 123f
00000210: f92c 293f 43c7 18c0 3ffc 26c0 1b05 03c0
00000220: 9fb1 26bf 173e 84bf 1872 31bf 4756 2bc0
00000230: 1872 31bf 1872 31bf 1872 31bf 1872 31bf
00000240: 1872 31bf 1872 31bf 1872 31bf 9e33 a13e
00000250: aca5 523f 7247 583f bf14 2bc0 0faf 04c0
00000260: 0b77 2bc0 4e7d ad3e 1872 31bf 7301 34bf
00000270: 1972 31bf a6a1 3c3f 1872 31bf 1872 31bf
00000280: 1872 31bf 1872 31bf 1872 31bf 1872 31bf
00000290: 1872 31bf e1ff eebf 73b2 2ac0 a976 353f
000002a0: 63cd 19c0 0b77 2bc0 2f79 26c0 9f0e 2ac0
000002b0: 0801 5c3e e088 783f 97b4 25c0 2323 28c0
000002c0: f3d6 a8bb e832 6a3f 8635 cc3e 8859 2dbf
000002d0: e6bd 28bf 1872 31bf a33b 2cc0 1872 31bf
000002e0: 1872 31bf 1872 31bf 1872 31bf 1872 31bf
000002f0: 1872 31bf 1872 31bf 4f6e e1bf 8335 2bc0
00000300: 2323 28c0 8335 2bc0 9752 15c0 d393 25c0
00000310: 7f44 08c0 1972 31bf 8c2e 26bf d065 2fbf
00000320: df1a 2cc0 1872 31bf 1872 31bf 1872 31bf
00000330: 1872 31bf 1872 31bf 1872 31bf 1872 31bf
00000340: de95 b13e 37d3 2ac0 7bdb 26c0 1bfa 2bc0
00000350: 57d9 2bc0 dbed 29c0 b7ba 26c0 7d69 6d3e
00000360: b9e9 2bc0 53e9 3d3f e545 2bc0 fa0f d7bf
00000370: 695a 29c0 a544 00c0 9534 47bf 35a1 2ebf
00000380: a1b3 31bf ee52 a2bf 1872 31bf 1872 31bf
00000390: 1872 31bf 1872 31bf 1872 31bf 1872 31bf
000003a0: 1872 31bf feda 863d 31a8 2bc0 9dae 1cc0
000003b0: 2125 2bc0 7887 c43e d6f9 153f 2683 ffbf
000003c0: 8f30 31bf 0dc6 34bf f86d 3bbf 900e db3e
000003d0: 1872 31bf 1872 31bf 1872 31bf 1872 31bf
000003e0: 1872 31bf 1872 31bf 1872 31bf c6d0 af3d
000003f0: 9ddf 24c0 8106 26c0 6d56 23c0 adcf 0cc0
-1.3311588 -2.6371439 -2.6731412 -2.6371439 -1.7991806 -2.6791408 -2.179177 -0.7591464
-0.61514825 -0.69314724 -2.6731412 -0.6931472 -0.6931472 -0.6931472 -0.6931472 -0.6931472
-0.6931472 -0.6931472 0.20484766 -2.6831405 0.70084196 -2.6831405 -1.1571506 -2.675141
-2.0511863 -0.6931472 -0.6931472 -0.6751475 -2.6851404 -0.6931472 -0.6931472 -0.6931472
-0.6931472 -0.6931472 -0.6931472 -0.6931472 -2.345165 -2.6731412 0.57884353 -2.5471504
0.7048419 -2.5431507 -2.5451505 -0.023152579 -2.6731412 0.26084763 -2.621145 -2.2791698
-2.1011827 0.38884598 -0.6931472 -0.74914646 -0.6931472 -2.6791408 -0.6931472 -0.6931472
-0.6931472 -0.6931472 -0.6931472 -0.6931472 -0.6931472 0.34284657 -2.677141 0.6668424
-2.6511428 -1.14315 -2.6571424 -2.0451868 -0.8191456 -0.6931472 -0.6931472 -2.6791408
-0.6931472 -0.6931472 -0.6931472 -0.6931472 -0.6931472 -0.6931472 -0.6931472 -2.4311588
-2.6531427 -2.6671417 -2.6391437 -2.677141 -2.6151454 -2.427159 0.25684768 -2.6831405
0.7508414 -2.6811407 -1.6771749 0.7628412 -2.1431797 -0.63714796 -0.64914775 -0.6931472
0.99483824 -0.6931472 -0.6931472 -0.6931472 -0.6931472 -0.6931472 -0.6931472 -0.6931472
0.28084737 -2.6871402 -2.68914 0.5648437 0.41684562 -2.6591423 0.34284657 -0.64514786
-0.6931472 -0.6931472 -2.69114 -0.6931472 -0.6931472 -0.6931472 -0.6931472 -0.6931472
-0.6931472 -0.6931472 0.21884769 -2.6931398 -2.581148 -2.6851404 -2.4811552 -2.6851404
-2.1591785 0.33484668 -2.5711486 0.5728436 0.6608425 -2.387162 -2.6091459 -2.0471866
-0.6511478 -1.0331448 -0.6931472 -2.677141 -0.6931472 -0.6931472 -0.6931472 -0.6931472
-0.6931472 -0.6931472 -0.6931472 0.31484693 0.82284045 0.84484017 -2.6731412 -2.0731847
-2.6791408 0.33884662 -0.6931472 -0.7031471 -0.69314724 0.73684156 -0.6931472 -0.6931472
-0.6931472 -0.6931472 -0.6931472 -0.6931472 -0.6931472 -1.8671838 -2.6671417 0.70884186
-2.4031608 -2.6791408 -2.6011465 -2.6571424 0.21484768 0.97083855 -2.5891473 -2.6271446
-0.005152577 0.91483927 0.39884585 -0.6771474 -0.6591476 -0.6931472 -2.69114 -0.6931472
-0.6931472 -0.6931472 -0.6931472 -0.6931472 -0.6931472 -0.6931472 -1.7611789 -2.675141
-2.6271446 -2.675141 -2.333166 -2.5871475 -2.1291807 -0.69314724 -0.64914775 -0.6851473
-2.68914 -0.6931472 -0.6931472 -0.6931472 -0.6931472 -0.6931472 -0.6931472 -0.6931472
0.34684652 -2.6691415 -2.607146 -2.6871402 -2.6851404 -2.6551425 -2.6051462 0.23184772
-2.6861403 0.7418415 -2.676141 -1.6801751 -2.6461432 -2.0041897 -0.7781461 -0.6821473
-0.69414717 -1.2681558 -0.6931472 -0.6931472 -0.6931472 -0.6931472 -0.6931472 -0.6931472
-0.6931472 0.06584738 -2.6821406 -2.4481575 -2.6741412 0.38384604 0.58584344 -1.9961898
-0.6921472 -0.706147 -0.73214674 0.42784548 -0.6931472 -0.6931472 -0.6931472 -0.6931472
-0.6931472 -0.6931472 -0.6931472 0.08584742 -2.5761483 -2.594147 -2.55215 -2.2001755

input_layer.bias_mu f4 [128]
00000000: ae6b 03c0 34fb eebf 2ef1 ecbf 9f94 f6bf
00000010: 296c fbbf da57 06c0 af11 00c0 0e02 f4bf
00000020: 23a5 04c0 8fac 01c0 9f11 07c0 9621 edbf
00000030: 0010 f7bf 3633 06c0 49ab f6bf be18 ffbf
00000040: 7bbe 03c0 cb2d eabf 2683 04c0 1e3c 06c0
00000050: 511c fcbf d50a 01c0 d028 fcbf bdb8 07c0
00000060: 796e 06c0 86d5 05c0 c572 06c0 fd37 edbf
00000070: 7cba fabf 5ee7 fabf 1626 f5bf dc67 f4bf
00000080: bde3 f2bf 8f21 ffbf 70f8 eebf b062 f6bf
00000090: c75e edbf dafe febf 2a7f 06c0 f6c9 f4bf
000000a0: 47bd f2bf 855d f5bf d304 01c0 844a 01c0
000000b0: 84c4 04c0 df9e efbf de55 f8bf 90f0 03c0
000000c0: 28ee 06c0 4fc7 eebf 4a85 07c0 89ed eebf
000000d0: c373 06c0 5ff6 ffbf 8c1b fabf bd71 08c0
000000e0: 5386 05c0 0810 f5bf 3a48 05c0 715d e9bf
000000f0: caa5 03c0 1bb4 f2bf 70e1 06c0 222e 05c0
00000100: d978 ebbf e319 03c0 0bbc 05c0 0b7e 05c0
00000110: 0a2c f7bf 8653 efbf 532e efbf ad41 08c0
00000120: 4f82 edbf b4f4 02c0 a6be febf 91f6 00c0
00000130: 6785 f8bf d102 e8bf ac99 06c0 fe45 fabf
00000140: 5151 f4bf 03a8 e9bf 7dd5 04c0 97f2 f1bf
00000150: c134 02c0 de44 08c0 2494 eebf d68d f6bf
00000160: 9ec2 06c0 9abe 06c0 57e7 ffbf 6d25 01c0
00000170: 3604 07c0 1afa eebf 15a8 07c0 20bf 06c0
00000180: 3e87 fcbf a005 ecbf c84c fbbf 95ac 01c0
00000190: ab4b eabf c9b5 ecbf 21f4 03c0 e536 f6bf
000001a0: 8f84 03c0 30c2 f6bf b418 07c0 8483 dbbf
000001b0: c4c6 f9bf c88f ffbf fe01 ecbf b60f 01c0
000001c0: 8f65 f9bf b190 e5bf 3b64 ecbf e6da fdbf
000001d0: d895 07c0 e498 eabf ef54 f5bf 1cde ffbf
000001e0: 4edf 02c0 5b55 05c0 bb43 f2bf fa1d 00c0
000001f0: 1539 04c0 44ae ecbf c49d f7bf b350 fcbf
-2.0534472 -1.8670411 -1.8511102 -1.9264106 -1.9642383 -2.099112 -2.0010793 -1.9063127
-2.0725791 -2.0261571 -2.1104505 -1.8525875 -1.9301758 -2.0968757 -1.9271022 -1.9929426
-2.058501 -1.8295225 -2.0705047 -2.0974193 -1.9696141 -2.0162861 -1.9699955 -2.1206505
-2.1004927 -2.0911574 -2.100755 -1.8532711 -1.958816 -1.9601858 -1.9152248 -1.9094195
-1.897575 -1.9932116 -1.8669567 -1.9248867 -1.8544549 -1.9921525 -2.1015115 -1.9124134
-1.8964013 -1.9169165 -2.0159194 -2.020173 -2.0744944 -1.8720359 -1.9401205 -2.0615578
-2.108286 -1.8654574 -2.1175103 -1.866624 -2.1008155 -1.9997061 -1.9539657 -2.131942
-2.0863235 -1.9145517 -2.0825334 -1.8231641 -2.056994 -1.8961214 -2.1075096 -2.0809407
-1.8396255 -2.048455 -2.0896022 -2.085818 -1.9310315 -1.8697364 -1.8686012 -2.1290085
-1.8555392 -2.0461855 -1.9901931 -2.0150492 -1.9415711 -1.812586 -2.1031294 -1.955261
-1.9087316 -1.8254398 -2.0755303 -1.8902158 -2.0344698 -2.1292033 -1.8638959 -1.9262035
-2.1056285 -2.1053834 -1.9992474 -2.0179093 -2.109632 -1.8670075 -2.119634 -2.1054153
-1.9728773 -1.8439217 -1.9632807 -2.0261586 -1.8304342 -1.8492976 -2.0617754 -1.9235502
-2.0549657 -1.9278011 -2.1108828 -1.714951 -1.9513783 -1.9965754 -1.8438108 -2.016584
-1.9484118 -1.7934781 -1.8468088 -1.9832428 -2.1185207 -1.8327909 -1.9166545 -1.9989657
-2.0448794 -2.0833347 -1.892692 -2.0018296 -2.065984 -1.8490682 -1.9345021 -1.9712127

input_layer.bias_log_sigma f4 [128]
00000000: b5f5 1f3f 33a6 28c0 37d3 2ac0 bf14 2bc0
00000010: bf14 2bc0 679b 5b3f b9e9 2bc0 7c6a 133f
00000020: eb70 2ac0 8f8b 29c0 fbf3 2ac0 8335 2bc0
00000030: bf14 2bc0 fbf3 2ac0 a966 2bc0 73b2 2ac0
00000040: 8335 2bc0 0b77 2bc0 e743 28c0 a976 353f
00000050: 0225 f43e 2750 2ac0 639c 11c0 4329 29c0
00000060: 1bfa 2bc0 53ac 29c0 91ef 1e3f 2750 2ac0
00000070: 1bfa 2bc0 57d9 2bc0 55aa 26c0 bfe3 22c0
00000080: 3ffc 26c0 8335 2bc0 632f 2ac0 57d9 2bc0
00000090: 93b8 2bc0 17cd 29c0 a966 2bc0 cf97 2bc0
000000a0: 35a4 25c0 eb70 2ac0 e545 2bc0 4756 2bc0
000000b0: e3e5 1dc0 4756 2bc0 57d9 2bc0 37d3 2ac0
000000c0: 6d87 2bc0 f9c4 25c0 cf97 2bc0 632f 2ac0
000000d0: 4756 2bc0 2323 28c0 2323 28c0 fe4f fb3e
000000e0: 9049 433f cf97 2bc0 df1a 2cc0 0f73 25c0
000000f0: cf97 2bc0 0f73 25c0 df1a 2cc0 b9e9 2bc0
00000100: 4329 29c0 af60 22c0 074a 29c0 d3f7 0a3f
00000110: 031d 27c0 df1a 2cc0 7f08 29c0 bf14 2bc0
00000120: 1ff6 25c0 1ae7 723f 93b8 2bc0 d5c2 2ac0
00000130: b5bc 29c0 8f8b 29c0 cf97 2bc0 fbf3 2ac0
00000140: cf97 2bc0 1bfa 2bc0 8335 2bc0 2750 2ac0
00000150: 07db 303f a30a 24c0 53ac 29c0 ba53 5a3f
00000160: 31a8 2bc0 57d9 2bc0 796f 833f 4329 29c0
00000170: 1bfa 2bc0 8335 2bc0 25f0 1cc0 8335 2bc0
00000180: 5d04 2bc0 2062 473f e8e0 d9bf 93b8 2bc0
00000190: bf14 2bc0 675c 2cc0 ef6c 24c0 7ec6 423f
000001a0: 2f79 26c0 b07a 4b3f cd68 26c0 2b4c 24c0
000001b0: fbf3 2ac0 8960 2ac0 d9be 24c0 9f0e 2ac0
000001c0: 4756 2bc0 31a8 2bc0 b5bc 29c0 b5bc 29c0
000001d0: bf14 2bc0 c73d 27c0 a33b 2cc0 8f8b 29c0
000001e0: 4756 2bc0 ef6c 24c0 d195 28c0 4d81 2ac0
000001f0: 57d9 2bc0 93b8 2bc0 e75f 7c3f fbf3 2ac0
0.62484294 -2.635144 -2.6691415 -2.6731412 -2.6731412 0.85784 -2.6861403 0.5758436
-2.663142 -2.649143 -2.6711414 -2.675141 -2.6731412 -2.6711414 -2.6781409 -2.6671417
-2.675141 -2.6791408 -2.6291444 0.70884186 0.47684485 -2.661142 -2.27517 -2.6431434
-2.6871402 -2.6511428 0.620843 -2.661142 -2.6871402 -2.6851404 -2.6041462 -2.5451505
-2.6091459 -2.675141 -2.6591423 -2.6851404 -2.6831405 -2.6531427 -2.6781409 -2.6811407
-2.5881474 -2.663142 -2.676141 -2.677141 -2.4671562 -2.677141 -2.6851404 -2.6691415
-2.6801407 -2.5901473 -2.6811407 -2.6591423 -2.677141 -2.6271446 -2.6271446 0.49084467
0.7628412 -2.6811407 -2.68914 -2.5851476 -2.6811407 -2.5851476 -2.68914 -2.6861403
-2.6431434 -2.537151 -2.6451433 0.542844 -2.6111457 -2.68914 -2.6411436 -2.6731412
-2.593147 0.94883883 -2.6831405 -2.6681416 -2.6521428 -2.649143 -2.6811407 -2.6711414
-2.6811407 -2.6871402 -2.675141 -2.661142 0.6908421 -2.5631492 -2.6511428 0.85284007
-2.6821406 -2.6851404 1.0268394 -2.6431434 -2.6871402 -2.675141 -2.4521573 -2.675141
-2.6721413 0.778841 -1.7021761 -2.6831405 -2.6731412 -2.6931398 -2.5691488 0.76084125
-2.6011465 0.7948408 -2.6001465 -2.567149 -2.6711414 -2.662142 -2.5741484 -2.6571424
-2.677141 -2.6821406 -2.6521428 -2.6521428 -2.6731412 -2.6131456 -2.69114 -2.649143
-2.677141 -2.5691488 -2.634144 -2.664142 -2.6851404 -2.6831405 0.98583835 -2.6711414

hidden1_layer.weight_mu f4 [128, 128]
00000000: 9b4f dbbf 3bf8 04c0 2233 efbf 2bc9 f4bf
00000010: b408 e7bf c879 f5bf 47a6 f0bf 6120 01c0
00000020: e1f7 e3bf 649f edbf c1df fdbf 6807 efbf
00000030: 1141 cbbf 7e72 e0bf 23b7 f8bf 90fb a5bf
00000040: eec3 f3bf f860 e6bf 5024 c5bf 16aa ddbf
00000050: be7b e3bf caea c7bf eca4 ecbf 671b f6bf
00000060: eec2 febf ef70 eebf d57e 00c0 2422 03c0
00000070: 42c8 e2bf e589 efbf 92ca f5bf a2e4 e3bf
00000080: 644e f9bf 3827 e3bf c669 d6bf 24a4 00c0
00000090: b543 debf fb15 ecbf ec43 e2bf c540 e3bf
000000a0: f25b 96bf 776c f1bf f2a0 00c0 7c74 ecbf
000000b0: b02d d4bf 0d1f dfbf 2a08 f1bf 0711 efbf
000000c0: 9646 f6bf 59d1 00c0 d26a e2bf 1ea9 f9bf
000000d0: 8dd4 f9bf 877f f0bf c862 ecbf aac7 f7bf
000000e0: 6fc5 f0bf ae4c e3bf 2a05 e8bf a26a 03c0
000000f0: 86de eabf 5f5e 02c0 50e9 e0bf 4458 f2bf
00000100: 6c5e a63f eb68 dbbf 2675 fabf 8d91 e6bf
00000110: 60e1 02c0 7a75 f2bf 8824 f6bf c766 f6bf
00000120: 3e20 d0bf c2b3 00c0 f915 f6bf 59ac 803f
00000130: 30f1 e5bf 3938 d5bf ee40 e8bf b4ab ebbf
00000140: 6cf2 dabf 8834 02c0 43aa ecbf 612b e9bf
00000150: 0b91 fbbf 4a29 d9bf f599 00c0 8bbd e0bf
00000160: f4c5 01c0 2099 f9bf 4385 f0bf d8f6 ddbf
00000170: 4c27 eebf f902 f5bf b3f9 e4bf 7682 f9bf
00000180: 8df1 dbbf faa2 f9bf 4f02 edbf ba99 f6bf
00000190: 52a7 f2bf 9ccc 01c0 c828 b8bf d878 ccbf
000001a0: bc5f e6bf 663f eabf 13d8 f4bf 04e2 f0bf
000001b0: 17ce fabf dd5d 01c0 fc47 fabf e901 f2bf
000001c0: db17 02c0 6a71 dcbf d4fb dcbf 8f7d e5bf
000001d0: 416b eabf 93d9 cebf 8af3 e5bf 3b11 00c0
000001e0: 4bad cdbf 3cbc e1bf a61f ebbf e2f5 f1bf
000001f0: 5f86 f7bf dfbb debf 9e53 f7bf 3f64 e6bf
00000200: 220a f0bf 93ab fabf 9db0 e0bf 00c3 d9bf
00000210: d826 f6bf f21b debf 4dad febf 26bb e3bf
00000220: 7c1d f1bf 9f94 d3bf 3523 ebbf 3d85 e7bf
00000230: ec38 d6bf e7bc e7bf e7b4 01c0 1fd4 b5bf
00000240: af69 ebbf 71af e7bf d8f5 cfbf 83e9 eebf
00000250: aabe ecbf 31f1 dabf 042d fcbf a12e f4bf
00000260: 41b0 04c0 ca0c e1bf ef9a e2bf 660b fdbf
00000270: 994a f5bf 0a04 f1bf 9c2c f9bf 7991 f5bf
00000280: 8dd2 01c0 a64b ccbf 9fd4 e8bf ed94 f3bf
00000290: 1588 e3bf 9409 ba3f fd41 c5bf d856 f4bf
000002a0: 511b dabf adbc d7bf ec8c edbf f989 debf
000002b0: 4847 b9bf c3d7 eabf 552d e9bf 5c1e f5bf
000002c0: a965 dfbf 6561 fdbf 0539 f4bf ddcc ffbf
000002d0: 1aae f4bf 7eaa f5bf 8380 d1bf 521e f1bf
000002e0: 8cbd f5bf cad6 e7bf cacc d4bf 71c9 f9bf
000002f0: d74f 98bf 306f f5bf ea5e e0bf 892a 05c0
00000300: 82d0 e4bf a6a1 e3bf d0ee e1bf af92 ebbf
00000310: 61e0 debf c477 cbbf 217c ecbf 561a f8bf
00000320: d0c5 dfbf d28c f2bf 233e e6bf 33ec dbbf
00000330: 14bc e1bf c728 f1bf 6c20 f6bf 0369 e6bf
00000340: a45c c5bf 2cfc ebbf 0026 e2bf d3ad f4bf
00000350: 17d2 d3bf 1bc6 e8bf 033f e7bf ebb1 f1bf
00000360: f4fd c5bf 3e77 f4bf 9971 e9bf 7206 fcbf
00000370: b91a f3bf 638d f7bf 4033 f5bf fdf5 e5bf
00000380: 9c47 eebf 798e dabf 7754 d8bf 2b13 dabf
00000390: 8b30 b7bf 313a e4bf 7427 e8bf 45f3 f2bf
000003a0: 7dbf e6bf 9385 d4bf 0f88 cdbf e3f5 f2bf
000003b0: bf23 f0bf a090 f0bf 2f1a f1bf 1c27 dfbf
000003c0: ca3e f5bf 289d edbf f258 debf b9a9 f0bf
000003d0: b47c febf cdf4 e3bf 38c8 dcbf 5d3e ffbf
000003e0: 0d3f eebf 89b1 e1bf 808d ebbf 1a94 eabf
000003f0: db3c e2bf f7ca fbbf 9048 f8bf fe46 e1bf
-1.7133669 -2.0776508 -1.868748 -1.9123892 -1.8049531 -1.917779 -1.8800744 -2.0176013
-1.7810022 -1.8564267 -1.9833909 -1.8674135 -1.5879232 -1.753494 -1.9430889 -1.2967396
-1.9044168 -1.7998343 -1.5401707 -1.7317531 -1.7772138 -1.5618527 -1.848783 -1.9227113
-1.9903238 -1.8628215 -2.0077412 -2.0489588 -1.7717364 -1.8713957 -1.9202445 -1.7804148
-1.9477048 -1.7746344 -1.675103 -2.0100183 -1.7364413 -1.8444208 -1.7676978 -1.7754141
-1.174681 -1.8861226 -2.0098233 -1.8473048 -1.6576443 -1.7431351 -1.8830616 -1.8677071
-1.9240291 -2.0127776 -1.7688849 -1.9504735 -1.951799 -1.8788918 -1.8467646 -1.9357808
-1.8810252 -1.7757776 -1.8126576 -2.0533834 -1.8349159 -2.03701 -1.7571201 -1.8933187
1.2997565 -1.7141393 -1.9567001 -1.8013169 -2.0450058 -1.8942101 -1.9229898 -1.9250115
-1.625984 -2.0109715 -1.9225456 1.0052596 -1.796423 -1.6657783 -1.8144815 -1.8411775
-1.7105231 -2.0344563 -1.848946 -1.8216363 -1.9653639 -1.6965725 -2.0093968 -1.7557844
-2.027707 -1.9499855 -1.8790668 -1.7340956 -1.8605742 -1.9141532 -1.7888702 -1.9492939
-1.718309 -1.9502861 -1.851633 -1.9265664 -1.8957312 -2.0281134 -1.4387445 -1.5974379
-1.7997966 -1.8300598 -1.9128441 -1.8818974 -1.9594144 -2.021354 -1.9553218 -1.8906833
-2.032706 -1.7222111 -1.7264352 -1.7928942 -1.8313981 -1.6160148 -1.7964947 -2.0010517
-1.606851 -1.763557 -1.8369033 -1.8903162 -1.9337882 -1.7401084 -1.9322393 -1.7999343
-1.8753092 -1.958361 -1.7553898 -1.7012634 -1.9230604 -1.7352278 -1.9896637 -1.7791488
-1.8837123 -1.652973 -1.8370119 -1.8087536 -1.6736121 -1.8104523 -2.0266664 -1.4205359
-1.8391627 -1.8100415 -1.62469 -1.8665012 -1.8495686 -1.7104856 -1.9701238 -1.907673
-2.0732577 -1.7582028 -1.7703532 -1.9769104 -1.916339 -1.8829358 -1.9466739 -1.918502
-2.028476 -1.5960586 -1.8189887 -1.9029824 -1.7775904 1.4534173 -1.5410763 -1.9089003
-1.7039586 -1.6854454 -1.8558631 -1.7385856 -1.4474878 -1.8347095 -1.8216959 -1.914989
-1.7452899 -1.9795347 -1.9079901 -1.9984394 -1.9115632 -1.9192655 -1.6367344 -1.8837378
-1.919847 -1.8112423 -1.6624997 -1.95146 -1.1899365 -1.9174557 -1.7528965 -2.0807211
-1.7876132 -1.7783706 -1.7651005 -1.8404139 -1.7412225 -1.5895925 -1.8475381 -1.9383037
-1.7482243 -1.8949225 -1.7987713 -1.7181457 -1.7635522 -1.8840569 -1.9228644 -1.8000797
-1.5418897 -1.8436332 -1.7667847 -1.9115547 -1.6548489 -1.8185457 -1.8066105 -1.8882421
-1.5468125 -1.909889 -1.8237792 -1.9689467 -1.899253 -1.9340023 -1.9156265 -1.7965695
-1.8615603 -1.7074729 -1.6900777 -1.70371 -1.4311689 -1.7830259 -1.813704 -1.898049
-1.8027188 -1.6603264 -1.6057147 -1.8981289 -1.8760909 -1.8794136 -1.8836116 -1.743381
-1.9159787 -1.8563585 -1.7370894 -1.8801795 -1.9881806 -1.7809082 -1.7248602 -1.9940907
-1.8612992 -1.7632304 -1.8402557 -1.8326447 -1.7674822 -1.9671315 -1.9397144 -1.759979

hidden1_layer.weight_log_sigma f4 [128, 128]
00000000: 56b0 e03e a33b 2cc0 2e4c a53e 93b8 2bc0
00000010: df1a 2cc0 7350 1ac0 2e4c a53e 7968 083f
00000020: ef6c 24c0 0b77 2bc0 a747 183f dbed 29c0
00000030: 8e68 ff3e 2bea 13c0 1bfa 2bc0 ebac 09c0
00000040: 57d9 2bc0 0b46 23c0 ba8f b03e af91 2ac0
00000050: df1a 2cc0 9c19 603e dbed 29c0 df1a 2cc0
00000060: bf14 2bc0 5f0e fcbf a33b 2cc0 bd9f 113f
00000070: cb6a 29c0 4756 2bc0 fbf3 2ac0 3f0a 0e3f
00000080: 1bfa 2bc0 05ac 133f 653f 2c3f 91ef 1e3f
00000090: 49e3 1c3f 8731 25c0 17cd 29c0 df1a 2cc0
000000a0: 9bc8 2d3f beed ea3e 159e 24c0 4756 2bc0
000000b0: 23c1 17c0 b35c 1cc0 df1a 2cc0 bf50 0ac0
000000c0: df1a 2cc0 f399 26c0 07e8 18c0 0b77 2bc0
000000d0: 7ec6 423f 57d9 2bc0 63fe 21c0 4756 2bc0
000000e0: 0acf e53e 4756 2bc0 eead 3e3f 5f02 28c0
000000f0: ddd0 193f 8945 2d3f 0b46 23c0 73b2 2ac0
00000100: 8e68 ff3e 6f54 20c0 675c 2cc0 12b4 3f3f
00000110: 7593 0f3f 1fd9 053f 4a31 f63e 7018 3b3f
00000120: 22cd ba3e 2d87 0d3f 9f0e 2ac0 cc12 b13e
00000130: eead 3e3f 338b 233f 8945 2d3f 2750 2ac0
00000140: a33b 2cc0 675c 2cc0 4756 2bc0 77ae 24c0
00000150: c239 a23e 4a31 f63e 4725 23c0 df1a 2cc0
00000160: 4756 2bc0 7f6c 1e3f 0b77 2bc0 4756 2bc0
00000170: af91 2ac0 af91 2ac0 1bfa 2bc0 9be1 27c0
00000180: 534a 19c0 135a 1b3f 0ea4 de3e f328 133f
00000190: b9ca 183f 0be4 12c0 e3b4 15c0 777d 1cc0
000001a0: b5f5 1f3f aff1 093f 8153 d2bf 2ed5 e63e
000001b0: a33b 2cc0 bd9f 113f b758 16c0 c549 033f
000001c0: 8f8b 29c0 af60 22c0 7897 fb3d 1a23 c93e
000001d0: 1bfa 2bc0 dfe9 23c0 e3b4 15c0 d7c0 27c0
000001e0: 93b8 2bc0 483d 413f 73b2 2ac0 d3f7 0a3f
000001f0: 5b11 05c0 b7ba 26c0 7ec6 423f cfd3 0ac0
00000200: 97b4 25c0 dbed 29c0 9f9d 263f b3c6 023f
00000210: db8b 19c0 011f 2ac0 d133 18c0 9189 26c0
00000220: 280c 393f cf04 13c0 675c 2cc0 aff1 093f
00000230: fbf3 2ac0 4139 2b3f ce41 ce3e b789 1ec0
00000240: 2323 28c0 5e68 283f 53ac 29c0 0be4 12c0
00000250: e712 20c0 338b 233f a33b 2cc0 2bb9 0bc0
00000260: dbed 29c0 d75b debf 7f08 29c0 eb3f 22c0
00000270: 8f8b 29c0 cf97 2bc0 412b 2cc0 675c 2cc0
00000280: 1bfa 2bc0 f247 cf3e c52c e1bf aff1 093f
00000290: 9752 15c0 8153 d2bf d0e7 a93e c70c 1fc0
000002a0: 476a 533f ceb8 8c3e 6ae7 123f 8b5e 27c0
000002b0: a377 0bc0 5216 503f 17cd 29c0 e83c 9cbe
000002c0: 548f 193f ec51 0f3f 672b 24c0 367f d83e
000002d0: df1a 2cc0 af91 2ac0 0e1b 9d3e 9a22 523f
000002e0: 0b77 2bc0 46d3 bb3e 25dd 1b3f 9752 15c0
000002f0: 136f 1fc0 a33b 2cc0 6b58 26c0 8a18 1b3f
00000300: 97f0 04c0 ef3b 1cc0 2108 233f b643 f93e
00000310: ae10 c63e dbed 29c0 c549 033f 53ac 29c0
00000320: cb6a 29c0 2a77 ac3e 6914 253f d81a dd3e
00000330: 5bd5 25c0 0b77 2bc0 93b8 2bc0 df1a 2cc0
00000340: ab02 18c0 37a2 22c0 0b77 2bc0 93b8 2bc0
00000350: cf66 23c0 5f3b 163f cf97 2bc0 df1a 2cc0
00000360: 517d 24c0 1bfa 2bc0 1284 1c3e 632f 2ac0
00000370: d720 ffbf af91 2ac0 15da 03c0 c310 25c0
00000380: 8a18 1b3f 0acf e53e b18f 27c0 df1a 2cc0
00000390: e3e5 1dc0 a8c5 7c3e 05ac 133f 9999 103f
000003a0: 8335 2bc0 5937 003f 2bde 003e 98f3 343f
000003b0: 2768 e0bf 31a8 2bc0 93b8 2bc0 06fa ec3e
000003c0: 57d9 2bc0 df2c 493f b9e9 2bc0 600e 043f
000003d0: 3b0b 04c0 1a3b 793d 8341 173f 367f d83e
000003e0: af91 2ac0 137b 7abd c53f 2ac0 e0d2 243f
000003f0: cf97 2bc0 fbf3 2ac0 b18f 27c0 a737 26c0
0.43884534 -2.69114 0.32284683 -2.6831405 -2.68914 -2.4111602 0.32284683 0.5328441
-2.5691488 -2.6791408 0.5948433 -2.6551425 0.49884456 -2.3111675 -2.6871402 -2.151179
-2.6851404 -2.55115 0.34484655 -2.6651418 -2.68914 0.21884769 -2.6551425 -2.68914
-2.6731412 -1.9691886 -2.69114 0.56884366 -2.6471431 -2.677141 -2.6711414 0.55484384
-2.6871402 0.57684356 0.6728423 0.620843 0.6128431 -2.581148 -2.6531427 -2.68914
0.67884225 0.45884508 -2.5721486 -2.677141 -2.3711631 -2.443158 -2.68914 -2.1611784
-2.68914 -2.6031463 -2.3891618 -2.6791408 0.76084125 -2.6851404 -2.5311515 -2.677141
0.4488452 -2.677141 0.74484146 -2.6251447 0.60084325 0.6768423 -2.55115 -2.6671417
0.49884456 -2.5051534 -2.6931398 0.7488414 0.56084377 0.52284425 0.4808448 0.73084164
0.3648463 0.55284387 -2.6571424 0.34584653 0.74484146 0.63884276 0.6768423 -2.661142
-2.69114 -2.6931398 -2.677141 -2.5731485 0.3168469 0.4808448 -2.5491502 -2.68914
-2.677141 0.618843 -2.6791408 -2.677141 -2.6651418 -2.6651418 -2.6871402 -2.6231449
-2.3951614 0.6068432 0.4348454 0.5748436 0.5968433 -2.2951686 -2.3391654 -2.4451578
0.62484294 0.53884405 -1.6431733 0.45084518 -2.69114 0.56884366 -2.3491647 0.5128444
-2.649143 -2.537151 0.1228475 0.39284593 -2.6871402 -2.5611494 -2.3391654 -2.621145
-2.6831405 0.7548413 -2.6671417 0.542844 -2.0791843 -2.6051462 0.76084125 -2.1691778
-2.5891473 -2.6551425 0.6508426 0.5108444 -2.399161 -2.6581423 -2.3781626 -2.6021464
0.72284174 -2.2971685 -2.6931398 0.53884405 -2.6711414 0.6688424 0.4028458 -2.4771554
-2.6271446 0.6578425 -2.6511428 -2.2951686 -2.5011537 0.63884276 -2.69114 -2.1831768
-2.6551425 -1.7371777 -2.6411436 -2.5351512 -2.649143 -2.6811407 -2.69014 -2.6931398
-2.6871402 0.40484577 -1.7591788 0.53884405 -2.333166 -1.6431733 0.3318467 -2.4851549
0.8258404 0.27484745 0.5738436 -2.6151454 -2.179177 0.8128406 -2.6531427 -0.30515218
0.59984326 0.5598438 -2.565149 0.42284554 -2.68914 -2.6651418 0.30684704 0.8208405
-2.6791408 0.36684626 0.60884315 -2.333166 -2.4911544 -2.69114 -2.5991466 0.6058432
-2.0771844 -2.441158 0.6368428 0.48684472 0.386846 -2.6551425 0.5128444 -2.6511428
-2.6471431 0.33684665 0.6448427 0.43184543 -2.5911472 -2.6791408 -2.6831405 -2.68914
-2.3751628 -2.5411508 -2.6791408 -2.6831405 -2.55315 0.58684343 -2.6811407 -2.68914
-2.5701487 -2.6871402 0.15284756 -2.6591423 -1.9931897 -2.6651418 -2.0601857 -2.579148
0.6058432 0.4488452 -2.6181452 -2.68914 -2.4671562 0.24684775 0.57684356 0.5648437
-2.675141 0.50084454 0.1258475 0.70684195 -1.7531785 -2.6821406 -2.6831405 0.46284503
-2.6851404 0.7858409 -2.6861403 0.51584435 -2.0631855 0.06084738 0.5908434 0.42284554
-2.6651418 -0.06115253 -2.6601422 0.6438427 -2.6811407 -2.6711414 -2.6181452 -2.5971467

hidden1_layer.bias_mu f4 [128]
00000000: 9808 6b3e 88df f1bf 4d66 ffbf 025d c03e
00000010: 5c61 30bf ca6d b1bf b459 03c0 9faa 01c0
00000020: c903 49bf 66e2 573f 37e4 f4bf e9fb f1bf
00000030: 7300 f9bf 44a2 d33e 42c7 3d3f c303 febf
00000040: 2bd1 063d f1e6 fbbf 76e4 cdbf b2d2 8ebe
00000050: e3ea 183f ce03 ecbf c725 00c0 88db 2c3f
00000060: 915f 95bf 0553 fbbf 6595 75bf 9eb9 fbbf
00000070: 42e7 e7bf ff2f d8bf b53e d3bf d92e 9dbf
00000080: cc90 373f f409 4a3e 9ceb 97bf 6280 983e
00000090: 450f c3bf 03c3 efbf a73f f1bf 0a4a e3bf
000000a0: ae0b 233e c532 fcbf 65f6 f7bf 1ea1 f1bf
000000b0: 404b c3bb 8cb2 c5bd cce5 64bf 3e38 e53e
000000c0: 245b 2d3f e402 eebf e28d 9c3e 3d13 a23d
000000d0: b12f f3bf fe42 afbf defb d5bf da12 fabf
000000e0: 01b7 263e 10ed ff3e 9145 02c0 c02a 04c0
000000f0: 9d9e e2bf 811c e03e f91d 0e3f 53ad 00bf
00000100: e14f 02c0 303e f0bf c561 fdbf 8891 f3bf
00000110: 42ec f3bf 758e f7bf 712b c5bf e001 fbbf
00000120: 205a debe fc39 fbbf 5e93 f5bf 0d41 39bc
00000130: a5dc 013e d6cb afbf f7ee 00c0 e88f 1bbb
00000140: 7a31 edbd c5e5 f43d ec97 91bf 3ec5 583f
00000150: 7602 01c0 6fb1 fdbf b7b2 5e3f c5a1 e9bf
00000160: ce5f f4bf 58f2 febf 36a0 20be 75e2 febf
00000170: 9053 85bf 62a8 25bf a47c 1a3f 729d 343f
00000180: 0f25 f8bf cfc5 f6bf 18a4 52bb c34f f8bf
00000190: d2a2 febf f6f4 1e3e 9c47 edbf aa46 253f
000001a0: 8fb4 febf 3410 9fbf eeb9 00c0 3b39 bebf
000001b0: 2769 f3bf 6376 ffbf 265e 8c3e f765 2c3f
000001c0: 024c edbd 5e9f 9cbf dd81 3fbe 7cd2 e3bf
000001d0: ea55 6d3f a195 c1bf 444a d9bf a45a 03c0
000001e0: 4ae8 0ebc 9f0d 733f 75bd 3a3e cd65 91bf
000001f0: 6858 f63e 5563 b6bf 503e d9bd d5d9 79bf
0.22952497 -1.8896341 -1.9953095 0.3757096 -0.6889856 -1.386163 -2.05235 -2.026039
-0.785214 0.8432983 -1.9132146 -1.8905002 -1.9453262 0.41334736 0.7413217 -1.9844898
0.032914322 -1.9679853 -1.6085346 -0.27895123 0.5973341 -1.8438661 -2.0023057 0.6752248
-1.166979 -1.963471 -0.9593108 -1.9666021 -1.8117449 -1.6889647 -1.6503512 -1.2279922
0.7170532 0.1973036 -1.1868777 0.29785448 -1.5239035 -1.8731388 -1.884755 -1.775697
0.15922424 -1.9702994 -1.9372069 -1.8877294 -0.0059598982 -0.09653196 -0.8941314 0.44769472
0.67717195 -1.8594632 0.30576998 0.07913826 -1.8998929 -1.3692319 -1.6717489 -1.9537003
0.16280748 0.49985552 -2.035496 -2.0651093 -1.7704655 0.43771747 0.55514485 -0.5026447
-2.0361254 -1.8768978 -1.9795462 -1.9028788 -1.9056475 -1.934035 -1.5403882 -1.9609947
-0.43428135 -1.962707 -1.9185598 -0.011307013 0.12681825 -1.3734081 -2.0145853 -0.0023736898
-0.115817025 0.119578876 -1.1374488 0.8467597 -2.0157752 -1.9819773 0.8699145 -1.8252493
-1.9091737 -1.9917707 -0.15686116 -1.9912859 -1.0416126 -0.64710057 0.60346437 0.7055274
-1.9386309 -1.9279116 -0.0032141265 -1.9399341 -1.9893439 0.15523133 -1.8537478 0.6456095
-1.9898852 -1.242682 -2.0113482 -1.4861215 -1.9016465 -1.9958004 0.2741558 0.67343086
-0.11586763 -1.2236135 -0.18701883 -1.779861 0.9270922 -1.5123788 -1.6975789 -2.0524073
-0.008722374 0.9494266 0.18236335 -1.1359192 0.48114324 -1.4249064 -0.10607588 -0.9759801

hidden1_layer.bias_log_sigma f4 [128]
00000000: 7480 a7be 4d1a debf 0fe0 0cc0 4275 813e
00000010: 3614 483d 84ac 8a3e 73cc dbbf 0b77 2bc0
00000020: ef86 e5bf 339f 23bf 33a6 28c0 07e8 18c0
00000030: 37d3 2ac0 f182 373f 4139 2b3f 0b15 1bc0
00000040: 9e33 a13e 67c9 13c0 3fcb 1ec0 f0a8 223e
00000050: 05ac 133f a706 1ec0 f5c8 2bc0 dfb1 373d
00000060: dac7 7fbf 0b77 2bc0 be6b 70bf 294e 27c0
00000070: d78f 1fc0 f369 cbbf 38ed dbbf 5052 a63e
00000080: d3f7 0a3f b643 f93e 670f a7bf a6bd f1be
00000090: dbf8 00c0 ef6c 24c0 39d1 27c0 f5c8 2bc0
000000a0: 5791 243f bf14 2bc0 0b77 2bc0 552d 18bd
000000b0: b99e 4b3e 5c4d 0bbf 8536 b8bf 9922 523f
000000c0: 0ecc debe 1bc9 23c0 2cd5 e63e 2e02 9ebd
000000d0: 8f8b 29c0 f900 05c0 092e 0e3e 4b21 1dc0
000000e0: 0ba7 6abe ea4b aabd 2750 2ac0 0b15 1bc0
000000f0: 254f bcbf a79c 203e 34a7 d8be 3d5b 33be
00000100: 2768 e0bf df1a 2cc0 4000 66bd 8f8b 29c0
00000110: cb28 ebbf 57d9 2bc0 89de bebf 7381 22c0
00000120: 6dfd 1dbf 4756 2bc0 b9e9 2bc0 5627 9f3e
00000130: f0a1 f33e 674a 86bf 6f85 28c0 fd54 3f3e
00000140: fd54 3f3e 803f 0c3f dc95 b13e 11fd 78be
00000150: bf14 2bc0 57d9 2bc0 ac10 c63e 2662 9d3d
00000160: ad31 1dc0 2323 28c0 cc12 b13e e743 28c0
00000170: 51fd c3bf 16f9 67bf fcc6 b93e a062 be3e
00000180: 5d04 2bc0 3ffc 26c0 c549 033f f795 20c0
00000190: 31a8 2bc0 cb20 073f b9e9 2bc0 81c1 263e
000001a0: 0b77 2bc0 fa97 9c3e 9bd2 dcbf d6b1 dcbf
000001b0: 5f02 28c0 73b2 2ac0 5627 9f3e 7680 a7be
000001c0: 6404 c43e cf0b d1bf a834 b0be 9356 1bc0
000001d0: 5563 6c3e 0add b13d 771b 0cc0 57d9 2bc0
000001e0: 067f 013f e57a 0b3f 172f 143f 3db9 313c
000001f0: c44a 683e 5173 82bf 8060 d33e 9325 13c0
-0.3271519 -1.7351776 -2.2011755 0.25284773 0.0488474 0.27084744 -1.7171768 -2.6791408
-1.7931803 -0.63914794 -2.635144 -2.3891618 -2.6691415 0.71684176 0.6688424 -2.4231594
0.31484693 -2.3091676 -2.4811552 0.15884757 0.57684356 -2.469156 -2.6841404 0.044847365
-0.99914324 -2.6791408 -0.939144 -2.6141455 -2.4931543 -1.5891708 -1.7181768 0.32484674
0.542844 0.48684472 -1.3051575 -0.47215003 -2.015189 -2.5691488 -2.622145 -2.6841404
0.6428427 -2.6731412 -2.6791408 -0.037152607 0.19884767 -0.54414916 -1.4391638 0.8208404
-0.43515056 -2.5591495 0.45084512 -0.077152595 -2.649143 -2.0781844 0.13884749 -2.455157
-0.22915284 -0.08315261 -2.661142 -2.4231594 -1.4711653 0.15684758 -0.42315066 -0.17515273
-1.7531785 -2.68914 -0.056152582 -2.649143 -1.8371824 -2.6851404 -1.4911662 -2.539151
-0.6171482 -2.677141 -2.6861403 0.31084698 0.47584486 -1.0491456 -2.6331441 0.18684764
0.18684764 0.54784393 0.34684646 -0.24315287 -2.6731412 -2.6851404 0.38684595 0.07684736
-2.456157 -2.6271446 0.34584653 -2.6291444 -1.5311681 -0.9061445 0.36284626 0.3718462
-2.6721413 -2.6091459 0.5128444 -2.5091531 -2.6821406 0.52784413 -2.6861403 0.16284753
-2.6791408 0.305847 -1.7251772 -1.7241771 -2.6251447 -2.6671417 0.31084698 -0.32715195
0.382846 -1.6331729 -0.34415174 -2.427159 0.23084767 0.08684738 -2.1891763 -2.6851404
0.5058445 0.544844 0.57884353 0.010847387 0.22684771 -1.0191442 0.4128456 -2.2991683

hidden2_layer.weight_mu f4 [128, 128]
00000000: d6c6 dbbf a63c ccbf 05b5 dbbf 5739 d9bf
00000010: 5879 e5bf 934d ccbf 43f3 e6bf 59b9 f4bf
00000020: b8e6 e3bf 0ac8 f3bf 18af fbbf a923 e7bf
00000030: 92bc d4bf 6edd f2bf 23e1 fbbf 1f92 f6bf
00000040: 9301 dbbf 0570 e3bf 3f84 d8bf 590e f5bf
00000050: 0bf1 e7bf 33ac e5bf 00c9 bebf 16a5 eebf
00000060: 67b6 eabf aef1 e9bf 3c15 edbf 0b11 cdbf
00000070: 5a35 e5bf ff46 ebbf 9ef9 e9bf 6b2f 8f3f
00000080: b139 e5bf 4996 f7bf 5b0c b5bf 3421 eebf
00000090: 3dd7 e4bf e8fc f5bf f115 cfbf e17c cabf
000000a0: 101b 8ebf 56df e0bf c672 e5bf 9ad5 d6bf
000000b0: cb62 e2bf b692 8e3f 4f36 e1bf bab0 ddbf
000000c0: db2b e7bf ee45 f0bf 1184 e5bf f186 d8bf
000000d0: fec6 873f 8316 d8bf e7ef ecbf fd02 d6bf
000000e0: 011c e6bf 18b6 01c0 23f1 d6bf 2e57 e7bf
000000f0: 625a d8bf 76ea ecbf 4cda ecbf ddc0 d4bf
00000100: bb2c ebbf 4b87 90bf 9e21 ebbf 0ddd dfbf
00000110: 0587 dbbf 812f e4bf 2bb2 e0bf df24 f2bf
00000120: 2afb dcbf b785 f3bf 7c13 e8bf 2ce3 d9bf
00000130: b7b5 e7bf 84b3 e3bf b2b2 e6bf 4ef6 debf
00000140: 66c3 e8bf d63b f2bf 744c f1bf 5554 eabf
00000150: a316 e8bf 9165 e5bf 8308 e8bf 35c2 02c0
00000160: 3cd3 ebbf f7fc f8bf 03aa fcbf 2115 e2bf
00000170: f8fe e2bf 4aea f1bf b678 d3bf 0b7b e6bf
00000180: 5cdf d4bf 0260 f7bf 728a e1bf 1cd6 d9bf
00000190: baf1 e6bf 0ea9 c2bf 8465 d7bf 5597 f7bf
000001a0: a719 ebbf 7f29 e7bf 9816 cbbf 534c f3bf
000001b0: a7ff e2bf 6ea2 edbf a408 d6bf 9adb e6bf
000001c0: 9e6c efbf b356 c2bf 1ac8 b8bf 4445 d9bf
000001d0: a38b e5bf 0551 e8bf ab91 ebbf ec07 ecbf
000001e0: 0031 eebf 24bb fabf b47f f0bf f128 e8bf
000001f0: 1fae e6bf 216c d6bf c2b6 fbbf bef6 eebf
00000200: 1d2a ecbf 04b6 e1bf 93bc efbf 6a1d f1bf
00000210: d0b9 e0bf 6e70 dcbf b3a6 c6bf 5443 febf
00000220: cbbf c0bf ef21 f1bf 170d f7bf abab d9bf
00000230: 9af0 01c0 bb96 bebf dcc4 eabf 33f5 f7bf
00000240: a26f f2bf b148 c8bf 6f9f d0bf ad14 f2bf
00000250: 76ef e4bf 4700 d9bf ce0c edbf 36b1 e3bf
00000260: 74d4 f8bf 104c e3bf a339 f1bf 72fd f2bf
00000270: 770d edbf 22a4 f9bf 52ab f3bf 890f f2bf
00000280: acff f6bf 7a05 ecbf fe6d ccbf d2e3 e3bf
00000290: 36f0 dcbf 0f3f eabf b355 eebf d73e ccbf
000002a0: b2d0 e7bf e1e5 e0bf 7609 f2bf aa99 edbf
000002b0: ce57 c6bf 7d77 e3bf 6226 f5bf 7678 e3bf
000002c0: 92a7 edbf 0b9f f0bf 57ea e1bf 5d34 edbf
000002d0: 67f9 e2bf f4dc e5bf 2806 efbf e7ab dcbf
000002e0: d26a debf 0a59 e3bf febb dabf caaf d0bf
000002f0: 1a40 cabf 6660 edbf 2b93 d7bf ab19 d1bf
00000300: 8ca9 f1bf 09f0 d6bf 0d5a c3bf e1d2 f9bf
00000310: a3f2 d3bf 3950 f3bf 6060 dabf bc6d edbf
00000320: a046 f4bf 8670 f1bf 1d1f ebbf c26d d5bf
00000330: 4f8a c3bf 228f f8bf 3c05 f4bf 98b3 f1bf
00000340: 5210 c4bf c5ed efbf 52df f1bf 9a76 ebbf
00000350: 1cca c0bf 22ee e0bf 9d1a e6bf 89df d9bf
00000360: b9ea ebbf 7631 f1bf d8d8 d0bf 7a36 c0bf
00000370: 94da d6bf 7c6f d8bf 4e44 d6bf fdc9 ddbf
00000380: d350 ebbf f0ab f5bf 8484 e6bf aa45 f5bf
00000390: bc02 f5bf 6e62 dcbf fb46 e9bf 5b2a eebf
000003a0: 4466 cdbf f5b3 e1bf 1870 efbf 3571 f4bf
000003b0: 7826 e0bf 707b d5bf 5e3c d9bf 326b debf
000003c0: e98d edbf 52a8 d3bf a6c0 e2bf 1629 b8bf
000003d0: cd0e f6bf 1414 ddbf 9ae4 e6bf 58e5 d8bf
000003e0: 6ca8 edbf 3160 f2bf 8edf e0bf 5ca5 e2bf
000003f0: db7a e4bf 4580 e8bf 0245 f4bf dea2 e5bf
-1.7170055 -1.5956008 -1.7164618 -1.6970624 -1.7927656 -1.5961174 -1.8042988 -1.9119064
-1.7804785 -1.9045422 -1.9662809 -1.8057758 -1.6620047 -1.8973825 -1.9678081 -1.9263343
-1.7109855 -1.7768561 -1.6915358 -1.9145004 -1.8120435 -1.7943176 -1.490509 -1.864413
-1.8336915 -1.827688 -1.8522105 -1.6020826 -1.7906907 -1.8381041 -1.8279302 1.1186346
-1.7908231 -1.9342738 -1.4144396 -1.8603883 -1.7878186 -1.9217806 -1.6178571 -1.581936
-1.1102009 -1.7568157 -1.7925651 -1.6783936 -1.7686399 1.1138523 -1.7594699 -1.7319558
-1.8060259 -1.8771341 -1.7930928 -1.6916181 1.0607603 -1.688187 -1.8510712 -1.6719662
-1.7977296 -2.0267391 -1.6792339 -1.807348 -1.6902583 -1.8509052 -1.8504119 -1.6621357
-1.8373026 -1.1291288 -1.8369634 -1.7489334 -1.715058 -1.7826997 -1.7554373 -1.8917502
-1.7264149 -1.9025182 -1.8130946 -1.7022452 -1.810233 -1.7789159 -1.8023283 -1.7418916
-1.8184631 -1.892451 -1.8851457 -1.8306986 -1.8131908 -1.7921621 -1.8127598 -2.0431035
-1.8423839 -1.9452199 -1.9739383 -1.7662698 -1.773406 -1.8899624 -1.6521213 -1.80063
-1.6630664 -1.9326174 -1.7620375 -1.7018466 -1.8042519 -1.5207841 -1.6827855 -1.9343058
-1.8367203 -1.8059539 -1.586627 -1.9007667 -1.7734269 -1.8565195 -1.6721387 -1.8035767
-1.8705022 -1.5182709 -1.4436066 -1.6974263 -1.7933239 -1.8149725 -1.8403829 -1.8439918
-1.8608704 -1.9588361 -1.8788972 -1.8137494 -1.8021888 -1.6751748 -1.9665148 -1.866905
-1.8450352 -1.7633672 -1.8729423 -1.8837101 -1.7556705 -1.7221811 -1.5519623 -1.9864297
-1.505853 -1.8838481 -1.930087 -1.7005514 -2.0303102 -1.4889749 -1.8341327 -1.9371704
-1.8940318 -1.5647184 -1.6298655 -1.891256 -1.7885578 -1.695321 -1.8519533 -1.7788455
-1.9439836 -1.7757587 -1.8845714 -1.8983595 -1.8519734 -1.9503214 -1.9036658 -1.8910991
-1.9296775 -1.8439171 -1.5971067 -1.78039 -1.7260807 -1.8300494 -1.8619903 -1.5956677
-1.8110564 -1.7570153 -1.8909137 -1.856252 -1.5495546 -1.777084 -1.9152339 -1.7771137
-1.8566763 -1.8798536 -1.764964 -1.8531605 -1.7732362 -1.7958055 -1.8673754 -1.723996
-1.7376349 -1.7761548 -1.7088621 -1.6303647 -1.5800812 -1.8545043 -1.6841787 -1.6335958
-1.8879867 -1.6792003 -1.5261856 -1.951748 -1.6558422 -1.9008857 -1.7060661 -1.8549113
-1.9084053 -1.8862464 -1.836887 -1.667412 -1.5276583 -1.9418681 -1.9064097 -1.8882933
-1.531748 -1.8744437 -1.8896277 -1.8395569 -1.5061679 -1.7572672 -1.7976872 -1.7021343
-1.8431007 -1.8843219 -1.6316175 -1.5016625 -1.6785455 -1.6909022 -1.6739595 -1.7327267
-1.838404 -1.9193096 -1.800919 -1.9161885 -1.914146 -1.7217538 -1.8224787 -1.8606676
-1.6046834 -1.7633044 -1.8706083 -1.9097048 -1.751174 -1.6678295 -1.6971548 -1.7376463
-1.8558933 -1.6535742 -1.7715042 -1.4387538 -1.9223267 -1.7271752 -1.8038514 -1.694499
-1.8567023 -1.8935605 -1.7568223 -1.7706714 -1.7849993 -1.8164145 -1.908356 -1.7940328

hidden2_layer.weight_log_sigma f4 [128, 128]
00000000: 33a6 28c0 5f3b 163f 278c 09c0 d591 22c0
00000010: cb6a 29c0 faf1 c03e 43c7 18c0 7baa 1ec0
00000020: dbed 29c0 57d9 2bc0 99e3 2ac0 6d56 23c0
00000030: 2f79 26c0 db5a 11c0 0bb0 293f 0b77 2bc0
00000040: 0d44 20c0 a33b 2cc0 9fdd 21c0 9f0e 2ac0
00000050: fbf3 2ac0 e383 0dc0 ddeb 26c0 8700 1dc0
00000060: 136f 1fc0 3f0a 0e3f 5777 1bc0 dea3 073f
00000070: f7c6 28c0 8304 23c0 c476 153f 442d e03e
00000080: a30a 24c0 a33b 2cc0 1fc5 1dc0 8533 28c0
00000090: ab64 28c0 2b4c 24c0 209e 9d3e 4954 28c0
000000a0: 8635 cc3e 2750 2ac0 8beb 083f 32aa df3e
000000b0: f7c6 28c0 900e db3e 0f73 25c0 b3c6 023f
000000c0: ddeb 26c0 ba8f b03e 9f0e 2ac0 7fd7 20c0
000000d0: dfb8 1bc0 fdf1 27c0 9be1 27c0 ffbe 1cc0
000000e0: 1fc5 1dc0 8f8b 29c0 bd9f 113f 7d0a 2cc0
000000f0: a30a 24c0 83d3 1ac0 e712 20c0 c73d 27c0
00000100: a33b 2cc0 ab64 28c0 ae1e 1c3f 2f48 1ec0
00000110: 9849 993d ba18 f23e 9f0e 2ac0 ddd0 193f
00000120: 176b 19c0 2750 2ac0 ce26 f0bf 8b5e 27c0
00000130: c14e 07c0 1c89 ce3d df1a 2cc0 d195 28c0
00000140: 9f0e 2ac0 31a8 2bc0 ef53 1a3f 1b36 0bc0
00000150: cb6a 29c0 e63f a33e 57d9 2bc0 c73d 27c0
00000160: 6100 25c0 8670 343f 2521 25c0 1b98 1bc0
00000170: e7e1 17c0 826e 293f 1a23 c93e e545 2bc0
00000180: 05b9 13c0 398f 393f 6fe9 f5bf 8722 753d
00000190: ad31 1dc0 cc9b f23e b529 11c0 8b5e 27c0
000001a0: 215b 403e 99ee 583e 5ed1 903e 19cb 26c0
000001b0: 370f 0ac0 df1a 2cc0 6a62 fe3e 03ec 1ec0
000001c0: 9d6e 093f 6f85 28c0 e4a7 1d3f 0acf e53e
000001d0: df1a 2cc0 ab64 28c0 7f08 29c0 0b77 2bc0
000001e0: 294e 27c0 6f85 28c0 8f8b 29c0 aa76 353f
000001f0: 20b6 803d 1bc9 23c0 4756 2bc0 945a 923e
00000200: df1a 2cc0 df1a 2cc0 d216 c73e 27bd 11c0
00000210: df1a 2cc0 ef6c 24c0 e63f a33e 43f8 20c0
00000220: a208 9a3e fb60 12c0 bf14 2bc0 df1a 2cc0
00000230: 683c 3b3e eef8 22be df1a 2cc0 74ed 333f
00000240: 93b8 2bc0 91bc e7bd a33b 2cc0 9bb0 1fc0
00000250: 7593 0f3f 135a 1b3f 9f0e 2ac0 cb6a 29c0
00000260: 3b35 153f f6fe 303e 2437 403f 7a2d a03e
00000270: df1a 2cc0 57d9 2bc0 3177 23c0 cbd7 10c0
00000280: b7ba 26c0 675c 2cc0 9ebc e23e 941e 3c3f
00000290: b7ba 26c0 5b66 1d3f 0b46 23c0 f139 19c0
000002a0: df1a 2cc0 9f0e 2ac0 a3d9 1bc0 93b8 2bc0
000002b0: 6310 0f3f 892f 22c0 a33b 2cc0 df1a 2cc0
000002c0: df1a 2cc0 136f 1fc0 0d56 053f 9325 13c0
000002d0: 1bfa 2bc0 6d56 23c0 bef4 593e 5f02 28c0
000002e0: 7bdb 26c0 9999 103f 23f2 1fc0 d507 dbbf
000002f0: b35c 1cc0 97b4 25c0 d75e 17c0 3344 18c0
00000300: ca6c d53e 5937 003f 0b46 23c0 777d 1cc0
00000310: 3360 f4bf bd9f 113f 0bb3 0ac0 8341 173f
00000320: 5b66 1d3f 8335 2bc0 e316 26c0 3f9a 16c0
00000330: 8260 d33e 1bfa 2bc0 df1a 2cc0 67fa 1bc0
00000340: 777d 1cc0 a425 5e3a c877 1a3e 27ee 19c0
00000350: 3ea0 883e 57d9 2bc0 c70c 1fc0 4761 02c0
00000360: 57d9 2bc0 7f08 29c0 9387 23c0 1fc5 1dc0
00000370: f7fd 0b3f 7b1c e9bf 5746 13c0 bfe3 22c0
00000380: 9387 23c0 3760 1c3f f795 20c0 e1a5 123f
00000390: 2125 2bc0 450e 243f 57d9 2bc0 ab64 28c0
000003a0: c73d 27c0 8b5e 27c0 df1a 2cc0 1bfa 2bc0
000003b0: eee9 943e 01d7 1a3f f733 10c0 0dae f6bf
000003c0: ef3b 1cc0 cb08 19c0 57d9 2bc0 683c 3b3e
000003d0: 4756 2bc0 07e8 18c0 4c12 3a3f 83a2 12c0
000003e0: 537b 21c0 074a 29c0 777d 1cc0 675c 2cc0
000003f0: 450e 243f 0b46 23c0 b38d 24c0 a33b 2cc0
-2.635144 0.58684343 -2.1491792 -2.540151 -2.6471431 0.37684613 -2.387162 -2.4791553
-2.6551425 -2.6851404 -2.6701415 -2.55215 -2.6011465 -2.2711704 0.66284245 -2.6791408
-2.5041535 -2.69114 -2.5291517 -2.6571424 -2.6711414 -2.2111747 -2.608146 -2.4531572
-2.4911544 0.55484384 -2.429159 0.52984416 -2.6371439 -2.5471504 0.58384347 0.43784535
-2.5631492 -2.69114 -2.4651563 -2.6281445 -2.6311443 -2.567149 0.30784702 -2.6301444
0.39884585 -2.661142 0.5348441 0.43684536 -2.6371439 0.42784548 -2.5851476 0.5108444
-2.608146 0.34484655 -2.6571424 -2.5131528 -2.4331586 -2.6241448 -2.6231449 -2.4491575
-2.4651563 -2.649143 0.56884366 -2.6881402 -2.5631492 -2.4191597 -2.5011537 -2.6131456
-2.69114 -2.6311443 0.60984313 -2.4731557 0.0748474 0.4728449 -2.6571424 0.60084325
-2.3971612 -2.661142 -1.8761842 -2.6151454 -2.1141818 0.10084745 -2.68914 -2.634144
-2.6571424 -2.6821406 0.6028432 -2.1751773 -2.6471431 0.31884688 -2.6851404 -2.6131456
-2.5781481 0.704842 -2.580148 -2.4311588 -2.373163 0.66184247 0.39284593 -2.676141
-2.3081677 0.72484165 -1.9211863 0.05984738 -2.456157 0.4738449 -2.2681706 -2.6151454
0.18784763 0.21184768 0.28284734 -2.606146 -2.1571786 -2.68914 0.4968446 -2.483155
0.5368441 -2.6331441 0.61584306 0.4488452 -2.68914 -2.6311443 -2.6411436 -2.6791408
-2.6141455 -2.6331441 -2.649143 0.7088419 0.062847376 -2.5591495 -2.677141 0.2858473
-2.68914 -2.68914 0.38884598 -2.27717 -2.68914 -2.5691488 0.31884688 -2.5151527
0.3008471 -2.2871692 -2.6731412 -2.68914 0.18284762 -0.15915272 -2.68914 0.702842
-2.6831405 -0.11315263 -2.69114 -2.4951541 0.56084377 0.6068432 -2.6571424 -2.6471431
0.5828435 0.1728476 0.7508414 0.31284696 -2.68914 -2.6851404 -2.5541499 -2.263171
-2.6051462 -2.6931398 0.44284528 0.7348416 -2.6051462 0.6148431 -2.55115 -2.3941615
-2.68914 -2.6571424 -2.4351585 -2.6831405 0.5588438 -2.5341513 -2.69114 -2.68914
-2.68914 -2.4911544 0.5208443 -2.2991683 -2.6871402 -2.55215 0.21284768 -2.6251447
-2.607146 0.5648437 -2.4991539 -1.7111765 -2.443158 -2.5891473 -2.3651636 -2.3791625
0.41684562 0.50084454 -2.55115 -2.4451578 -1.9091858 0.56884366 -2.167178 0.5908434
0.6148431 -2.675141 -2.595147 -2.3531644 0.41284567 -2.6871402 -2.68914 -2.4371583
-2.4451578 0.0008474237 0.15084755 -2.4051607 0.26684755 -2.6851404 -2.4851549 -2.0371873
-2.6851404 -2.6411436 -2.5551498 -2.4651563 0.54684395 -1.8211817 -2.3011682 -2.5451505
-2.5551498 0.6108431 -2.5091531 0.5728436 -2.6741412 0.64084274 -2.6851404 -2.6311443
-2.6131456 -2.6151454 -2.68914 -2.6871402 0.29084724 0.6048432 -2.2531717 -1.9271866
-2.441158 -2.3911617 -2.6851404 0.18284762 -2.677141 -2.3891618 0.7268417 -2.291169
-2.523152 -2.6451433 -2.4451578 -2.6931398 0.64084274 -2.55115 -2.5711486 -2.69114
