model_stock/dynamic_small_evn_25_lr0.001_3000EP.pth (torch, 356269 bytes, 16 tensors)

input_layer.weight_mu f4 [128, 43]
000000 0c 6f b3 3e 16 08 87 bf 75 45 7f bf 55 89 a6 bf
       0.3504566 -1.0549343 -0.9971536 -1.301066
000010 0a ee b4 3e b3 37 79 bf 2e 39 c3 be 80 b3 bb b7
       0.3533786 -0.97350615 -0.38129562 -2.2375723e-05
000020 74 5b 9f b9 7a f9 5b ba 8c 61 97 bf f4 d3 24 ba
       -0.0003039498 -0.0008391362 -1.1826644 -0.0006287687
000030 22 dd 03 3a fc 71 1a ba 34 f1 72 3a fa d4 73 3a
       0.0005030205 -0.0005891619 0.00092675094 0.00093014503
000040 74 3f 54 ba 30 e3 48 b9 8c c8 e8 3e c8 62 90 bf
       -0.00080966135 -0.0001915812 0.45465505 -1.1280146
000050 13 fa 59 bf 89 f4 9e bf be 92 0e 3f 38 b6 83 bf
       -0.8514721 -1.2418376 0.5569266 -1.0289984
000060 7a 97 c9 be c8 46 c8 39 7a c1 55 3a c8 86 d4 39
       -0.3937338 0.0003819971 0.00081541354 0.0004053621
000070 3a bf a8 bf a0 81 8d ba 74 39 96 ba c2 be 7b 3a
       -1.3183358 -0.0010796078 -0.0011461214 0.0009603315
000080 a4 92 21 3a 90 d1 4a 39 ca dd 50 ba 78 94 cf b9
       0.0006163514 0.0001934229 -0.00079676195 -0.00039592735
000090 a2 b9 d0 3e 34 22 9b bf 44 86 69 bf c8 b7 43 3f
       0.40766627 -1.2119813 -0.912205 0.764523
0000a0 fd 4a 8e bf f4 95 b0 3e 11 37 0e 3f ad 34 0d 3f
       -1.1116635 0.34489405 0.55552775 0.551585
0000b0 3d df 94 bf 4a 49 89 bf 92 7b 94 bf 2d 06 1d 3f
       -1.1630627 -1.0725491 -1.1600211 0.6133755
0000c0 5d 2e 94 bf ee 4d e5 be 7a 69 33 ba 7a c5 42 3a
       -1.1576649 -0.44786018 -0.00068440253 0.0007429939
0000d0 68 b6 19 b9 3f fd aa bf b5 4d 88 3a c4 df c6 b9
       -0.00014659169 -1.3358535 0.0010399135 -0.0003793222
0000e0 c2 3b 56 3a 50 b4 07 b9 98 e1 a8 39 d9 76 9c 3a
       0.0008172357 -0.00012941775 0.00032211537 0.0011937275
0000f0 e8 01 9a b9 e2 97 15 3f 53 c2 96 bf f8 fa 64 bf
       -0.0002937459 0.5843488 -1.1778053 -0.8944545
000100 cc fb 9a bf 4e 5b 23 3f c5 03 97 bf e4 23 02 bf
       -1.2108092 0.63811195 -1.1798025 -0.50836015
000110 68 56 25 b9 7a 69 30 3a 90 5d 44 39 7d 0a a6 bf
       -0.00015767815 0.00067295844 0.00018726871 -1.2971951
000120 c4 24 d4 b9 7c 49 8a ba fc 71 1e 3a 79 f6 91 3a
       -0.00040463184 -0.0010550465 0.00060442067 0.0011136077
000130 22 76 01 ba f4 42 cb 39 64 ae 00 ba 44 39 ff 3e
       -0.00049385626 0.0003876906 -0.0004908799 0.49848378
000140 46 d7 9e bf ae f0 7a bf 05 a9 47 3f ac 92 96 bf
       -1.2409446 -0.980235 0.7799228 -1.1763511
000150 e8 69 db 3e 55 a5 25 3f 94 81 e8 3e 04 82 a7 bf
       0.42854238 0.647054 0.4541136 -1.3086553
000160 24 36 5c bf 4f 60 aa bf 17 f5 16 3f 82 2d 9c bf
       -0.8602011 -1.3310641 0.5896773 -1.2201388
000170 ba d4 b4 be c8 d6 e7 39 74 73 c7 b9 7a e1 29 ba
       -0.35318547 0.00044219778 -0.00038042257 -0.0006480437
000180 03 17 93 bf d4 a5 f8 b9 00 9b 49 37 44 20 de b9
       -1.1491398 -0.00047425798 1.2016622e-05 -0.0004236718
000190 24 b6 09 3a 64 52 9b ba e8 22 ad b9 a2 85 2d 3a
       0.00052532763 -0.0011850116 -0.00033023139 0.0006619339
0001a0 06 d6 1a 3f d1 81 a5 bf 10 05 88 bf a7 59 8c bf
       0.60482824 -1.2930242 -1.0626545 -1.096486
0001b0 6c 4e ce 3e 37 43 86 bf 04 38 fa be 21 1c 93 3a
       0.40294206 -1.0489262 -0.48870862 0.0011223593
0001c0 78 13 ed 39 4c 0d bc ba fd 7e 8e bf fc f3 4a 3a
       0.00045218668 -0.0014347224 -1.1132504 0.0007742045
0001d0 f4 a4 6f 3a d0 9d d2 b8 c4 75 aa b9 aa 20 3f ba
       0.00091417064 -0.00010042975 -0.0003251267 -0.0007290939
0001e0 10 cb b8 38 05 7d 82 ba d2 b8 d6 3e be 3e 9f bf
       8.811627e-05 -0.0009955472 0.41937882 -1.2441022
0001f0 61 99 4d bf 4d 50 23 3f 9d b9 7d bf 24 1b f2 be
       -0.8031216 0.63794404 -0.9911135 -0.47286332
000200 41 07 0b 3f bc de 1a 3f b4 fa 92 bf 07 4c 86 bf
       0.54307944 0.60496116 -1.1482759 -1.0491952
000210 bf e1 8a bf bc ac eb 3e f3 2f 94 bf 07 81 09 bf
       -1.0850142 0.46030223 -1.1577133 -0.53712505
000220 c8 46 d6 39 44 cf 53 3a 24 87 3a 3a b8 eb 8f bf
       0.00040869997 0.0008079896 0.00071154744 -1.1243811
000230 a2 d7 4c ba d4 1d ca 39 42 13 47 ba c0 2a 2c b8
       -0.0007814114 0.00038550666 -0.0007594117 -4.104781e-05
000240 7c 79 14 3a a2 aa 06 ba 78 71 85 b9 04 5c b7 3e
       0.00056638545 -0.00051371206 -0.00025452278 0.3581239
000250 dd d7 a6 bf 00 fe 60 bf 2c 9d ab bf d6 80 c7 3e
       -1.3034626 -0.87887573 -1.340734 0.38965482
000260 77 4e 81 bf ba 19 00 bf 21 fe b8 3a 7a 19 49 3a
       -1.010207 -0.50039256 0.0014113822 0.0007671338
000270 78 e3 e2 b9 a7 d2 9b bf aa 06 04 ba 68 03 c6 39
       -0.00043275557 -1.2173661 -0.00050363934 0.0003776804
000280 68 00 52 b9 44 b5 c8 b9 50 78 8d 38 c4 d7 b4 b9
       -0.00020027312 -0.00038282026 6.745814e-05 -0.00034493033
000290 68 1e b9 39 38 1e ca 3e fe f7 92 bf 1d 48 7a bf
       0.00035308604 0.3947618 -1.1481931 -0.97766286
0002a0 7b fc 35 3e 5f b5 81 bf 06 85 9a 3e 9a 61 f8 3e
       0.17772095 -1.0133475 0.30179614 0.48511964
0002b0 b2 e5 28 3e 79 49 79 bf a2 a0 28 bf 6a d0 70 bf
       0.16493872 -0.97377735 -0.65870106 -0.94068015
0002c0 66 7a a8 3e 89 2c 4b bf e8 85 8b be 22 07 2c 3a
       0.32905883 -0.7936483 -0.272506 0.0006562342
0002d0 c8 96 fe b9 24 af 1a 3a 99 42 85 bf fc c0 1d ba
       -0.00048558996 0.0005900732 -1.0410949 -0.00060178316
0002e0 a4 ea 44 ba f4 ee 0d ba fc 73 21 3a 31 00 a4 3a
       -0.0007511771 -0.000541433 0.00061589456 0.0012512264
0002f0 f4 e5 42 3a c4 91 a1 b9 c4 05 97 3e 8b d5 7d bf
       0.00074347784 -0.00030816917 0.29496586 -0.99153966
000300 c9 ba 35 bf 8c 07 66 bf e0 36 87 3e 92 64 79 bf
       -0.70988137 -0.89855266 0.26409054 -0.97419083
000310 74 41 86 be 90 2d 79 b9 7a 69 11 3a 44 3b 63 3a
       -0.26221812 -0.00023763464 0.0005547028 0.0008668194
000320 a6 6c 85 bf d4 09 a4 39 7c 06 5f ba a0 76 ab b8
       -1.0423782 0.0003128784 -0.0008507741 -8.176011e-05
000330 54 15 9a 39 20 cb af b8 d4 77 c9 39 44 9d 96 b9
       0.0002938906 -8.382485e-05 0.00038426986 -0.00028727402
000340 08 a1 b9 3e f9 ee 6e bf aa 33 15 bf a6 c9 30 3f
       0.3625567 -0.93333393 -0.5828196 0.6905769
000350 8c 16 43 bf 36 22 e3 3e a0 5c 30 3f ce b7 1c 3f
       -0.7620628 0.44362038 0.68891335 0.61217964
000360 6b 93 99 bf 80 8a 63 bf b4 ae a4 bf 53 80 06 3f
       -1.1998113 -0.8888321 -1.2865815 0.5253956
000370 01 7c 97 bf 5d 02 1c bf c8 fe d0 39 7a 41 57 ba
       -1.1834718 -0.60941106 0.00039862678 -0.0008211356
000380 24 4b 32 3a 99 dc 9e bf b4 bf 22 3a f4 10 69 ba
       0.0006801358 -1.2411071 0.00062083756 -0.0008890771
000390 74 27 fb 39 c4 d5 90 39 f4 95 30 3a 6a 7e 1c ba
       0.00047903846 0.00027625088 0.0006736212 -0.0005969765
0003a0 d6 8b 98 3a 3b ff 16 3f 1c 3c a6 bf dc 04 66 bf
       0.0011638354 0.589832 -1.2987094 -0.89851165
0003b0 d9 04 98 bf 54 38 2b 3f 02 5a a0 bf 95 4e 0e bf
       -1.1876479 0.66882825 -1.2527468 -0.55588657
0003c0 e0 2c bb b8 bd f8 82 3a 80 6c f0 37 17 9d b0 bf
       -8.9252135e-05 0.0009992343 2.8660754e-05 -1.379794
0003d0 78 48 9f b9 cc 07 4f 3a 74 53 0f 3a 7c 48 3b 3a
       -0.00030380837 0.0007897585 0.00054674526 0.0007144285
0003e0 30 de 20 b9 7a a8 55 3a e0 fc c1 b8 be ec 0d 3f
       -0.0001534156 0.000815041 -9.250059e-05 0.55439365
0003f0 bd 60 9e bf 21 f7 56 bf e1 de 41 3f 88 de a0 bf
       -1.2373272 -0.8397084 0.7573071 -1.2567911

input_layer.weight_log_sigma f4 [128, 43]
000000 34 ce 40 bf 4f bb 06 c0 5b a1 d4 bf bb 4d f1 bf
       -0.7531464 -2.1051824 -1.6611742 -1.8851846
000010 18 72 31 bf 90 dc b6 be 6f 9a 93 bf 18 72 31 bf
       -0.6931472 -0.3571515 -1.1531504 -0.6931472
000020 18 72 31 bf 19 72 31 bf bb 4d f1 bf 18 72 31 bf
       -0.6931472 -0.69314724 -1.8851846 -0.6931472
000030 18 72 31 bf 18 72 31 bf 18 72 31 bf 18 72 31 bf
       -0.6931472 -0.6931472 -0.6931472 -0.6931472
000040 18 72 31 bf 18 72 31 bf 4a 26 3a bf 3b 2d 18 bd
       -0.6931472 -0.6931472 -0.72714674 -0.03715251
000050 9c 82 09 bf 3b 0b 04 c0 7e 80 1e bf 83 a7 d5 bf
       -0.5371492 -2.0631855 -0.61914814 -1.6691746
000060 18 72 31 bf 18 72 31 bf 18 72 31 bf 19 72 31 bf
       -0.6931472 -0.6931472 -0.6931472 -0.69314724
000070 4f bb 06 c0 18 72 31 bf 18 72 31 bf 18 72 31 bf
       -2.1051824 -0.6931472 -0.6931472 -0.6931472
000080 18 72 31 bf 18 72 31 bf 18 72 31 bf 18 72 31 bf
       -0.6931472 -0.6931472 -0.6931472 -0.6931472
000090 b0 34 27 bf 9f 19 01 c0 30 49 9e be ab ad d6 bf
       -0.6531477 -2.0171888 -0.30915213 -1.6771749
0000a0 4d df fe bf 9f b5 c2 bf 2b 4b c6 bf 0b d0 b1 bf
       -1.9911896 -1.5211676 -1.549169 -1.3891615
0000b0 ab a0 07 c0 00 4d f4 be bc 15 eb be 41 d6 6c bf
       -2.1191814 -0.47714996 -0.4591502 -0.92514426
0000c0 0f af 04 c0 64 53 2c bf 18 72 31 bf 18 72 31 bf
       -2.0731847 -0.67314744 -0.6931472 -0.6931472
0000d0 18 72 31 bf e7 b0 0f c0 18 72 31 bf 18 72 31 bf
       -0.6931472 -2.2451723 -0.6931472 -0.6931472
0000e0 18 72 31 bf 18 72 31 bf 18 72 31 bf 18 72 31 bf
       -0.6931472 -0.6931472 -0.6931472 -0.6931472
0000f0 18 72 31 bf 47 94 92 bf 03 59 06 c0 eb de de bf
       -0.6931472 -1.1451501 -2.0991828 -1.7411779
000100 5b 42 0d c0 c9 85 85 bf 51 c2 e4 bf 42 7c 48 bf
       -2.207175 -1.0431453 -1.7871801 -0.783146
000110 19 72 31 bf 19 72 31 bf 19 72 31 bf 97 21 0d c0
       -0.69314724 -0.69314724 -0.69314724 -2.2051752
000120 18 72 31 bf 18 72 31 bf 18 72 31 bf 18 72 31 bf
       -0.6931472 -0.6931472 -0.6931472 -0.6931472
000130 18 72 31 bf 18 72 31 bf 18 72 31 bf f0 96 37 bf
       -0.6931472 -0.6931472 -0.6931472 -0.7171469
000140 37 0f 0a c0 5e 4f 16 bf eb 54 9d bf f7 02 08 c0
       -2.1571786 -0.58714855 -1.229154 -2.125181
000150 c7 80 e4 bf ad 01 da bf 84 c7 95 bf fa 0f d7 bf
       -1.78518 -1.7031761 -1.1701512 -1.6801751
000160 82 2e af be d3 c8 e9 bd 4c e6 9a bf 85 6f 07 c0
       -0.3421517 -0.11415257 -1.2101531 -2.1161816
000170 1b 74 3c bf 8f 30 31 bf a2 b3 31 bf 8f 30 31 bf
       -0.7361466 -0.6921472 -0.6941472 -0.6921472
000180 c9 a8 0b c0 18 72 31 bf 18 72 31 bf 18 72 31 bf
       -2.1821768 -0.6931472 -0.6931472 -0.6931472
000190 18 72 31 bf 18 72 31 bf 18 72 31 bf 18 72 31 bf
       -0.6931472 -0.6931472 -0.6931472 -0.6931472
0001a0 f8 6d 3b bf 51 b9 03 c0 fe b7 dd bf 29 8a 06 c0
       -0.73214674 -2.0581858 -1.7321775 -2.1021826
0001b0 d7 3c 33 bf 61 3c 04 c0 a1 b3 31 bf 90 30 31 bf
       -0.7001471 -2.0661852 -0.69414717 -0.69214725
0001c0 90 30 31 bf a1 b3 31 bf b2 90 56 bf 18 72 31 bf
       -0.69214725 -0.69414717 -0.8381454 -0.6931472
0001d0 18 72 31 bf 18 72 31 bf 18 72 31 bf 18 72 31 bf
       -0.6931472 -0.6931472 -0.6931472 -0.6931472
0001e0 18 72 31 bf 18 72 31 bf ac cd 96 bf cc d2 ec bf
       -0.6931472 -0.6931472 -1.1781516 -1.850183
0001f0 ee 17 c3 bf 32 f1 d1 bf 56 4f cc bf 52 6c e6 bf
       -1.5241678 -1.6401732 -1.5961711 -1.8001807
000200 fe b7 dd bf 09 b7 8d bf ad c6 fa bf 8c 07 be be
       -1.7321775 -1.1071483 -1.9591881 -0.37115133
000210 1b 35 ed bf 14 9d 38 bf c3 9d fe bf 8a 88 4a bf
       -1.8531832 -0.7211468 -1.9891895 -0.7911459
000220 19 72 31 bf 19 72 31 bf 19 72 31 bf 97 21 0d c0
       -0.69314724 -0.69314724 -0.69314724 -2.2051752
000230 18 72 31 bf 18 72 31 bf 18 72 31 bf 18 72 31 bf
       -0.6931472 -0.6931472 -0.6931472 -0.6931472
000240 18 72 31 bf 18 72 31 bf 18 72 31 bf 2b 86 a5 bf
       -0.6931472 -0.6931472 -0.6931472 -1.293157
000250 7f 44 08 c0 45 ca d0 bf 4b 8b fb bf 32 9f 23 bf
       -2.1291807 -1.6311728 -1.9651884 -0.6391479
000260 2a 82 64 be 69 9e 89 bf 19 72 31 bf 18 72 31 bf
       -0.22315279 -1.0751468 -0.69314724 -0.6931472
000270 19 72 31 bf c7 79 06 c0 18 72 31 bf 18 72 31 bf
       -0.69314724 -2.1011827 -0.6931472 -0.6931472
000280 18 72 31 bf 18 72 31 bf 18 72 31 bf 18 72 31 bf
       -0.6931472 -0.6931472 -0.6931472 -0.6931472
000290 18 72 31 bf c2 b7 27 bf 2d 64 ea bf b2 ee 4b be
       -0.6931472 -0.6551477 -1.8311821 -0.19915274
0002a0 ad 3c b9 bf cb 28 eb bf 7f ff ce bf 27 a3 bf bf
       -1.4471642 -1.8371824 -1.6171721 -1.4971665
0002b0 18 72 31 bf 57 e4 02 c0 ed 6d c1 bf 7b 17 06 c0
       -0.6931472 -2.0451868 -1.5111672 -2.0951831
0002c0 cf 81 8f bf 8d fc 83 bf c7 f6 a2 bf 19 72 31 bf
       -1.121149 -1.0311447 -1.273156 -0.69314724
0002d0 19 72 31 bf 19 72 31 bf e7 7f 07 c0 18 72 31 bf
       -0.69314724 -0.69314724 -2.1171815 -0.6931472
0002e0 18 72 31 bf 18 72 31 bf 18 72 31 bf 18 72 31 bf
       -0.6931472 -0.6931472 -0.6931472 -0.6931472
0002f0 18 72 31 bf 18 72 31 bf ad 77 98 bf e8 63 04 bf
       -0.6931472 -0.6931472 -1.1911522 -0.51714945
000300 9e b1 26 bf 9f 4a 09 c0 b7 56 88 bf c7 80 e4 bf
       -0.6511477 -2.1451795 -1.0651463 -1.78518
000310 f4 6b 30 bf 18 72 31 bf 19 72 31 bf 19 72 31 bf
       -0.68914723 -0.6931472 -0.69314724 -0.69314724
000320 33 e2 07 c0 18 72 31 bf 18 72 31 bf 18 72 31 bf
       -2.123181 -0.6931472 -0.6931472 -0.6931472
000330 18 72 31 bf 18 72 31 bf 18 72 31 bf 18 72 31 bf
       -0.6931472 -0.6931472 -0.6931472 -0.6931472
000340 db b4 82 bf 6d 37 fc bd b2 da 02 bf ed 6d c1 bf
       -1.0211443 -0.12315259 -0.5111495 -1.5111672
000350 30 d8 72 be 6d 0b b1 bf 61 7e 33 bf f9 a0 b4 bf
       -0.23715281 -1.3831612 -0.70114714 -1.4111625
000360 0b 82 02 c0 85 fb d8 bf 0b 82 02 c0 4c cc 15 bf
       -2.0391872 -1.6951758 -2.0391872 -0.5851486
000370 d7 20 ff bf df 21 aa bf 18 72 31 bf 19 72 31 bf
       -1.9931897 -1.3291587 -0.6931472 -0.69314724
000380 19 72 31 bf d7 20 ff bf 18 72 31 bf 18 72 31 bf
       -0.69314724 -1.9931897 -0.6931472 -0.6931472
000390 18 72 31 bf 18 72 31 bf 18 72 31 bf 18 72 31 bf
       -0.6931472 -0.6931472 -0.6931472 -0.6931472
0003a0 18 72 31 bf 9e b1 26 bf fc 15 22 bf 27 68 e0 bf
       -0.6931472 -0.6511477 -0.63314795 -1.7531785
0003b0 65 45 e5 bf 5b 17 93 bf 9f 4a 09 c0 ec c1 3e bf
       -1.7911803 -1.1491503 -2.1451795 -0.7451465
0003c0 19 72 31 bf 19 72 31 bf 19 72 31 bf 23 85 fa bf
       -0.69314724 -0.69314724 -0.69314724 -1.957188
0003d0 18 72 31 bf 18 72 31 bf 18 72 31 bf 18 72 31 bf
       -0.6931472 -0.6931472 -0.6931472 -0.6931472
0003e0 18 72 31 bf 18 72 31 bf 18 72 31 bf a0 e0 43 bf
       -0.6931472 -0.6931472 -0.6931472 -0.76514626
0003f0 c7 79 06 c0 85 fb d8 bf 1f 53 b2 bf 19 e1 e9 bf
       -2.1011827 -1.6951758 -1.3931617 -1.8271819

input_layer.bias_mu f4 [128]
000000 e5 b0 a1 bf 9a 3c a5 bf 0b f8 95 bf b3 27 94 bf
       -1.2632109 -1.2909119 -1.1716322 -1.1574615
000010 b7 e5 5a bf 7d 85 b0 bf 32 c7 9e bf b3 b3 88 bf
       -0.8550677 -1.3790737 -1.240454 -1.067984
000020 7b e5 a8 bf 26 2a 86 bf aa 3e 94 bf e2 66 a1 bf
       -1.3195032 -1.0481613 -1.1581624 -1.2609522
000030 ce 79 9c bf 28 91 7a bf a2 ea a2 bf e9 89 85 bf
       -1.2224672 -0.9787774 -1.2727854 -1.0432712
000040 64 2a a5 bf d9 c2 a3 bf c6 ac 8e bf b8 90 b3 bf
       -1.2903562 -1.2793838 -1.1146476 -1.402854
000050 de af af bf 04 41 9c bf 43 d9 93 bf 47 04 8e bf
       -1.3725545 -1.2207341 -1.1550678 -1.1095055
000060 54 a0 87 bf cb b3 83 bf ec d0 a2 bf 1f 0f 9d bf
       -1.0595803 -1.0289243 -1.2720008 -1.227024
000070 f1 c7 99 bf c3 6a a8 bf ad ee 8c bf 6a df a2 bf
       -1.2014142 -1.3157581 -1.1010338 -1.272443
000080 f6 ea 87 bf bd f9 9f bf 59 cc 90 bf ab cb a4 bf
       -1.0618579 -1.2498089 -1.1312362 -1.2874655
000090 d9 96 a4 bf 67 66 70 bf f1 f0 96 bf 16 b2 9c bf
       -1.2858535 -0.93906254 -1.179228 -1.2241848
0000a0 73 a3 9f bf 11 1b 8d bf a3 d8 1e c0 42 aa a4 bf
       -1.2471756 -1.1023885 -2.4819725 -1.2864459
0000b0 7d 84 8f bf 44 df ad bf 98 b6 99 bf 8f 2f a8 bf
       -1.1212307 -1.358376 -1.2008848 -1.3139514
0000c0 44 92 a8 bf b2 cc a0 bf f3 0d a6 bf ac c9 be bf
       -1.3169637 -1.2562468 -1.2973007 -1.4905295
0000d0 96 6a ad bf f7 b0 95 bf fa 89 9c bf dd 01 85 bf
       -1.3548152 -1.169463 -1.2229607 -1.0391194
0000e0 a1 9f a8 bf 93 4f 92 bf 41 d0 a5 bf 87 a5 a7 bf
       -1.3173715 -1.1430534 -1.2954179 -1.309739
0000f0 c0 a0 96 bf ae cb 95 bf 23 5f 8d bf b8 51 94 bf
       -1.1767807 -1.1702783 -1.1044658 -1.1587439
000100 1f 5c 92 bf ed a4 9e bf 50 ed 9c bf 1d d8 d6 bf
       -1.1434363 -1.2394081 -1.2259922 -1.6784703
000110 e0 83 9d bf 84 2c 99 bf 62 e8 8a bf a3 fc a2 bf
       -1.230587 -1.196671 -1.0852168 -1.2733349
000120 a2 8d 95 bf 66 75 9a bf 1b 7d 8f bf 17 55 a5 bf
       -1.1683848 -1.2067077 -1.1210054 -1.2916592
000130 57 74 b8 bf f2 89 94 bf 26 ab 99 bf fb 4c 9a bf
       -1.4410504 -1.1604598 -1.2005355 -1.2054743
000140 81 3f 98 bf fc 87 9e bf 70 19 41 c0 56 34 90 bf
       -1.189438 -1.2385249 -3.0171776 -1.1265972
000150 7d 85 99 bf 8f 52 90 bf fa 5e 95 bf 23 af 96 bf
       -1.1993862 -1.1275195 -1.166961 -1.1772197
000160 b6 4d a8 bf 72 33 a4 bf ac 10 a9 bf 22 c7 84 bf
       -1.3148715 -1.28282 -1.3208213 -1.037327
000170 7f 98 9e bf c8 e8 af bf c7 43 a2 bf a0 59 4a bf
       -1.2390288 -1.3742914 -1.2676934 -0.79043007
000180 d8 7b 9b bf f1 3e a2 bf 86 cc ab bf 4d 22 b1 bf
       -1.2147169 -1.2675458 -1.3421791 -1.3838593
000190 63 a9 9c bf 8a 8d a9 bf 2a 57 b4 bf 8b a7 a7 bf
       -1.2239193 -1.3246319 -1.40891 -1.3098005
0001a0 53 9c 93 bf 5a 1c 81 bf e2 09 9f bf 8d 9d 73 bf
       -1.1532081 -1.0086777 -1.2424891 -0.9516228
0001b0 e9 59 a5 bf e6 e2 99 bf e4 65 ad bf c9 d9 88 bf
       -1.2918063 -1.2022369 -1.354672 -1.0691463
0001c0 20 ba a6 bf 43 e9 a8 bf a0 86 a0 bf 6f f6 ac bf
       -1.3025551 -1.3196186 -1.2541084 -1.3512706
0001d0 77 1e 95 bf 81 28 a1 bf 38 45 58 bf 4d 91 9c bf
       -1.1649922 -1.2590486 -0.8448062 -1.2231842
0001e0 23 ae 92 bf 8f ee 96 bf 42 0e 93 bf 1a 3d a6 bf
       -1.1459392 -1.1791552 -1.1488726 -1.2987397
0001f0 c8 2e af bf d0 e4 90 bf 94 c2 14 c0 64 91 9e bf
       -1.3686152 -1.1319828 -2.324376 -1.238812

input_layer.bias_log_sigma f4 [128]
000000 7d 70 ec bf 43 65 08 c0 d1 02 10 c0 b7 27 0e c0
       -1.8471829 -2.1311805 -2.250172 -2.221174
000010 75 e5 ff bf eb ac 09 c0 95 f2 07 c0 07 b2 ec bf
       -1.99919 -2.151179 -2.124181 -1.849183
000020 57 15 0b c0 a1 48 06 c0 73 bd 01 c0 17 d8 00 c0
       -2.1731775 -2.098183 -2.027188 -2.013189
000030 f1 da e8 bf fa 48 de be eb ac 09 c0 0f af 04 c0
       -1.8191816 -0.43415052 -2.151179 -2.0731847
000040 6b c5 0d c0 41 67 0b c0 f6 a4 3f be 0b 5a f3 bf
       -2.2151744 -2.178177 -0.18715271 -1.9011854
000050 7b 48 0e c0 9b 1d 07 c0 45 94 0d c0 d0 7a f3 bf
       -2.2231739 -2.111182 -2.2121747 -1.9021854
000060 74 3b fe bf f9 2a f6 bf 6f c1 07 c0 0b 82 02 c0
       -1.9861894 -1.9231864 -2.1211812 -2.0391872
000070 c9 77 03 c0 7f 75 10 c0 f3 2e ec bf 36 74 1c bf
       -2.054186 -2.2571714 -1.8451828 -0.61114824
000080 f4 bb 86 be e3 52 05 c0 b0 c4 ff bf 77 1b 0c c0
       -0.26315272 -2.083184 -1.9981899 -2.1891763
000090 35 e0 04 c0 c3 4c 04 c0 47 e3 f4 bf 6f f2 0f c0
       -2.0761845 -2.0671852 -1.913186 -2.249172
0000a0 59 0b 26 be 61 3c 04 c0 8b 22 48 c0 23 85 fa bf
       -0.16215266 -2.0661852 -3.1271083 -1.957188
0000b0 d7 2d 0f c0 c3 d8 dd bf 6c d6 b5 be 3b 0b 04 c0
       -2.2371728 -1.7331775 -0.35515153 -2.0631855
0000c0 33 d6 b2 bf cd 7c ee bf 40 26 c3 be 0f e0 0c c0
       -1.3971618 -1.8631836 -0.3811512 -2.2011755
0000d0 65 69 06 c0 63 6b 09 c0 17 d8 00 c0 31 b3 02 c0
       -2.1001828 -2.1471794 -2.013189 -2.042187
0000e0 f3 06 0e c0 cf 04 13 c0 6b c5 0d c0 9f 7a e3 bf
       -2.2191741 -2.2971685 -2.2151744 -1.7771796
0000f0 db f8 00 c0 0b b3 0a c0 4b bf 0c c0 21 6c d6 bf
       -2.015189 -2.167178 -2.1991756 -1.6751748
000100 70 93 f7 bf bd 52 0d c0 93 47 f0 bf 13 6f 1f c0
       -1.9341869 -2.208175 -1.8771843 -2.4911544
000110 0c 3f d4 bf 97 21 0d c0 07 b2 ec bf ed db 0e c0
       -1.658174 -2.2051752 -1.849183 -2.2321732
000120 1f 32 05 c0 b9 f9 ed bf 75 e5 ff bf 3b 0b 04 c0
       -2.0811841 -1.8591834 -1.99919 -2.0631855
000130 09 06 f0 bf 63 3a 01 c0 db f8 00 c0 47 61 02 c0
       -1.8751842 -2.0191886 -2.015189 -2.0371873
000140 94 b1 af be 0b b3 0a c0 8e ad 99 be 3b 26 c0 bf
       -0.3431517 -2.167178 -0.30015224 -1.5011667
000150 2d ad 6b be 5c 10 f7 bf 73 91 fc bf 1d 89 f0 bf
       -0.2301528 -1.9301867 -1.9731888 -1.8791844
000160 a7 2e 06 bf 9b 97 fd bf 25 4f bc bf f3 d5 05 c0
       -0.52414936 -1.9811891 -1.4711653 -2.0911834
000170 d1 ee 70 bf 0f 6c 10 bf d3 78 f8 bf c2 f3 fc bf
       -0.94114405 -0.56414884 -1.9411873 -1.9761889
000180 2f e6 0d c0 cf d3 0a c0 0f 3d d9 bf bb 54 10 c0
       -2.2171743 -2.1691778 -1.6971759 -2.2551715
000190 f7 02 08 c0 19 e1 e9 bf 9b 4e 0f c0 c1 4e 07 c0
       -2.125181 -1.8271819 -2.2391727 -2.1141818
0001a0 b9 25 0b c0 39 5c fe bf d7 2d 0f c0 32 b6 f2 bf
       -2.1741774 -1.9871894 -2.2371728 -1.8961852
0001b0 4d 1a de bf bf f5 f7 bf 97 f0 04 c0 bf f5 f7 bf
       -1.7351776 -1.9371871 -2.0771844 -1.9371871
0001c0 87 6d 04 c0 99 95 b6 bd 72 e7 fa bf 60 b8 fd bf
       -2.069185 -0.08915252 -1.9601882 -1.9821892
0001d0 6f c1 07 c0 1f 94 15 c0 5a 53 b5 be 97 65 b5 bf
       -2.1211812 -2.3371656 -0.35415155 -1.4171628
0001e0 a3 46 03 c0 68 01 bd be 55 6a eb bf a5 a6 10 c0
       -2.0511863 -0.36915135 -1.8391825 -2.2601712
0001f0 1b 36 0b c0 5d 40 0a c0 11 c8 3f bf 1d 89 f0 bf
       -2.1751773 -2.1601784 -0.7491465 -1.8791844

hidden1_layer.weight_mu f4 [128, 128]
000000 d7 65 3d bf a3 6a 7f bf 37 1f 72 bf fe 5c 45 bf
       -0.7398352 -0.9977209 -0.9457888 -0.7709502
000010 27 f7 1d bf 30 49 61 bf cf 8e 42 bf 73 ff 59 bf
       -0.6170525 -0.880023 -0.7599916 -0.8515541
000020 c9 6f 82 bf f9 34 0d bf cf 35 4f bf 48 1f 6c bf
       -1.0190364 -0.55158955 -0.8094148 -0.9223523
000030 24 1e 7f bf 24 44 5b be e1 78 6b bf c2 a0 6a bf
       -0.99655366 -0.21412712 -0.9198132 -0.91651547
000040 ec 91 67 bf ed 91 5a bf 3c 54 4a bf 31 d2 00 3f
       -0.90457034 -0.85378915 -0.7903478 0.50320727
000050 13 99 78 bf 83 cb 86 bf 0b 3c 64 bf 81 2e 4d bf
       -0.9710857 -1.0530857 -0.8915412 -0.80149084
000060 5e 52 09 bf 34 49 05 bf 91 ec 7f bf 73 c4 61 bf
       -0.5364131 -0.52064824 -0.99970347 -0.8819038
000070 4e 2a 59 bf 16 ba 5b bf ce 8c 4d bf 4f c6 78 bf
       -0.84830177 -0.8583082 -0.80292976 -0.97177595
000080 c3 88 75 bf 15 e7 70 bf 63 4f 28 bf 78 ad 6f bf
       -0.95911807 -0.94102603 -0.65746135 -0.9362407
000090 4b 03 71 bf 31 57 9c 3a 52 d9 47 bf 76 ec 1d 3f
       -0.9414565 0.001192784 -0.7806598 0.61688936
0000a0 c4 2d 6a bf 52 12 e7 be 2e 63 5e bf eb fc 40 bf
       -0.9147608 -0.45131165 -0.86870086 -0.7538592
0000b0 b9 7b 15 bf b3 74 40 bf 3f f8 2b bf d3 bd 75 bf
       -0.5839191 -0.7517807 -0.6717567 -0.95992774
0000c0 dd e1 7b bf 73 d7 ad bb 46 e9 5d bf 17 27 60 bf
       -0.98391515 -0.0053052246 -0.8668407 -0.87559646
0000d0 33 6b 5a bf 78 71 8e bf 63 26 35 bf 63 52 69 bf
       -0.85319823 -1.1128378 -0.707617 -0.9114134
0000e0 8a f5 61 bf f2 59 5a bf 3f 8e 5e bf a3 34 25 bf
       -0.8826529 -0.85293496 -0.869358 -0.6453344
0000f0 41 3c 4b bf 65 25 4d bf 15 aa 8b bf 60 7a ba be
       -0.79388815 -0.80135185 -1.091128 -0.3642149
000100 4a d3 73 bf 03 c0 4b bf 3b d2 53 bf 19 4c 3a bf
       -0.95244277 -0.7958986 -0.8274266 -0.72772366
000110 0f a4 37 bf 91 3f 28 bf 17 18 71 bf 06 64 37 bf
       -0.7173471 -0.65721995 -0.94177383 -0.71637
000120 81 49 84 bf 39 38 60 bf 71 cd 66 bf e1 8f 49 bf
       -1.0334932 -0.8758579 -0.9015723 -0.78735167
000130 ca ae 6b bf 25 ff 40 bf 01 3e 77 bf 11 10 70 bf
       -0.9206358 -0.7538932 -0.96578985 -0.93774515
000140 5f 17 61 bf a7 4b 63 bf 7c 6c fd be b9 3d 84 bf
       -0.87926286 -0.8878731 -0.4949683 -1.0331336
000150 4e 5a 75 bf 6f 7c 74 bf 89 61 3b bf f2 81 63 bf
       -0.9584092 -0.9550237 -0.731957 -0.88870156
000160 c9 03 45 bf 4e 5c 45 bf e9 69 81 bf 9f 99 22 bf
       -0.769589 -0.7709397 -1.0110446 -0.6351566
000170 f8 6f 75 bf 05 62 66 bf 21 21 73 bf 57 38 50 bf
       -0.95873976 -0.89993316 -0.94972426 -0.8133597
000180 d6 c5 5c bf 3b cb 84 bf 2b 75 57 bf 61 a3 73 bf
       -0.86239374 -1.0374521 -0.8416316 -0.9517117
000190 b0 67 e0 3e eb 35 76 bf 6f 8d 48 bf 0c 47 45 bf
       0.43829107 -0.9617602 -0.7834081 -0.77061534
0001a0 ae 92 29 bf 96 17 7b bf 12 b2 6c bf 32 f0 5f bf
       -0.6623944 -0.98082864 -0.92459214 -0.87475884
0001b0 ea 9f 52 bf 52 06 56 bf 8a 5e 45 bf 82 5a 5b bf
       -0.8227526 -0.83603394 -0.7709738 -0.8568498
0001c0 f0 9a 40 bf 52 7e 7e bf 47 71 5b bf 2a 93 7a bf
       -0.75236416 -0.994115 -0.8571972 -0.97880805
0001d0 d2 7b 24 bf 7e ee 60 bf 2a 25 5a bf 1e 9a 7a bf
       -0.64251435 -0.8786391 -0.8521296 -0.97891414
0001e0 fe 7e 60 bf 84 96 43 bf 4e 45 c4 bc d9 31 63 bf
       -0.87693775 -0.76401544 -0.023958828 -0.88747936
0001f0 05 f4 6f bf 6e 54 1d bf 2e d5 9e bd 38 c0 44 bf
       -0.9373172 -0.61456954 -0.077555045 -0.768558
000200 c7 ea 55 bf cb e0 50 bf 41 48 51 bf 4b 88 5b bf
       -0.83561367 -0.81593007 -0.81750876 -0.8575484
000210 00 67 65 bf 06 12 54 bf 27 7d 2d bf 1b 8e 5d bf
       -0.8961029 -0.8284 -0.6776909 -0.8654496
000220 b7 47 62 bf 00 d7 08 bf 8c 5f 72 bf 85 72 68 bf
       -0.8839068 -0.53453064 -0.9467704 -0.9079974
000230 14 12 64 bf 9c 74 74 bf c7 53 3f bf 90 b7 5c bf
       -0.89090085 -0.9549043 -0.7473721 -0.86217594
000240 b3 53 55 bf e7 ae 63 bf e4 90 4e bf b3 4c 55 bf
       -0.8333084 -0.88938755 -0.80689836 -0.8332016
000250 91 38 81 bf ed 49 79 bf 99 58 86 bf 06 aa 83 bf
       -1.0095388 -0.97378427 -1.0495788 -1.0286262
000260 1f 5b 50 bf 52 58 4d bf f8 20 85 bf f3 d6 56 bf
       -0.8138904 -0.8021289 -1.0400686 -0.83921736
000270 5a 88 ed be b4 e7 5c bf f7 31 1e bf f6 9c 26 bf
       -0.4639309 -0.8629105 -0.6179499 -0.65083253
000280 bd 40 85 bf a1 14 6f bf 5f f9 80 bf 4b cb 65 bf
       -1.0410382 -0.9339085 -1.0076102 -0.89763325
000290 93 83 83 bf db 37 3d bf b1 98 4c bf f2 9a 43 bf
       -1.0274528 -0.73913354 -0.7992049 -0.764083
0002a0 73 78 5c bf 79 e0 89 bf b9 a5 62 bf 6e c3 5f bf
       -0.8612129 -1.0771629 -0.8853412 -0.8740758
0002b0 6a 5c 4b bf 1a 9e 51 bf 0e 29 43 bf 1e ff 88 bf
       -0.7943789 -0.8188187 -0.7623452 -1.0702856
0002c0 c3 f1 44 bf 55 1e 64 bf 88 d1 49 bf dc fe 3a bf
       -0.769314 -0.89108783 -0.78835344 -0.73045135
0002d0 39 55 7c bf 2d f3 7d bf e9 00 5a bf 0b 90 83 bf
       -0.9856754 -0.9919918 -0.8515764 -1.0278333
0002e0 18 87 69 bf 4c 3e 5c bf 9d 00 73 bf 33 cc 68 bf
       -0.9122176 -0.8603256 -0.9492281 -0.90936583
0002f0 44 d8 20 bf 47 3c 65 bf 17 00 85 bf db fb 32 bf
       -0.62829995 -0.895451 -1.0390652 -0.6991555
000300 15 d4 6d bf 30 03 61 bf cc 98 52 bf ed 67 57 bf
       -0.92901736 -0.8789549 -0.822644 -0.84142953
000310 99 76 70 bf 60 9d 3e bf db d7 4f bf af 10 5e bf
       -0.93930966 -0.74458885 -0.81188744 -0.8674421
000320 d0 3d 88 bf c1 40 67 bf 47 3d 4f bf 3f a9 76 bf
       -1.0643864 -0.9033318 -0.80952877 -0.96352
000330 c7 78 80 bf 61 70 58 bf 98 3e 70 bf ae b7 88 bf
       -1.0036858 -0.84546477 -0.9384551 -1.0681055
000340 dd b2 74 bf 01 3f 4b bf a4 16 6a bf 0c 5c 62 bf
       -0.95585424 -0.7939301 -0.91440797 -0.884217
000350 c3 a8 5f bf 6c 00 68 bf dd f6 56 bf 3b cb 65 bf
       -0.87366885 -0.90625644 -0.83970433 -0.8976323
000360 89 c0 64 bf a2 da 45 bf fd cd 65 bf bc 9e 55 bf
       -0.89356285 -0.7728673 -0.8976744 -0.83445334
000370 89 94 5d bf b0 02 77 bf a1 c0 54 bf 15 d4 41 bf
       -0.8655477 -0.96488476 -0.8310643 -0.75714236
000380 bf 59 57 bf d7 10 5c bf f6 13 57 bf f2 cb 81 bf
       -0.84121317 -0.85963196 -0.8401483 -1.0140364
000390 ff 7e 80 bf eb e0 69 bf da 53 46 bf f5 62 7f bf
       -1.0038756 -0.9135882 -0.774717 -0.9976037
0003a0 54 41 44 bf 69 75 83 bf 9e de 64 bf b4 a2 40 bf
       -0.7666218 -1.0270206 -0.89402187 -0.75248265
0003b0 c2 99 69 bf 04 9f 6b bf 8d 02 59 bf fb 24 73 bf
       -0.9125024 -0.92039514 -0.8476952 -0.949783
0003c0 fa 9f 53 bf e2 aa 69 bf 8c 76 4a bf c7 cc 7d bf
       -0.8266598 -0.9127637 -0.7908714 -0.9914059
0003d0 f4 f3 78 bf 34 6e 85 bf 71 3a 82 bf 22 86 76 bf
       -0.9724724 -1.0424256 -1.0174085 -0.9629842
0003e0 85 61 2b bf ff 7c 83 bf 90 49 5e bf f8 e8 5e bf
       -0.6694568 -1.0272521 -0.86831 -0.8707423
0003f0 5b 26 37 bf ba 81 60 bf 22 4c 72 bf ab 69 29 bf
       -0.715429 -0.8769795 -0.9464742 -0.6617686

hidden1_layer.weight_log_sigma f4 [128, 128]
000000 85 36 b8 bf 48 d0 b4 be 05 7c 63 be 26 20 39 bf
       -1.4391638 -0.35315156 -0.22215278 -0.7231468
000010 b2 da 02 bf 5f 84 ba bf 2e a3 c2 be 00 c4 b2 be
       -0.5111495 -1.4571646 -0.3801512 -0.3491516
000020 23 c0 d9 bf b2 b3 9a be e0 1b ec be eb de de bf
       -1.701176 -0.30215222 -0.46115017 -1.7411779
000030 08 6e a4 be 30 d8 ad bf 6d d0 d1 bf 1f 18 d3 bf
       -0.32115197 -1.35816 -1.6391732 -1.6491736
000040 19 e1 e9 bf b8 8a cb bf 88 32 c5 be 2d 9f c9 bf
       -1.8271819 -1.5901709 -0.38515115 -1.5751702
000050 d9 af e1 bf 4b c6 da bf 69 fb 12 bf e0 55 ed bf
       -1.763179 -1.7091764 -0.5741487 -1.8541832
000060 d7 f4 4c be 78 de e1 be 59 12 f2 bf 82 d4 8a be
       -0.20015274 -0.44115043 -1.8911849 -0.27115256
000070 ba a3 ef bf 9c 5b a1 be 8b 32 c2 bf c3 d8 dd bf
       -1.872184 -0.31515205 -1.5171674 -1.7331775
000080 9d 26 e0 bf 78 7c 08 bf 6c 26 d0 bf 7c b3 da be
       -1.7511784 -0.53314924 -1.6261725 -0.4271506
000090 4d 5f 09 be b4 6b f9 be cd b7 cd bf e4 67 a3 be
       -0.1341526 -0.48714983 -1.6071717 -0.319152
0000a0 86 e0 63 bf 62 86 e8 be 30 d8 72 be e4 f0 e4 be
       -0.8901447 -0.45415026 -0.23715281 -0.44715035
0000b0 a0 30 9a be e3 8e d1 bf 07 ed cb bf e1 ff ee bf
       -0.30115223 -1.637173 -1.593171 -1.8671838
0000c0 5c 82 d2 be f1 50 a7 bf c0 61 a2 be 5d ba f8 bf
       -0.4111508 -1.3071576 -0.31715202 -1.9431874
0000d0 90 82 92 be a5 76 ed bf 41 22 ca bf 78 7c 08 bf
       -0.28615236 -1.8551832 -1.5791703 -0.53314924
0000e0 41 e7 ea bf 42 f3 06 bf ed 32 e2 bf 4c cc 15 bf
       -1.8351823 -0.5271493 -1.7671791 -0.5851486
0000f0 18 72 31 bf 05 5e e9 bf 30 d8 72 be 14 9d 38 bf
       -0.6931472 -1.8231817 -0.23715281 -0.7211468
000100 40 78 c8 bf 8a d8 a0 be 27 a3 bf bf 03 45 c5 bf
       -1.5661697 -0.31415206 -1.4971665 -1.5411686
000110 4c 70 dc bf 21 6c d6 bf a5 b1 cc bf 3a 41 df bf
       -1.722177 -1.6751748 -1.5991713 -1.744178
000120 3b 26 c0 bf 99 7e d9 bf 28 9f ac be 19 e1 e9 bf
       -1.5011667 -1.699176 -0.33715177 -1.8271819
000130 39 97 dd bf 9e b1 26 bf 46 07 50 be a1 ce e6 bf
       -1.7311774 -0.6511477 -0.20315275 -1.8031808
000140 b5 51 e7 bf 33 60 f4 bf 22 16 d8 bf c5 2c e1 bf
       -1.807181 -1.9091858 -1.6881754 -1.7591788
000150 54 c0 e9 bf 02 f3 cf be d9 ea c0 bf 3c 51 ca be
       -1.8261819 -0.40615088 -1.507167 -0.39515102
000160 46 39 f3 bf 8f 9f e9 bf 0b 0b 91 bf fc ee b9 be
       -1.9001853 -1.8251818 -1.1331495 -0.36315143
000170 55 a5 ca bf 80 1f 8f bf f0 96 37 bf fa bf 9c be
       -1.5831705 -1.1181488 -0.7171469 -0.30615216
000180 00 4d f4 be c7 80 e4 bf 11 91 dc bf 25 8a 9b bf
       -0.47714996 -1.78518 -1.7231771 -1.2151533
000190 30 49 9e be 34 05 25 be 66 82 49 bf 5e 28 ae be
       -0.30915213 -0.16115266 -0.787146 -0.34015173
0001a0 84 c7 95 bf 19 e1 e9 bf fb b9 d8 bf e0 55 ed bf
       -1.1701512 -1.8271819 -1.6931757 -1.8541832
0001b0 41 22 ca bf e1 75 ad bf 67 d4 c7 bf 9a 96 12 be
       -1.5791703 -1.3551599 -1.5611695 -0.14315262
0001c0 bd dc d3 bf fc 15 22 bf 10 22 ba bf 0e 58 f8 bf
       -1.6551739 -0.63314795 -1.4541645 -1.9401872
0001d0 85 c0 f9 bf 3b eb e0 bf d5 0d 16 bf 31 0c f1 bf
       -1.9511877 -1.7571787 -0.58614856 -1.8831846
0001e0 85 36 b8 bf 21 a7 b5 bf 04 99 ab be e8 1b b9 bf
       -1.4391638 -1.4191629 -0.3351518 -1.4461641
0001f0 a3 5d c9 bf 9e 0b c1 bf 6b 58 26 c0 62 a3 82 be
       -1.5731701 -1.508167 -2.5991466 -0.25515276
000200 69 28 cb bf 3b 26 c0 bf b6 fb e8 bf 5f 49 db bf
       -1.5871707 -1.5011667 -1.8201816 -1.7131766
000210 ef c1 c4 bf f1 15 c8 bf a2 b3 c7 bf 48 59 f6 be
       -1.5371684 -1.5631696 -1.5601695 -0.4811499
000220 a3 5d c9 bf fa 0f d7 bf 67 99 e8 bf 45 8f f1 bf
       -1.5731701 -1.6801751 -1.8171815 -1.8871847
000230 73 cc db bf 37 30 2c be 25 14 dd bf b8 b7 b0 be
       -1.7171768 -0.16815268 -1.7271773 -0.34515166
000240 6f 24 d5 bf 18 37 e8 bf 57 be ee bf 5b a1 d4 bf
       -1.6651744 -1.8141813 -1.8651837 -1.6611742
000250 43 3b ee bf f4 6b 30 bf 8a 4d e1 bf 9e d0 e1 bf
       -1.8611835 -0.68914723 -1.7601788 -1.764179
000260 ae e6 ba bf bf 30 d7 bf d3 ee b6 bf 18 72 31 bf
       -1.4601648 -1.6811751 -1.4291633 -0.6931472
000270 7c 01 ca bf 26 20 39 bf c0 88 0a bf f3 a4 aa bf
       -1.5781703 -0.7231468 -0.54114914 -1.3331589
000280 c4 f0 76 be b7 a5 ea bf 2c ba e8 bf 88 32 c5 be
       -0.24115282 -1.8331822 -1.8181815 -0.38515115
000290 1f 49 35 bf e7 36 d8 bf 79 03 c5 bf 1f 53 b2 bf
       -0.708147 -1.6891755 -1.5391685 -1.3931617
0002a0 22 16 d8 bf 28 45 88 be 30 49 9e be 24 ca b3 be
       -1.6881754 -0.26615262 -0.30915213 -0.3511516
0002b0 4c a5 ad be 7c 2a 99 be 12 ed 8e be f1 da e8 bf
       -0.33915174 -0.29915226 -0.27915245 -1.8191816
0002c0 56 a5 24 bf 53 51 c7 bf 43 76 cd bf f1 15 c8 bf
       -0.6431478 -1.5571693 -1.6051716 -1.5631696
0002d0 e0 90 cc bf 2a 82 64 be 12 ed 8e be c6 d6 e2 bf
       -1.5981712 -0.22315279 -0.27915245 -1.7721794
0002e0 65 80 c4 bf e7 ac 96 bf f9 65 d5 bf a9 13 77 bf
       -1.5351683 -1.1771516 -1.6671745 -0.96514374
0002f0 f5 f8 ad bf 0e fd 78 be 31 47 d0 bf d4 3a 28 bf
       -1.3591601 -0.24315283 -1.6271726 -0.65714765
000300 7e 1a ee bf ff 25 55 be 1a 18 0d bf 8e 5d 43 bf
       -1.8601835 -0.20815276 -0.551149 -0.7631463
000310 8e 6b a6 bf 2d da a8 bf e1 3a ce bf f2 bf c9 bf
       -1.3001573 -1.3191582 -1.6111718 -1.5761702
000320 ef c1 c4 bf 0e 18 96 be 56 e0 1e be 3d 7a c3 bf
       -1.5371684 -0.29315227 -0.15515265 -1.5271679
000330 97 a0 94 bf 73 07 bb bf 28 9f ac be c0 61 a2 be
       -1.1611508 -1.4611648 -0.33715177 -0.31715202
000340 0c 6a 05 bf e1 3a ce bf c6 d6 e2 bf 75 20 df bf
       -0.5211494 -1.6111718 -1.7721794 -1.743178
000350 16 1e c4 bf d0 7a f3 bf 16 c2 87 be 19 e1 e9 bf
       -1.5321681 -1.9021854 -0.26515263 -1.8271819
000360 4c 70 dc bf 68 01 bd be d7 5b de bf 48 59 f6 be
       -1.722177 -0.36915135 -1.7371777 -0.4811499
000370 df e6 ca bf 68 7e c9 bf f9 65 d5 bf d6 ec bb bf
       -1.5851706 -1.5741701 -1.6671745 -1.4681652
000380 f3 df 89 bf dd 57 e8 bf 8e 5d 43 bf 2d 64 ea bf
       -1.0771469 -1.8151814 -0.7631463 -1.8311821
000390 8f 9f e9 bf 18 72 31 bf ee c9 f3 be be 86 d5 bf
       -1.8251818 -0.6931472 -0.47614998 -1.6681745
0003a0 a0 5f c4 bf 9f f0 a1 bf a5 76 ed bf dc 63 8d be
       -1.5341682 -1.2651557 -1.8551832 -0.2761525
0003b0 15 39 e3 bf ee 67 1a bf bf 6b b6 bf 15 39 e3 bf
       -1.7751795 -0.60314834 -1.4251631 -1.7751795
0003c0 07 ed cb bf 75 20 df bf 9c b7 bd bf 70 51 8a be
       -1.593171 -1.743178 -1.4821658 -0.27015257
0003d0 ab ad d6 bf d8 e8 b8 be 12 76 bd bf 7f c4 ef bf
       -1.6771749 -0.36115146 -1.4801657 -1.8731841
0003e0 14 9d 38 bf 0b 95 d2 bf c1 bf b9 bf a0 5f c4 bf
       -0.7211468 -1.6451734 -1.4511644 -1.5341682
0003f0 41 22 ca bf ed 94 2c bf 08 6e a4 be 66 82 49 bf
       -1.5791703 -0.6741474 -0.32115197 -0.787146

hidden1_layer.bias_mu f4 [128]
000000 0a 08 b1 3f 77 f0 88 bf 1e 01 9a 3f 72 73 21 3f
       1.3830578 -1.0698384 1.2031591 0.6306678
000010 57 03 72 bf 16 a7 97 3f 71 f4 c2 3f 5e 0a 8a bf
       -0.94536346 1.1847866 1.5230848 -1.0784414
000020 f0 ac b0 bf 56 91 d8 3e dc 55 8c be 3e f6 7d bf
       -1.3802776 0.42298383 -0.27409256 -0.9920386
000030 39 de c6 3f 21 3d 7f bf 3e 9b f3 be aa c5 d6 bf
       1.5536567 -0.9970265 -0.47579378 -1.6779072
000040 60 54 16 c0 c8 aa d8 bf 6e bb a1 3f ba 56 6d bf
       -2.3488998 -1.6927118 1.2635324 -0.9271046
000050 a8 ee 5f bf e8 0d 7b bf cc 54 6f bf 37 1a 10 c0
       -0.87473536 -0.98068094 -0.93488765 -2.2516
000060 cf a0 02 3f 8c e9 a4 be e6 c9 86 be 40 9c a0 bf
       0.51026624 -0.32209432 -0.2632591 -1.2547684
000070 f7 6f 00 bf c6 4a d4 3e ea 8d 0c 3f 91 7a 6b bf
       -0.50170845 0.41463298 0.54904044 -0.91983896
000080 97 b4 72 be 4b ae 77 bf 15 c1 8f 3f c2 d4 d3 bf
       -0.23701702 -0.96750325 1.1230799 -1.6549304
000090 32 b8 a3 3f d4 0b 17 3f 95 56 69 bf 9e 48 f6 be
       1.2790587 0.59002423 -0.9114774 -0.48102278
0000a0 dc b1 f5 3e 70 92 8d 3f 3d 3b b8 3f 98 4d 4b bf
       0.47987258 1.1060314 1.4393078 -0.79415274
0000b0 41 d7 8d 3d 5e 96 d2 3f 0f e7 45 3f d4 bc a7 3e
       0.06925822 1.6452138 0.7730569 0.32761252
0000c0 28 c2 5e bf 38 1a f9 3f 90 50 93 bf 7c d0 5a bf
       -0.8701501 1.9461126 -1.1508961 -0.8547437
0000d0 d9 1f 1c 3d 23 08 93 3f 0e aa 70 bf f8 66 83 bf
       0.03811631 1.1486858 -0.9400948 -1.0265799
0000e0 73 aa 76 bf 44 e0 ba be d5 a5 3c c0 cc 55 03 3f
       -0.96353835 -0.36499226 -2.9476216 0.5130279
0000f0 ed 06 84 bf e6 f4 03 3e 21 41 77 bf b2 9f 83 bf
       -1.0314614 0.1288639 -0.96583754 -1.028311
000100 4c 0d 9a 3e b3 be 95 bf 4d 02 87 3f e4 2e 99 3e
       0.3008827 -1.1698822 1.0547577 0.29918587
000110 f2 58 44 bf a5 4d 84 3f 4f 0c 83 bf 49 61 e0 3f
       -0.7669822 1.0336195 -1.0238131 1.7529689
000120 6a 39 b1 bf 16 c1 72 bf 7d b1 27 be cd d7 61 3f
       -1.3845646 -0.94825876 -0.163763 0.8821991
000130 c3 cc 77 bf 8a a0 f5 bf eb 26 89 3f 47 4d 83 bf
       -0.96796817 -1.9189618 1.0715002 -1.0257958
000140 cc 68 de 3f 84 15 c7 be 0d 1c 86 bf 80 76 4f be
       1.7375731 -0.38883603 -1.047731 -0.20260048
000150 45 88 5c bf 96 53 a4 3f 62 64 da 3e af 57 6a bf
       -0.8614543 1.2838008 0.4265471 -0.91540045
000160 56 ab ff be 4a 2d 68 bf 7f 27 65 bf 28 20 a0 3f
       -0.49935406 -0.90694106 -0.8951339 1.2509813
000170 47 6c 6c bf 68 39 86 bf ce a9 13 be ea bc c2 bf
       -0.9235272 -1.0486269 -0.14420244 -1.5213902
000180 54 5b f1 bf 71 f5 80 bf 66 af 87 bf 28 c4 6f bf
       -1.8855996 -1.0074903 -1.0600402 -0.93658686
000190 1f 7f 5b bf 31 c1 8f 3f 4b 57 94 3f 7f 3d 75 bf
       -0.85740846 1.1230832 1.158914 -0.9579696
0001a0 56 e0 b1 be 53 50 b8 bf 12 6f 60 bf 1d 6a 53 bf
       -0.34741467 -1.4399513 -0.8766948 -0.8258379
0001b0 9c e8 81 bf 25 59 5b bd 82 0d 2a 3f 37 07 91 bf
       -1.0149112 -0.05355181 0.6642686 -1.1330327
0001c0 9b f5 1d 3f e4 ad b7 be 57 ef 61 3e 10 cb f5 be
       0.6170289 -0.35874856 0.22063957 -0.48006487
0001d0 e5 3a 7b bf 10 ca 80 bf d8 29 85 bf e1 3f a3 3f
       -0.9813674 -1.0061665 -1.0403395 1.2753869
0001e0 8c f8 cd 3f 2d 5a 2e bf eb 5a 68 bf d5 42 d7 3f
       1.6091475 -0.6810635 -0.9076373 1.681727
0001f0 d6 6f 87 bf 4f cf 85 bf 3a 35 b7 3f 5c 3c aa 3e
       -1.0581005 -1.045389 1.4313118 0.33249176

hidden1_layer.bias_log_sigma f4 [128]
000000 25 0a dd 3f 8b 32 c2 bf 74 93 0f 3f fd 8a 63 3f
       1.7268721 -1.5171674 0.5608437 0.88883954
000010 19 72 31 bf 72 76 75 3f 5d 26 b7 3f 87 8a bb bf
       -0.69314724 0.9588386 1.4308583 -1.465165
000020 ef a8 03 c0 0a 57 6a 3e a6 05 93 be c5 03 4b c0
       -2.057186 0.22884765 -0.28715247 -3.172105
000030 40 53 a9 3f 29 f7 c2 bf 17 55 6b c0 85 fb d8 bf
       1.3228531 -1.5231677 -3.6770685 -1.6951758
000040 96 3a f1 be 61 9d de bf 05 88 0b c0 25 8a 9b bf
       -0.4711501 -1.7391778 -2.180177 -1.2151533
000050 83 6c f6 bf a3 22 ea bf 69 ed eb bf 5b 42 0d c0
       -1.9251865 -1.829182 -1.8431827 -2.207175
000060 29 3b 56 3f 91 11 68 c0 67 8d 34 c0 5d f5 d7 bf
       0.8368402 -3.6260722 -2.8211305 -1.6871754
000070 19 72 31 bf c9 c6 be bd 1b 04 0d 3f 51 c2 e4 bf
       -0.69314724 -0.09315259 0.5508439 -1.7871801
000080 69 e2 6a c0 e5 17 4d bf 5e e6 2c 3e 3a 76 27 bf
       -3.670069 -0.80114585 0.16884753 -0.65414774
000090 a2 72 1f 3f e2 f3 eb 3e 97 ef f6 bf 03 bb 83 bf
       0.6228429 0.46084505 -1.9291867 -1.0291446
0000a0 37 e9 5d 3f 16 12 7a 3f 3c 08 03 3f f9 65 d5 bf
       0.8668398 0.97683847 0.5118444 -1.6671745
0000b0 84 bf 7b 3e e7 7c 16 3f dc 66 94 3e e9 ae 0c c0
       0.24584776 0.58784336 0.28984725 -2.1981757
0000c0 d3 b3 d7 bf 91 8c 60 bf ad 3c b9 bf 79 c8 e5 bf
       -1.6851753 -0.8771449 -1.4471642 -1.7951804
0000d0 5a c0 41 3f c8 40 a6 3f e3 53 f2 bf 39 97 dd bf
       0.7568413 1.298852 -1.893185 -1.7311774
0000e0 36 d4 b7 bf db bc 21 c0 1d 3a 8e bf cf 7e 41 3f
       -1.4361637 -2.5271518 -1.1111485 0.7558412
0000f0 85 36 b8 bf 08 28 00 be c9 d4 e7 bf 52 6c e6 bf
       -1.4391638 -0.1251527 -1.8111812 -1.8001807
000100 d3 dc 7b 3f a8 ea b0 bf de a4 4c 3e aa b2 8b 3e
       0.98383826 -1.3821611 0.19984767 0.27284747
000110 fb b9 d8 bf 3f ff a5 3f 34 45 d5 bf c6 78 20 3f
       -1.6931757 1.296852 -1.6661744 0.62684286
000120 27 a9 7a bf 09 06 f0 bf 46 4f b3 3f 52 bd 85 3f
       -0.97914356 -1.8751842 1.4008567 1.0448401
000130 4b 8b fb bf a1 09 c6 bf 91 f3 ec bf f2 84 ea bf
       -1.9651884 -1.5471689 -1.851183 -1.8321822
000140 30 5c 06 3f b3 ae 81 bf cf 0b d1 bf 83 04 23 c0
       0.52484417 -1.0131439 -1.6331729 -2.5471504
000150 f2 fa a8 bf 86 9b da 3f ef 21 7f be fa d4 f7 bf
       -1.3201582 1.7078712 -0.24915288 -1.936187
000160 87 b9 66 c0 e9 8a db bf 21 6c d6 bf 1e 7b 7a bd
       -3.6050737 -1.7151767 -1.6751748 -0.06115257
000170 56 8a ab bf c7 80 e4 bf 4b e5 3d c0 0b d0 b1 bf
       -1.3401592 -1.78518 -2.96712 -1.3891615
000180 77 1b 0c c0 31 82 af bf f3 2e ec bf 27 a3 bf bf
       -2.1891763 -1.3711606 -1.8451828 -1.4971665
000190 0c 56 05 3f 33 cc b2 3f 45 36 8f 3f 77 d6 2c bf
       0.5208442 1.3968567 1.1188437 -0.6751475
0001a0 2f 69 8b bf 2e 49 cb bf c5 e6 44 bf 6c 61 af bf
       -1.0891474 -1.5881708 -0.76914626 -1.3701606
0001b0 8f 9f e9 bf 17 3e 84 bf 67 40 86 3f e7 fb f8 bf
       -1.8251818 -1.0331448 1.0488404 -1.9451874
0001c0 7a 1a bc 3d ab ad d6 bf 9d a7 60 3d 79 05 4a bf
       0.091847375 -1.6771749 0.05484735 -0.789146
0001d0 19 72 31 bf f7 4c b1 bf f5 82 ef bf bc 28 53 3f
       -0.69314724 -1.3851613 -1.871184 0.8248403
0001e0 49 3d 97 3d 93 82 cf bf 67 d4 c7 bf b0 e5 be 3e
       0.07384736 -1.6211723 -1.5611695 0.37284613
0001f0 14 8f e1 bf 1b 35 ed bf d4 73 99 3f 09 7c ae bf
       -1.7621789 -1.8531832 1.1988473 -1.3631603

hidden2_layer.weight_mu f4 [128, 128]
000000 e6 fa 63 bf ec 1d 25 bf b2 90 6c bf 99 47 7b bf
       -0.89054716 -0.6449878 -0.9240829 -0.98156124
000010 5d ee 8a bf 37 24 64 bf c6 19 81 bf 09 f3 2b bf
       -1.0853993 -0.8911776 -1.008599 -0.6716772
000020 38 b7 69 bf 39 35 63 bf 20 36 45 bf 5c c9 46 bf
       -0.91295195 -0.88753086 -0.77035713 -0.77651
000030 02 75 60 bf 1b e8 5b bf 4c e9 72 bf 06 aa 58 bf
       -0.8767854 -0.8590104 -0.9488723 -0.84634435
000040 bf ca 77 bf 6b 3f 4c bf 2b b4 78 bf 5d 7c 72 bf
       -0.9679374 -0.7978427 -0.97149915 -0.94721013
000050 ae 8b 6c bf 70 bf 46 bf b9 45 66 bf 0a ea 63 bf
       -0.92400634 -0.7763586 -0.8995014 -0.8902899
000060 a3 61 b5 bf 0d 0e 60 bf da bb 5a bf d5 75 83 bf
       -1.4170421 -0.8752144 -0.8544289 -1.0270334
000070 cc 90 78 bf 8e bc 83 bf 46 a5 6d bf f3 01 2e bf
       -0.9709594 -1.0291917 -0.9283031 -0.67971724
000080 0b 11 4c bf 60 98 68 bf 24 ce 6d bf e1 db 8f bf
       -0.79713506 -0.90857506 -0.9289267 -1.1238977
000090 c8 69 60 bf 9a e3 ab bf 4a c5 74 bf 22 70 52 bf
       -0.8766141 -1.3428833 -0.9561354 -0.8220235
0000a0 05 e0 a8 bf fe ad 31 bf fd 24 7a bf 4c 7f 35 bf
       -1.3193365 -0.69406116 -0.9771269 -0.70897365
0000b0 e3 04 6c bf 9b ea 12 bf 27 cd 4f bf 21 23 65 bf
       -0.92194957 -0.5738923 -0.8117241 -0.8950673
0000c0 b0 81 51 bf 8e 12 a1 bf 47 d7 56 bf f7 de 6b bf
       -0.8183851 -1.2583787 -0.8392224 -0.9213709
0000d0 ac d6 59 bf b8 00 88 bf 59 7b 56 bf 95 91 84 bf
       -0.8509319 -1.0625219 -0.83781964 -1.0356928
0000e0 d8 dc 61 bf 1d aa 4e bf 9d f0 44 bf a3 9c 63 bf
       -0.88227606 -0.8072832 -0.76929647 -0.88910884
0000f0 fb 0b 59 bf 81 13 5c bf c3 c2 29 bf 7e 59 4c bf
       -0.84783906 -0.8596726 -0.6631281 -0.79824054
000100 61 6e 80 bf a7 03 59 bf 24 12 82 bf 3c fc 4d bf
       -1.0033685 -0.847712 -1.0161786 -0.80463004
000110 76 17 6c bf 92 85 95 bf 12 9a ad be 1c 9f 6b bf
       -0.922233 -1.1681387 -0.3390661 -0.92039657
000120 78 04 6b bf 1f fa 5a bf 88 09 7d bf ac fb 82 bf
       -0.91803694 -0.85537905 -0.9884267 -1.0233054
000130 11 d5 26 bf de c0 6b bf 68 16 11 bf 9f 95 6f bf
       -0.65168864 -0.92091167 -0.56674814 -0.9358768
000140 02 b0 81 bf 69 63 55 bf ee 81 54 bf a3 0a 5b bf
       -1.0131838 -0.8335481 -0.83010757 -0.85563105
000150 fd 37 69 bf 53 43 55 bf 97 9b 72 bf 84 05 29 bf
       -0.91101056 -0.83305854 -0.9476866 -0.6602404
000160 69 83 72 bf f3 03 82 bf cc 12 6d bf 9e 13 83 bf
       -0.94731766 -1.0157455 -0.92606807 -1.0240362
000170 56 17 2b bf 72 c4 4a bf a9 43 67 bf b1 3e 62 bf
       -0.6683248 -0.79206 -0.90337616 -0.8837691
000180 55 24 4a bf 5b c6 a4 bf 3f ae 48 bf 9f bc 21 be
       -0.7896169 -1.2873033 -0.7839088 -0.1579461
000190 a7 a3 74 bf e6 37 2c bf 98 9b 99 bf 81 8e 75 bf
       -0.95562214 -0.67272794 -1.2000608 -0.9592057
0001a0 0e 24 56 bf 39 b3 ab bf fc 12 66 bf 0d 42 8c bf
       -0.83648765 -1.341407 -0.8987272 -1.0957657
0001b0 06 5e 4f bf 8f aa 80 bf f6 eb 7b bf 5f 91 5c bf
       -0.81002843 -1.005205 -0.9840692 -0.8615932
0001c0 a6 79 85 bf 6b c2 69 bf d2 a4 58 bf 79 85 74 bf
       -1.0427749 -0.91312283 -0.84626496 -0.95516163
0001d0 fc 04 6b bf 36 22 6c bf d3 70 2c bf 89 6d 57 bf
       -0.9180448 -0.922397 -0.67359656 -0.8415151
0001e0 9d 86 02 bf 14 83 7b bf 54 9a 8c bf a1 52 7a bf
       -0.50986654 -0.98246884 -1.0984597 -0.9778233
0001f0 1a f5 83 bf e0 09 8a bf 74 cb dc b9 2a 93 d7 bf
       -1.0309174 -1.0784264 -0.00042113254 -1.6841786
000200 9f c3 6a bf bc f6 f4 be 23 fa 70 bf 83 86 5a bf
       -0.91704744 -0.47844493 -0.9413168 -0.853615
000210 30 ec 76 bf 61 a8 66 bf 79 40 76 bf 34 f2 77 bf
       -0.96454144 -0.90100676 -0.9619213 -0.9685395
000220 e2 fd 4e bf f3 78 40 bf 26 11 80 bf 4f 3b 60 bf
       -0.80856144 -0.75184554 -1.0005233 -0.875905
000230 98 c1 5a bf 84 d6 62 bf 4e ae 56 bf e9 c5 4b bf
       -0.8545165 -0.88608575 -0.8385972 -0.7959886
000240 ea 2e 6d bf 44 39 89 bf 13 5b 68 bf b9 46 14 bf
       -0.9264971 -1.0720601 -0.9076397 -0.57920414
000250 cd 30 64 bf 2a de 72 bf 50 1b 52 bf 98 99 7e bf
       -0.89136964 -0.94870245 -0.82072926 -0.99453115
000260 12 66 62 bf 74 07 6b bf 65 68 51 bf 2c 71 23 bf
       -0.88436997 -0.9180825 -0.8179992 -0.6384456
000270 74 9d 7a bf 09 7f 73 bf b5 9f 88 bf 33 0d 47 bf
       -0.97896504 -0.95115715 -1.0673739 -0.77754515
000280 b4 cc 89 bf 25 16 45 bf e6 a4 6a bf df d0 67 bf
       -1.0765595 -0.76986915 -0.91657865 -0.90553087
000290 8f d0 64 bf 53 3f 65 bf e1 de 56 bf ef 9e 85 bf
       -0.89380735 -0.8954975 -0.83933836 -1.0439128
0002a0 24 4a 49 bf 1f 51 40 bf c0 6d 4b bf 33 ad 4f bf
       -0.78628755 -0.7512378 -0.7946434 -0.81123656
0002b0 a9 d4 6d bf 3f e0 8a bf a5 b4 50 bf 2f dc 7c bf
       -0.9290262 -1.0849684 -0.8152564 -0.98773474
0002c0 43 69 59 bf d5 da 80 bf 7e a6 41 bf a2 14 6c bf
       -0.8492624 -1.0066782 -0.7564467 -0.92218983
0002d0 b3 32 5f bf 39 0a 6d bf d9 61 86 bf ca d8 32 bf
       -0.87186736 -0.92593724 -1.0498611 -0.69862044
0002e0 0f 92 44 bf c3 33 74 bf 22 5c 1d bf 04 86 37 bf
       -0.7678537 -0.9539148 -0.6146871 -0.71688867
0002f0 79 36 62 bf c0 89 6a bf 4d 1f 4b bf ed 16 77 bf
       -0.8836437 -0.9161644 -0.79344636 -0.96519357
000300 8c c8 46 bf 22 38 55 bf 77 fa 15 bf 78 00 4b bf
       -0.7764976 -0.83288777 -0.58585304 -0.7929759
000310 35 14 4c bf ed d7 64 bf fd b3 5f bf 1d 5f 6e bf
       -0.79718333 -0.89391977 -0.87384015 -0.9311388
000320 51 d1 83 bf 7b c1 0d bf 5c 2a 45 bf 97 50 56 bf
       -1.0298253 -0.5537335 -0.7701776 -0.8371672
000330 2f b9 61 bf 5e 7d 75 bf 90 ee 86 bf ea f1 39 bf
       -0.8817319 -0.9589442 -1.0541553 -0.72634757
000340 44 64 8d 3e 7a 7e 62 bf 91 67 54 bf 1c 9b 69 bf
       0.2761556 -0.8847424 -0.8297053 -0.91252303
000350 3f 1e 70 bf 6c 71 67 bf d2 8e 8a bf 47 e7 7c bf
       -0.9379615 -0.90407443 -1.0824835 -0.987904
000360 de 64 78 bf c2 b9 59 bf 31 69 71 bf 93 04 76 bf
       -0.9702891 -0.8504907 -0.94301134 -0.9610073
000370 45 d2 64 bf 3f 34 20 3f 77 ef 70 bf 30 6d 75 bf
       -0.89383346 0.6257972 -0.94115394 -0.9586973
000380 84 d2 5e bf 85 0d 2f bf e8 35 73 bf d0 48 4b bf
       -0.8703997 -0.68380004 -0.9500413 -0.7940798
000390 af 0b 61 bf 90 e8 5d bf 00 90 69 bf 41 34 60 bf
       -0.8790845 -0.8668299 -0.9123535 -0.87579733
0003a0 f1 53 55 bf ef b5 79 bf 98 2d 81 bf 19 e5 45 bf
       -0.8333121 -0.97543234 -1.0092039 -0.773027
0003b0 e2 13 3b bf 6f 50 57 bf 7e a5 7e bf 6e 39 5c bf
       -0.73077214 -0.84107107 -0.9947127 -0.8602513
0003c0 e7 5f 88 bf 66 ac 56 bf 66 37 59 bf 43 48 69 bf
       -1.0654267 -0.8385681 -0.84850156 -0.9112589
0003d0 b6 77 4d bf b4 d4 6f bf eb bd 4d bf 73 82 6b bf
       -0.8026079 -0.93683934 -0.80367917 -0.91995925
0003e0 49 5e 7b bf da de 63 bf ca 61 74 bf 51 66 44 bf
       -0.9819074 -0.8901192 -0.95461714 -0.7671862
0003f0 53 dd 3f bf 02 81 79 bf ea 1e 56 bf f0 ea 49 bf
       -0.7494709 -0.97462475 -0.8364092 -0.7887411
