model_stock/dynamic_small_evn_25_lr0.001_2100EP.pth (torch, 356269 bytes, 16 tensors)

input_layer.weight_mu f4 [128, 43]
000000 a5 fb 8a 3f 90 71 fd bf fa 47 bc bf f1 75 f8 bf
       1.0858046 -1.9800282 -1.4709466 -1.9410993
000010 7c 04 89 3f c3 b8 dc bf 41 e9 8f bf b5 2d ab 3d
       1.0704494 -1.7243885 -1.1243058 0.08358327
000020 2e cc 1b be 3c 9f 8a ba af 40 01 c0 08 af f0 39
       -0.15214607 -0.001057602 -2.019573 0.00045906776
000030 70 07 7a 39 78 8d 84 39 f4 ad 16 ba 00 38 c9 b5
       0.00023844629 0.00025282404 -0.0005747967 -1.4991965e-06
000040 fa 59 0f ba 10 c7 fa 38 49 2a 91 3f 96 83 de bf
       -0.00054684246 0.00011958007 1.134103 -1.7383907
000050 bf 2c c7 bf 50 61 ea bf 45 be 9a 3f df be e9 bf
       -1.556053 -1.8310947 1.2089316 -1.8261374
000060 d7 96 86 bf a0 99 49 38 ae 36 0c 3e 3c ff 95 ba
       -1.0514783 4.806521e-05 0.13692734 -0.0011443864
000070 49 c1 fa bf d4 22 f6 39 61 12 80 3a 45 a4 83 3a
       -1.9590236 0.00046946725 0.0009771102 0.0010043463
000080 80 8b db 37 d4 e7 84 b9 88 e5 5b 39 88 ad 11 b9
       2.6171794e-05 -0.00025349727 0.00020970975 -0.00013892923
000090 25 8a 9c 3f 01 db fd bf 96 b9 d7 bf b3 c8 dc 3f
       1.2229658 -1.983246 -1.6853511 1.7248749
0000a0 fa 31 ec bf ee 50 c6 3f 60 00 cf be 52 ef c4 3f
       -1.8452752 1.5493448 -0.40429974 1.5385535
0000b0 f7 a5 f9 bf 0c f1 e0 bf bc c6 08 c0 c2 e3 af 3f
       -1.9503773 -1.7573562 -2.1371298 1.3741381
0000c0 e3 cd 05 c0 c8 ac 9d bf ce 8d d0 bd 9d 30 17 be
       -2.0906913 -1.2318354 -0.10183297 -0.14764638
0000d0 bb 8b 02 bc 0c d6 07 c0 e1 91 9c ba 74 7c 91 b9
       -0.007967885 -2.1224394 -0.0011945331 -0.0002774928
0000e0 34 72 21 3a a4 db e2 39 c4 43 97 3a 40 b7 5d 38
       0.000615868 0.00043269724 0.0011540581 5.286117e-05
0000f0 10 77 b3 38 0b f9 a7 3f 54 4a f8 bf a4 9c ea bf
       8.557562e-05 1.3122877 -1.9397683 -1.8329053
000100 c1 fc 05 c0 3e 7d ac 3f 0a 3d fa bf f1 7f b6 bf
       -2.0935519 1.3475721 -1.9549878 -1.4257795
000110 97 7b 58 3d cc ee ae bc b1 a7 8b 3c 4c dd f8 bf
       0.05285224 -0.021354102 0.017047735 -1.9442534
000120 6a 30 12 3a 28 5e 09 b9 ea b7 20 3a fc 67 33 3a
       0.0005576672 -0.00013100414 0.0006130921 0.0006843803
000130 40 76 20 b8 78 13 a7 39 c4 45 d6 b9 bd 1a b6 3f
       -3.82571e-05 0.00031867228 -0.0004086924 1.422691
000140 c6 18 05 c0 00 6e dd bf 6c 01 7f 3f dd 2c f3 bf
       -2.079637 -1.7299194 0.99611545 -1.8998066
000150 41 5d 86 3f cc 39 b2 bf 79 37 91 3f f1 af e8 bf
       1.0497209 -1.3923888 1.1345054 -1.8178693
000160 08 76 d2 bf bc 89 f3 bf b3 4a 87 3f 5f a3 ed bf
       -1.644227 -1.9026408 1.0569671 -1.8565482
000170 8d 02 87 bf eb c8 b0 3d 2b 58 48 3d 20 db d8 38
       -1.0547653 0.08632072 0.04891221 0.00010340498
000180 37 0e 01 c0 7a 66 5e 3a 21 66 83 ba 54 84 1a 3a
       -2.0164926 0.0008483898 -0.0010024944 0.0005894352
000190 7c 13 19 3a ea 9d 02 3a bd e2 9b ba f4 0b 2d 3a
       0.000583939 0.00049826375 -0.0011893135 0.00066012074
0001a0 dc e4 8a 3f 07 11 e6 bf 6e 6c c3 bf 90 83 f5 bf
       1.0851092 -1.7973946 -1.5267465 -1.9180775
0001b0 71 d0 8a 3f 72 b6 e2 bf c3 cb 8f bf 1b 97 88 bc
       1.0844861 -1.7711928 -1.1234058 -0.016673615
0001c0 49 d5 98 3c c8 ce da 39 88 e5 f8 bf 92 bf 01 3a
       0.01865639 0.00041734264 -1.9445047 0.00049495057
0001d0 e8 c2 a3 b9 09 8b 85 3a 2a 9e 30 ba 34 45 78 ba
       -0.00031235 0.001018853 -0.00067374355 -0.0009470761
0001e0 e8 f0 f3 b9 c4 12 c1 b9 0d 2b 9d 3f d5 3a e6 bf
       -0.0004652806 -0.0003682581 1.2278763 -1.7986704
0001f0 c4 6e cb bf 8d bb ab 3f bb d3 dc bf 6c 74 ad 3f
       -1.5893178 1.3416611 -1.7252115 1.3551154
000200 9d 7e 8e 3f 9b 09 a7 3f 82 bf 02 c0 bf 30 e0 bf
       1.1132389 1.3049806 -2.0429387 -1.7514876
000210 dd ec 07 c0 63 94 a8 3f 2e d3 fb bf d6 97 a2 bf
       -2.123832 1.3170284 -1.9673822 -1.2702587
000220 1b e2 18 3d f3 4b 7b 3d 61 c8 ca 3c d3 d0 03 c0
       0.037325006 0.061351728 0.024753751 -2.0596206
000230 54 53 8b ba 80 aa a6 3a c0 a8 0a b8 78 49 dc b9
       -0.0010629692 0.0012715608 -3.3058925e-05 -0.00042016408
000240 8a 0f 07 3a aa 10 18 ba c2 62 4a 3a 8d 71 bb 3f
       0.0005152157 -0.0005800823 0.00077204045 1.4644028
000250 da e0 02 c0 23 34 e0 bf af fa 06 c0 50 e8 c1 3f
       -2.0449739 -1.7515911 -2.1090505 1.5149021
000260 d2 91 05 c0 1b f2 a5 bf e5 cf a1 3d 35 50 06 3e
       -2.0870252 -1.296451 0.07900981 0.13116534
000270 da 2a d1 bc d9 39 fc bf 42 ab 5b 3a 54 63 ea b9
       -0.025533129 -1.9705154 0.00083797064 -0.00044705963
000280 c2 7a 11 ba 02 90 45 ba a0 b6 6b 38 ea 2c 78 ba
       -0.00055496034 -0.00075364124 5.619845e-05 -0.0009467142
000290 68 34 85 b9 f5 78 ba 3f b1 bc 00 c0 2e 6a f7 bf
       -0.00025406783 1.4568163 -2.0115168 -1.9329278
0002a0 7b f0 ca 3f 3e 32 f9 bf 3a f6 7a 3f 73 d1 c8 3f
       1.5854639 -1.9468458 0.9803196 1.5688919
0002b0 33 55 b2 3f cf c0 00 c0 6b 9b ea bf eb 05 05 c0
       1.3932251 -2.011768 -1.832868 -2.0784862
0002c0 02 e9 ba 3f 2c 4b 03 c0 51 42 ab bf a0 59 69 b8
       1.4602358 -2.0514631 -1.3379613 -5.5635e-05
0002d0 43 99 14 3d 3c 9d 99 ba d0 b3 0a c0 80 ec 88 37
       0.036278974 -0.0011719833 -2.167225 1.6322592e-05
0002e0 78 32 ba 39 c0 4e 01 b8 7c 7c 46 ba d0 8c 98 38
       0.00035514287 -3.082934e-05 -0.000757165 7.274153e-05
0002f0 8a 32 4d 3a a0 2d 75 b8 f5 a7 b3 3f a3 a3 f4 bf
       0.00078276603 -5.8455043e-05 1.4035631 -1.9112438
000300 5d b5 e4 bf 03 a7 04 c0 b0 9d b7 3f fb 90 f6 bf
       -1.7867848 -2.0726936 1.4344997 -1.9262995
000310 a5 03 96 bf 3d 2f 9f 3a bd d8 89 bd 82 9c d5 bc
       -1.1719862 0.0012144815 -0.06730793 -0.026075605
000320 b1 e6 05 c0 78 88 ca b9 24 82 23 ba 44 ee 87 b9
       -2.0922053 -0.0003863012 -0.0006237349 -0.00025926728
000330 4a 73 61 3a 7c b7 12 ba fc a8 69 3a 34 68 14 ba
       0.0008600248 -0.00055967993 0.0008913425 -0.00056612794
000340 c2 b4 9e 3f 20 c5 0a c0 43 da d8 bf c0 36 5e bf
       1.2398913 -2.1682816 -1.6941608 -0.8680229
000350 42 d9 ea bf ea e4 d6 bf 3e 3d af 3f 4c 6d b3 3f
       -1.8347552 -1.6788609 1.3690565 1.401773
000360 03 a2 f9 bf da 83 ea bf 44 7d 06 c0 22 a0 a7 3f
       -1.9502567 -1.8321488 -2.1013956 1.3095744
000370 1a 74 02 c0 4b 26 b1 bf 69 dc 13 3d 41 97 d3 ba
       -2.0383363 -1.3839811 0.03609887 -0.00161431
000380 25 7c bb bc 7c 27 0d c0 c4 40 60 3a 28 a6 01 b9
       -0.022886345 -2.205535 0.00085545727 -0.00012364297
000390 28 30 57 39 a2 25 16 3a f2 c9 7e ba 54 db fb 39
       0.00020521937 0.00057276536 -0.0009719423 0.00048037863
0003a0 74 0e bb 39 c9 7a b6 3f df 09 08 c0 04 fe f3 bf
       0.00035678188 1.4256221 -2.1256025 -1.9061894
0003b0 eb 81 09 c0 00 21 b6 3f b0 45 09 c0 cc b5 97 bf
       -2.1485546 1.4228821 -2.1448784 -1.1852355
0003c0 c8 46 be 39 cc 7b 83 3d 9b ad 88 bc 06 66 03 c0
       0.0003629236 0.06420097 -0.016684344 -2.053102
0003d0 a2 6e 43 ba 44 ae 9a 39 28 9c 31 39 c4 cf c6 39
       -0.0007455145 0.00029503007 0.00016938208 0.000379203
0003e0 f4 40 08 ba e0 a3 90 38 19 fd 8c ba 0a 60 b9 3f
       -0.0005197667 6.896979e-05 -0.0010756581 1.4482434
0003f0 af ff ff bf 20 66 db bf 29 ab cb 3f f9 ee 02 c0
       -1.9999903 -1.7140541 1.5911609 -2.0458357

input_layer.weight_log_sigma f4 [128, 43]
000000 7a aa bd bc 68 3c 3b 3e f7 c6 28 c0 bb 18 31 c0
       -0.023152579 0.18284762 -2.6371439 -2.7671344
000010 ea 52 14 3e 23 54 30 c0 be f4 59 3e 18 72 31 bf
       0.14484754 -2.7551353 0.21284768 -0.6931472
000020 2a f5 31 bf 19 72 31 bf 5b 73 15 c0 18 72 31 bf
       -0.69514716 -0.69314724 -2.3351657 -0.6931472
000030 18 72 31 bf 18 72 31 bf 18 72 31 bf 18 72 31 bf
       -0.6931472 -0.6931472 -0.6931472 -0.6931472
000040 18 72 31 bf 18 72 31 bf ab a0 07 c0 63 fe 21 c0
       -0.6931472 -0.6931472 -2.1191814 -2.5311515
000050 ff 20 2d c0 1b c9 23 c0 cb d7 10 c0 73 b2 2a c0
       -2.705139 -2.5591495 -2.263171 -2.6671417
000060 eb 65 9a 3c 06 ef 30 bf 66 82 49 bf 03 1a 38 bf
       0.018847426 -0.6911472 -0.787146 -0.7191469
000070 7f 39 31 c0 18 72 31 bf 18 72 31 bf 18 72 31 bf
       -2.7691343 -0.6931472 -0.6931472 -0.6931472
000080 18 72 31 bf 18 72 31 bf 18 72 31 bf 18 72 31 bf
       -0.6931472 -0.6931472 -0.6931472 -0.6931472
000090 57 be ee bf cb 08 19 c0 1e f8 c1 3e 08 01 5c 3e
       -1.8651837 -2.3911617 0.3788461 0.21484768
0000a0 cb 9b 31 c0 3e a0 88 3e cb 6a 29 c0 37 08 fb bf
       -2.7751338 0.26684755 -2.6471431 -1.9611882
0000b0 27 81 32 c0 db 1e 32 c0 e7 74 30 c0 98 49 99 3d
       -2.7891328 -2.7831333 -2.7571352 0.0748474
0000c0 cf 22 12 3f fb fe 01 c0 19 72 31 bf 27 20 39 bf
       0.57084364 -2.0311878 -0.69314724 -0.72314686
0000d0 18 72 31 bf 53 dd 31 c0 18 72 31 bf 18 72 31 bf
       -0.6931472 -2.7791336 -0.6931472 -0.6931472
0000e0 18 72 31 bf 18 72 31 bf 18 72 31 bf 18 72 31 bf
       -0.6931472 -0.6931472 -0.6931472 -0.6931472
0000f0 18 72 31 bf a2 6f 6e 3e 6f b6 30 c0 df b8 1b c0
       -0.6931472 0.23284772 -2.7611349 -2.4331586
000100 0a 0a 4e 3f 1a 23 c9 3e 1e 33 2a 3f f3 d6 a8 bb
       0.8048407 0.39284593 0.6648425 -0.005152577
000110 18 72 31 bf 58 d4 41 bf 18 72 31 bf 33 d7 30 c0
       -0.6931472 -0.75714636 -0.6931472 -2.7631347
000120 18 72 31 bf 18 72 31 bf 18 72 31 bf 18 72 31 bf
       -0.6931472 -0.6931472 -0.6931472 -0.6931472
000130 18 72 31 bf 18 72 31 bf 18 72 31 bf 5f 3e 07 c0
       -0.6931472 -0.6931472 -0.6931472 -2.1131818
000140 cb 39 21 c0 6f 23 18 c0 c3 10 25 c0 8f bc 31 c0
       -2.5191524 -2.3771627 -2.579148 -2.7771337
000150 17 d8 00 c0 cb 39 21 c0 bd a1 f4 bf 0f 73 25 c0
       -2.013189 -2.5191524 -1.9111859 -2.5851476
000160 4f 1d 17 c0 9f 3f 32 c0 ee e9 94 3e 43 5a 31 c0
       -2.3611639 -2.7851331 0.29084724 -2.7711341
000170 85 c0 f9 bf 18 72 31 bf 09 1e 4e bf 18 72 31 bf
       -1.9511877 -0.6931472 -0.8051458 -0.6931472
000180 6b 89 2e c0 18 72 31 bf 18 72 31 bf 18 72 31 bf
       -2.7271373 -0.6931472 -0.6931472 -0.6931472
000190 18 72 31 bf 18 72 31 bf 18 72 31 bf 18 72 31 bf
       -0.6931472 -0.6931472 -0.6931472 -0.6931472
0001a0 ec 7b 70 3e 1b c9 23 c0 13 6f 1f c0 07 7b 31 c0
       0.23484772 -2.5591495 -2.4911544 -2.773134
0001b0 47 c3 12 c0 f3 ca 2e c0 c0 61 a2 be 18 72 31 bf
       -2.2931688 -2.731137 -0.31715202 -0.6931472
0001c0 1d 47 2a bf e3 e8 2f bf bb 18 31 c0 18 72 31 bf
       -0.6651476 -0.6871473 -2.7671344 -0.6931472
0001d0 18 72 31 bf 18 72 31 bf 18 72 31 bf 18 72 31 bf
       -0.6931472 -0.6931472 -0.6931472 -0.6931472
0001e0 18 72 31 bf 18 72 31 bf af cd 09 c0 23 c0 d9 bf
       -0.6931472 -0.6931472 -2.153179 -1.701176
0001f0 77 ae 24 c0 0b e4 12 c0 53 dd 31 c0 bb 85 18 c0
       -2.5731485 -2.2951686 -2.7791336 -2.3831623
000200 83 d3 1a c0 e4 fc 05 3e ff 20 2d c0 0b 15 1b c0
       -2.4191597 0.13084751 -2.705139 -2.4231594
000210 cb 9b 31 c0 7b 79 16 c0 a8 c5 7c 3e 01 d1 95 bd
       -2.7751338 -2.3511646 0.24684775 -0.07315255
000220 eb 92 21 bf 3f a7 4f bf 18 72 31 bf 73 81 22 c0
       -0.63114804 -0.8111457 -0.6931472 -2.539151
000230 18 72 31 bf 18 72 31 bf 18 72 31 bf 18 72 31 bf
       -0.6931472 -0.6931472 -0.6931472 -0.6931472
000240 18 72 31 bf 18 72 31 bf 18 72 31 bf 06 71 ab 3e
       -0.6931472 -0.6931472 -0.6931472 0.33484668
000250 af c2 32 c0 9b e1 27 c0 eb 7e 21 3f 66 7b 82 3e
       -2.7931325 -2.6231449 0.63084286 0.2548477
000260 e7 74 30 c0 5d df c2 bd 3d 78 32 bf 9c 0b 4b bf
       -2.7571352 -0.095152594 -0.6971472 -0.7931459
000270 18 72 31 bf db 1e 32 c0 18 72 31 bf 18 72 31 bf
       -0.6931472 -2.7831333 -0.6931472 -0.6931472
000280 18 72 31 bf 18 72 31 bf 18 72 31 bf 18 72 31 bf
       -0.6931472 -0.6931472 -0.6931472 -0.6931472
000290 18 72 31 bf f7 02 08 c0 9b b0 1f c0 6b ba 00 3f
       -0.6931472 -2.125181 -2.4951541 0.5028445
0002a0 93 56 1b c0 1f c5 1d c0 a1 95 b6 bd 13 a0 27 c0
       -2.427159 -2.4651563 -0.08915258 -2.6191452
0002b0 39 3e 0f c0 e7 d6 3a 3f 67 12 1a 3f 89 91 32 c0
       -2.2381728 0.72984165 0.6018433 -2.7901328
0002c0 66 95 d0 3d 09 79 2e c0 35 11 0d c0 94 05 2a bf
       0.101847455 -2.7261374 -2.2041752 -0.6641476
0002d0 3e d4 61 bf 6c 2a 30 bf 25 5d 04 c0 18 72 31 bf
       -0.8821448 -0.6881473 -2.068185 -0.6931472
0002e0 18 72 31 bf 18 72 31 bf 18 72 31 bf 18 72 31 bf
       -0.6931472 -0.6931472 -0.6931472 -0.6931472
0002f0 18 72 31 bf 18 72 31 bf 58 68 f0 bf 9d 10 2d c0
       -0.6931472 -0.6931472 -1.8781843 -2.704139
000300 b6 c8 0d 3f 2d ac 31 c0 7a 72 e7 bf 2d 4a 21 c0
       0.55384386 -2.7761338 -1.808181 -2.5201523
000310 1d 03 00 c0 a1 b3 31 bf 76 03 3f bf 8f 30 31 bf
       -2.00019 -0.69414717 -0.74614656 -0.6921472
000320 3d 2f 32 c0 18 72 31 bf 18 72 31 bf 18 72 31 bf
       -2.7841332 -0.6931472 -0.6931472 -0.6931472
000330 18 72 31 bf 18 72 31 bf 18 72 31 bf 18 72 31 bf
       -0.6931472 -0.6931472 -0.6931472 -0.6931472
000340 99 ee 58 3e 37 8d 2e 3f c5 7b 09 c0 90 85 99 3e
       0.21184768 0.68184227 -2.1481793 0.29984713
000350 60 f3 dc bf 89 cd 11 c0 65 cb 16 c0 2d 64 ea bf
       -1.7261772 -2.2781699 -2.3561642 -1.8311821
000360 af c2 32 c0 bf 14 2b c0 63 60 32 c0 a9 59 d3 bf
       -2.7931325 -2.6731412 -2.787133 -1.6511737
000370 5f 3e 07 c0 32 af 16 be b0 34 27 bf 80 af 3b bf
       -2.1131818 -0.14715269 -0.6531477 -0.73314667
000380 18 72 31 bf af 2f 1a c0 18 72 31 bf 18 72 31 bf
       -0.6931472 -2.4091604 -0.6931472 -0.6931472
000390 18 72 31 bf 18 72 31 bf 18 72 31 bf 18 72 31 bf
       -0.6931472 -0.6931472 -0.6931472 -0.6931472
0003a0 18 72 31 bf 57 f9 cd bf 7d 3d 01 3f 6f 23 18 c0
       -0.6931472 -1.6091717 0.5048445 -2.3771627
0003b0 eb a1 32 c0 99 43 fa bf eb a1 32 c0 51 fd c3 bf
       -2.7911327 -1.9551879 -2.7911327 -1.5311681
0003c0 18 72 31 bf 7b 34 67 bf 18 72 31 bf 2e 10 4f 3f
       -0.6931472 -0.90314454 -0.6931472 0.80884063
0003d0 18 72 31 bf 18 72 31 bf 18 72 31 bf 18 72 31 bf
       -0.6931472 -0.6931472 -0.6931472 -0.6931472
0003e0 18 72 31 bf 18 72 31 bf 18 72 31 bf cb 63 ca bf
       -0.6931472 -0.6931472 -0.6931472 -1.5811704
0003f0 97 e5 2d c0 93 f4 0a c0 d7 5e 17 c0 63 60 32 c0
       -2.717138 -2.1711776 -2.3651636 -2.787133

input_layer.bias_mu f4 [128]
000000 57 20 f6 bf 15 d7 05 c0 80 21 03 c0 b2 65 0f c0
       -1.9228619 -2.0912526 -2.0489197 -2.240582
000010 f7 74 0a c0 5d 73 07 c0 34 a0 00 c0 56 be 03 c0
       -2.163389 -2.1164162 -2.009778 -2.0584922
000020 ef 04 00 c0 2e c4 08 c0 e0 f3 0b c0 ba 30 e4 bf
       -2.0003011 -2.1369739 -2.18676 -1.782737
000030 35 ff 05 c0 97 92 0e c0 1e 91 e3 bf 69 d9 fb bf
       -2.0937016 -2.2276971 -1.7778661 -1.9675723
000040 ba 2e 0a c0 0d 81 02 c0 62 4f 0c c0 22 5a 00 c0
       -2.159102 -2.0391266 -2.1923451 -2.0055013
000050 38 7e fb bf 9e ad 02 c0 b6 db f7 bf 68 39 04 c0
       -1.9647894 -2.0418468 -1.9363925 -2.0660038
000060 03 1f 02 c0 bb 51 fc bf ee bc 07 c0 4a 1e 02 c0
       -2.0331428 -1.9712442 -2.1209064 -2.0330987
000070 de 90 0d c0 da f7 04 c0 3d 47 00 c0 eb 21 08 c0
       -2.211967 -2.0776277 -2.004348 -2.1270702
000080 3a 9a f9 bf 94 56 0a c0 d4 18 fa bf dc 0b 0d c0
       -1.9500191 -2.1615343 -1.9538827 -2.2038488
000090 88 e0 00 c0 b0 91 f5 bf 21 8a 0c c0 9b 18 fa bf
       -2.0137043 -1.9185085 -2.1959307 -1.9538759
0000a0 2f 07 07 c0 16 ef 08 c0 af a1 07 c0 97 6d 02 c0
       -2.1098135 -2.1395926 -2.1192434 -2.0379388
0000b0 14 21 05 c0 ea 90 06 c0 a2 25 05 c0 9c 35 02 c0
       -2.080144 -2.1025949 -2.080422 -2.034522
0000c0 bc c1 09 c0 7d 99 09 c0 76 b3 f9 bf 72 52 00 c0
       -2.1524496 -2.1499932 -1.9507892 -2.005032
0000d0 ff 4b 08 c0 a6 e9 02 c0 30 ee 01 c0 f5 24 08 c0
       -2.1296384 -2.0455108 -2.0301628 -2.1272557
0000e0 45 21 06 c0 7f 5b 05 c0 77 1e 04 c0 a8 9f fa bf
       -2.0957806 -2.0837095 -2.0643594 -1.9579973
0000f0 f8 5a 07 c0 90 9e 04 c0 47 f4 0b c0 f9 53 fa bf
       -2.1149273 -2.072178 -2.1867845 -1.9556876
000100 d0 6a f7 bf 00 5d 0a c0 5f 03 00 c0 c5 a1 f4 bf
       -1.9329472 -2.1619263 -2.0002058 -1.9111868
000110 72 e4 03 c0 16 e7 08 c0 42 f9 0a c0 9a 5d f9 bf
       -2.0608182 -2.1391044 -2.1714635 -1.948169
000120 4b 41 0a c0 0d c4 fd bf bf ee 09 c0 b6 f9 02 c0
       -2.1602352 -1.9825455 -2.155197 -2.0464911
000130 3a 3e fd bf 0f 5f 0b c0 7e a3 02 c0 5b 3b ff bf
       -1.9784615 -2.177677 -2.0412288 -1.9939989
000140 35 75 0a c0 6c af 09 c0 6d 6b 0a c0 dd d3 fb bf
       -2.1634037 -2.151332 -2.1628067 -1.967403
000150 df 4b fc bf 5d fb fc bf b2 99 08 c0 f5 44 f9 bf
       -1.9710654 -1.976421 -2.1343808 -1.9474169
000160 30 4a f1 bf 87 40 06 c0 55 77 0d c0 87 fa 0d c0
       -1.8850765 -2.0976884 -2.2104084 -2.218416
000170 72 97 04 c0 3b 7d 04 c0 49 c0 fa bf a6 1a 06 c0
       -2.0717435 -2.0701435 -1.9589931 -2.0953765
000180 e7 61 0c c0 46 db f1 bf c1 72 0b c0 ec 08 e8 bf
       -2.1934755 -1.8895042 -2.178879 -1.8127723
000190 19 1a 07 c0 7e ba 09 c0 8d 16 fc bf 62 58 00 c0
       -2.1109679 -2.1520076 -1.9694382 -2.0053945
0001a0 5a dd f2 bf b9 7e 0b c0 6b b6 0c c0 3e dc 06 c0
       -1.8973801 -2.1796095 -2.198634 -2.1071925
0001b0 13 99 08 c0 31 79 ff bf 51 df 07 c0 05 fd fd bf
       -2.134343 -1.995886 -2.1230052 -1.984284
0001c0 b2 12 08 c0 9d 3e 04 c0 55 36 07 c0 f8 01 06 c0
       -2.126141 -2.0663216 -2.1126912 -2.0938702
0001d0 24 b4 fb bf 7b 2e 03 c0 38 84 fc bf 5b 23 0b c0
       -1.966435 -2.049712 -1.972785 -2.174033
0001e0 e3 a7 f7 bf de 8d fc bf ae 7c 09 c0 f3 37 fc bf
       -1.934811 -1.9730794 -2.1482348 -1.9704574
0001f0 14 10 fa bf b5 7a 06 c0 67 b4 08 c0 e6 86 0f c0
       -1.9536157 -2.1012394 -2.136011 -2.2426085

input_layer.bias_log_sigma f4 [128]
000000 3f 2d 2f c0 07 7b 31 c0 63 2f 2a c0 63 60 32 c0
       -2.7371366 -2.773134 -2.6591423 -2.787133
000010 01 50 32 c0 78 c2 2c 3f 2d ac 31 c0 17 cd 29 c0
       -2.786133 0.67484236 -2.7761338 -2.6531427
000020 07 7b 31 c0 f1 cc 31 c0 d7 f1 2f c0 83 35 2b c0
       -2.773134 -2.7781336 -2.7491357 -2.675141
000030 a1 db 1e c0 69 8b 31 c0 bb e7 28 c0 85 64 30 c0
       -2.482155 -2.774134 -2.6391437 -2.7561352
000040 1d 29 31 c0 23 54 30 c0 55 db 2e c0 95 e7 30 c0
       -2.7681344 -2.7551353 -2.732137 -2.7641346
000050 03 4e 2f c0 63 60 32 c0 07 7b 31 c0 a7 68 2e c0
       -2.7391365 -2.787133 -2.773134 -2.7251375
000060 49 85 30 c0 33 b8 35 3f af c2 32 c0 ee ad 3e 3f
       -2.758135 0.7098419 -2.7931325 0.74484146
000070 63 60 32 c0 e8 a9 28 3f dd d0 19 3f af c2 32 c0
       -2.787133 0.65884256 0.60084325 -2.7931325
000080 27 81 32 c0 6f b6 30 c0 c7 6e 2f c0 95 e7 30 c0
       -2.7891328 -2.7611349 -2.7411363 -2.7641346
000090 ce b8 8c 3e d3 c4 2d c0 89 91 32 c0 9f 3f 32 c0
       0.27484745 -2.7151382 -2.7901328 -2.7851331
0000a0 43 5a 31 c0 b3 5c 1c c0 43 5a 31 c0 9f 3f 32 c0
       -2.7711341 -2.443158 -2.7711341 -2.7851331
0000b0 8f bc 31 c0 a7 68 2e c0 17 fe 31 c0 5f a0 17 c0
       -2.7771337 -2.7251375 -2.7811334 -2.3691633
0000c0 2b 4c 24 c0 73 50 1a c0 9b 12 30 c0 17 fe 31 c0
       -2.567149 -2.4111602 -2.7511356 -2.7811334
0000d0 a5 6a 31 c0 33 d7 30 c0 b7 eb 2e c0 cf 97 2b c0
       -2.772134 -2.7631347 -2.733137 -2.6811407
0000e0 fe c6 b9 3e 1e 33 2a 3f 6f b6 30 c0 9f 3f 32 c0
       0.36284631 0.6648425 -2.7611349 -2.7851331
0000f0 b4 4f 44 3f 6f b6 30 c0 ef 6c 24 c0 9f 3f 32 c0
       0.7668412 -2.7611349 -2.5691488 -2.7851331
000100 17 fe 31 c0 eb a1 32 c0 47 56 2b c0 8f bc 31 c0
       -2.7811334 -2.7911327 -2.677141 -2.7771337
000110 01 50 32 c0 07 7b 31 c0 19 fc 2e c0 49 23 20 c0
       -2.786133 -2.773134 -2.7341368 -2.5021536
000120 6b 89 2e c0 43 5a 31 c0 27 81 32 c0 f3 ca 2e c0
       -2.7271373 -2.7711341 -2.7891328 -2.731137
000130 b6 f5 1f 3f 2d ac 31 c0 53 dd 31 c0 53 dd 31 c0
       0.624843 -2.7761338 -2.7791336 -2.7791336
000140 0d a6 30 c0 cb 9b 31 c0 b5 ed 31 c0 17 fe 31 c0
       -2.760135 -2.7751338 -2.7801335 -2.7811334
000150 17 fe 31 c0 4b 83 2d c0 f7 f7 30 c0 db 1e 32 c0
       -2.7811334 -2.7111385 -2.7651346 -2.7831333
000160 5b 66 1d 3f db ed 29 c0 51 1b 14 c0 d1 c6 30 c0
       0.6148431 -2.6551425 -2.3141673 -2.7621348
000170 43 5a 31 c0 9f 3f 32 c0 53 dd 31 c0 7f 39 31 c0
       -2.7711341 -2.7851331 -2.7791336 -2.7691343
000180 f1 cc 31 c0 01 50 32 c0 79 0e 32 c0 53 dd 31 c0
       -2.7781336 -2.786133 -2.7821333 -2.7791336
000190 b5 ed 31 c0 6f b6 30 c0 53 dd 31 c0 8a 0a c5 3e
       -2.7801335 -2.7611349 -2.7791336 0.38484603
0001a0 df 1a 2c c0 43 5a 31 c0 07 7b 31 c0 75 e1 2f c0
       -2.68914 -2.7711341 -2.773134 -2.7481358
0001b0 5b 06 2e c0 b3 be 2c c0 53 dd 31 c0 ab 95 30 c0
       -2.719138 -2.6991394 -2.7791336 -2.759135
0001c0 bb 18 31 c0 1b 67 13 c0 7f 39 31 c0 ff ef 24 c0
       -2.7671344 -2.303168 -2.7691343 -2.5771482
0001d0 7e 8b da 3e dd eb 26 c0 27 81 32 c0 8f bc 31 c0
       0.4268455 -2.608146 -2.7891328 -2.7771337
0001e0 07 7b 31 c0 5f 33 30 c0 eb a1 32 c0 e1 49 31 c0
       -2.773134 -2.7531354 -2.7911327 -2.7701342
0001f0 9d 10 2d c0 07 7b 31 c0 71 be 16 3f 27 81 32 c0
       -2.704139 -2.773134 0.5888434 -2.7891328

hidden1_layer.weight_mu f4 [128, 128]
000000 ae b6 b0 bf 04 ba 93 3f 2a 98 b4 3f cd e1 e2 3f
       -1.380575 1.1541142 1.4108937 1.7725159
000010 05 2d c2 bf 81 59 c7 bf 44 82 d8 bf 1b 01 d9 bf
       -1.5169989 -1.557419 -1.6914754 -1.6953462
000020 75 72 db bf ef d6 aa 3f 20 12 d9 3f 2e d2 c3 3f
       -1.7144305 1.3346843 1.6958656 1.5298517
000030 6a 60 dd 3f 82 19 8f bf 18 78 92 bf 17 dc 9d bf
       1.7295048 -1.1179659 -1.14429 -1.2332791
000040 6a 4f d1 bf cd c0 db bf 44 45 bf bf ae b9 de 3f
       -1.635236 -1.7168213 -1.4943013 1.7400415
000050 2f 8d cf 3f e2 34 e3 bf ca 25 e3 bf db 3d d1 bf
       1.6214961 -1.7750514 -1.7745907 -1.6347002
000060 6c 61 a5 bf 54 46 b7 bf cf 6f c3 bf e2 af b1 3f
       -1.2920356 -1.4318337 -1.5268496 1.38818
000070 5c bc c9 3f 93 74 98 3f 5e 85 e0 bf 3a f4 b0 bf
       1.5760608 1.1910576 -1.75407 -1.3824532
000080 2c e6 da 3f 95 52 d7 bf 1f b8 de bf 09 1b d9 bf
       1.7101493 -1.6822077 -1.7399939 -1.6961375
000090 57 b7 8d bf 0b fb c4 3f 7c 54 9a 3f 3a e1 03 40
       -1.1071576 1.5389112 1.2057033 2.0606217
0000a0 15 e9 da bf e9 e9 cd 3f 9f c9 b7 bf 47 ac c0 bf
       -1.7102381 1.6087009 -1.4358405 -1.5052575
0000b0 c7 69 9f bf b4 07 a6 bf 22 5b c9 bf 69 db e3 bf
       -1.2454156 -1.2971101 -1.5730937 -1.7801334
0000c0 2a a9 ee bf e3 20 d8 3f 9b 07 d6 3f 91 93 c4 bf
       -1.8645375 1.6885036 1.6721071 -1.5357534
0000d0 e6 16 d5 3f be 09 df bf cb a4 ba bf dc 04 c3 bf
       1.6647613 -1.7424848 -1.4581541 -1.5235858
0000e0 42 27 b2 bf cb 54 c8 bf e3 07 cb bf 66 9b e2 bf
       -1.391823 -1.5650877 -1.5861782 -1.7703674
0000f0 99 1d 87 3f 7d c9 be bf 00 94 a1 3f 4b db be 3f
       1.0555907 -1.4905239 1.2623291 1.4910673
000100 1c cb d8 bf b8 cd c8 bf fe bd c0 bf 36 c2 de bf
       -1.6936984 -1.568778 -1.5057981 -1.7403018
000110 4f a2 73 3f 86 f9 cb 3f bb c8 b8 3f 73 b4 d8 bf
       0.9516954 1.5935524 1.4436258 -1.6930069
000120 ea 5a ab bf 2d 65 59 bf 46 39 e2 3f 6d bd e8 bf
       -1.338712 -0.84920007 1.7673728 -1.8182808
000130 a8 46 b9 bf 3f 1c dc bf de e7 87 bf 6d 75 e6 bf
       -1.4474688 -1.719612 -1.0617635 -1.8004586
000140 cb 3e e1 3f 74 d2 d9 bf 02 b3 c3 3f 10 ed a4 bf
       1.7597288 -1.701735 1.5289004 -1.2884846
000150 6d bf d9 bf 8e c6 c6 3f dc 5c d6 bf 3e 72 da 3f
       -1.7011544 1.5529344 -1.6747088 1.7066114
000160 e7 d4 b3 bf 5c 6f 88 bf 10 21 ed bf e5 46 cf bf
       -1.4049348 -1.0658984 -1.8525715 -1.619351
000170 01 8f d9 3f ec d1 91 3f f3 8b a7 3f 61 1b ae bf
       1.6996766 1.1392188 1.3089584 -1.3602105
000180 4d 4a a8 bf 07 de 99 bf df 23 c7 3f d5 82 dd bf
       -1.3147675 -1.2020882 1.5557822 -1.7305552
000190 bc ef b7 3f 9b 7c ce bf 3d 17 cb bf 3e f0 ab bf
       1.4370036 -1.6131777 -1.5866467 -1.3432691
0001a0 02 2f b8 bf c7 96 ab bf 5f 90 cc bf 48 6e 97 bf
       -1.4389346 -1.3405389 -1.5981559 -1.183053
0001b0 a5 a8 e0 bf 5b d3 cc bf 27 a6 de bf 98 59 71 bf
       -1.7551466 -1.6002 -1.7394456 -0.94277334
0001c0 7d 43 87 bf dd 4b cb 3f cc b2 c9 bf 97 0d c8 bf
       -1.0567471 1.5882527 -1.575769 -1.5629147
0001d0 78 98 d4 bf ad 66 c0 bf ad 57 c5 bf b6 eb e7 3f
       -1.660903 -1.5031334 -1.5417382 1.8118808
0001e0 3a f2 cc bf 44 10 d6 3f 0a a3 bc bf f2 fa c0 bf
       -1.6011422 1.6723714 -1.4737256 -1.5076582
0001f0 83 c7 e0 bf 6d e6 dd 3f 1f 81 d0 bf f1 b2 ac bf
       -1.7560886 1.7335945 -1.6289405 -1.3492109
000200 56 2e dc bf 83 29 e9 bf 91 08 e1 bf dc bf e1 bf
       -1.7201641 -1.8215793 -1.7580739 -1.7636676
000210 cd 8f cb bf 5e 42 c1 bf a5 55 d9 bf 7a 5a e3 bf
       -1.590326 -1.5098379 -1.6979262 -1.7761986
000220 4e 1a e4 bf 7f 40 dd bf 95 e3 e1 bf 29 b2 ec bf
       -1.7820528 -1.7285308 -1.7647578 -1.849187
000230 db ee d4 bf 62 4c c8 bf 86 03 ba bf a3 4d e7 bf
       -1.6635393 -1.564831 -1.4532325 -1.8070568
000240 37 f6 e4 bf 21 e8 dc bf 5e ce d8 bf 59 ed dd bf
       -1.7887639 -1.725834 -1.6937978 -1.7338058
000250 ab e1 e8 bf db 11 ee bf 08 66 bc bf 42 5e ed bf
       -1.8193868 -1.8599199 -1.4718637 -1.854439
000260 9c 49 dc bf c4 03 e5 bf 4b a2 d5 bf f1 72 eb bf
       -1.7209964 -1.7891774 -1.6690153 -1.8394452
000270 76 42 d3 bf 47 04 df bf b1 c3 d0 bf ab 99 e2 bf
       -1.6504657 -1.742318 -1.630972 -1.7703146
000280 ae b0 e5 bf db f4 f7 bf 1a a7 f9 bf 3a bc e4 bf
       -1.7944543 -1.9371599 -1.950412 -1.7869942
000290 e1 48 d5 bf bd 10 d1 bf 74 97 da bf 32 81 99 bf
       -1.6662866 -1.6333233 -1.707747 -1.1992552
0002a0 75 31 e0 bf f5 4c cb bf 26 90 e6 bf f2 cc da bf
       -1.7515093 -1.588286 -1.8012741 -1.7093794
0002b0 f4 2f d9 bf d3 8c d2 bf 46 52 e7 bf 76 40 ea bf
       -1.6967759 -1.6449226 -1.8071983 -1.8300922
0002c0 47 fe e4 bf b3 6d a1 bf 14 55 d9 bf 3d 61 f5 bf
       -1.7890099 -1.2611603 -1.6979089 -1.91703
0002d0 ac 98 d1 bf fd 1a ff bf f1 ed e1 bf 0e 44 f2 bf
       -1.6374717 -1.9930111 -1.7650739 -1.8927019
0002e0 49 b7 97 3f 61 0e c2 bf 68 ac e4 bf f4 63 d4 bf
       1.1852809 -1.5160638 -1.7865114 -1.6593003
0002f0 17 e5 ef bf ea 97 d4 bf 87 eb ca bf 93 eb d2 bf
       -1.8741788 -1.660886 -1.5853127 -1.6478142
000300 30 fd f2 bf 01 9f c6 bf 74 60 c9 bf 5a 72 d9 bf
       -1.8983517 -1.5517274 -1.573256 -1.6988022
000310 3d 86 cc bf 7f 0d c9 bf b5 68 cb bf 93 5f c9 bf
       -1.5978466 -1.5707244 -1.5891329 -1.5732292
000320 e7 63 e0 bf d2 79 df bf 67 fa e5 bf d9 f4 eb bf
       -1.7530488 -1.7459052 -1.7967042 -1.8434097
000330 8b e1 c4 bf f8 59 dd bf 7a f6 d2 bf 01 2c e6 bf
       -1.538133 -1.7293081 -1.6481469 -1.7982179
000340 ea 53 ea bf 17 84 e2 bf e4 d7 e9 bf 24 05 90 bc
       -1.8306859 -1.7696561 -1.826901 -0.017580576
000350 00 10 f4 bf 3c f5 de bf 53 64 eb bf f6 78 e5 bf
       -1.9067383 -1.741859 -1.8389992 -1.7927539
000360 be de d5 bf a1 6a eb bf 0a 0a dc bf ea fd 3d bf
       -1.67086 -1.8391916 -1.7190564 -0.7421557
000370 50 45 df bf 6f 81 e2 bf b0 44 d8 bf 31 26 d6 bf
       -1.7443027 -1.769575 -1.6895962 -1.6730405
000380 bc eb ea bf 63 cd df bf fe 4d d8 bf b6 f7 e5 bf
       -1.835319 -1.7484554 -1.6898801 -1.796622
000390 4b 0c e2 bf f4 74 d9 bf b6 61 cf bf 73 d0 d6 bf
       -1.7660002 -1.6988816 -1.6201694 -1.6782364
0003a0 1c 7f cd bf ee 06 f2 bf ed 88 d9 bf 30 1d e9 bf
       -1.6054416 -1.8908365 -1.6994911 -1.8212032
0003b0 e0 ac d5 bf 81 a1 dd bf 02 8a eb bf 2a 4f ee bf
       -1.6693382 -1.7314912 -1.8401492 -1.8617909
0003c0 62 c1 cc bf 85 f1 cb bf 84 0b e2 bf f2 51 e5 bf
       -1.5996516 -1.5933081 -1.7659764 -1.7915633
0003d0 50 37 c9 bf 4c fa e1 bf 6f 21 f4 bf f9 85 ef bf
       -1.5720005 -1.765451 -1.9072703 -1.871276
0003e0 58 b7 dc bf a2 61 e3 bf 8a 20 ea bf 2a 06 d1 bf
       -1.7243452 -1.776417 -1.829118 -1.6330006
0003f0 7f cb dd bf 39 61 d9 bf 15 9f fd bf e2 57 ce bf
       -1.7327727 -1.6982795 -1.9814173 -1.612057

hidden1_layer.weight_log_sigma f4 [128, 128]
000000 96 12 f1 3e 40 0b 33 3e c6 97 dc 3e 63 9c 11 c0
       0.47084492 0.1748476 0.43084544 -2.27517
000010 15 3c 14 c0 73 81 22 c0 ba 9d 06 3f 43 f8 20 c0
       -2.316167 -2.539151 0.5258442 -2.5151527
000020 bf e3 22 c0 fc bd d3 3c 70 18 3b 3f 54 bc 2b 3f
       -2.5451505 0.025847428 0.73084164 0.6708424
000030 ed 0c 17 c0 1f c5 1d c0 37 a2 22 c0 12 47 b3 be
       -2.360164 -2.4651563 -2.5411508 -0.3501516
000040 a5 39 29 c0 9b b0 1f c0 d9 be 24 c0 25 f0 1c c0
       -2.6441433 -2.4951541 -2.5741484 -2.4521573
000050 3f 9a 16 c0 d6 26 28 3f e7 7f 07 c0 91 ef 1e 3f
       -2.3531644 0.6568426 -2.1171815 0.620843
000060 08 01 5c 3e 21 25 2b c0 4a 31 f6 3e 97 83 1d c0
       0.21484768 -2.6741412 0.4808448 -2.4611566
000070 a7 47 18 3f 0b e4 12 c0 51 8d 0e 3f 6c eb de 3d
       0.5948433 -2.2951686 0.5568438 0.10884747
000080 9f 7b 11 c0 6f b6 30 c0 d7 f1 2f c0 f5 66 1b c0
       -2.2731702 -2.7611349 -2.7491357 -2.428159
000090 8b fc 16 c0 e3 47 2e c0 b1 fc 0e c0 cb 9b 31 c0
       -2.359164 -2.7231376 -2.234173 -2.7751338
0000a0 07 86 08 c0 72 0c f0 3e 23 f2 1f c0 cf 04 13 c0
       -2.1331804 0.46884495 -2.4991539 -2.2971685
0000b0 cb a6 08 c0 5e d1 90 3e 13 a0 27 c0 97 83 1d c0
       -2.1351802 0.28284734 -2.6191452 -2.4611566
0000c0 f2 be 8d 3e c4 4a 68 3e 03 59 06 c0 e8 c5 dd be
       0.27684742 0.22684771 -2.0991828 -0.43315053
0000d0 1d 60 3c 3f 9b b0 1f c0 a4 72 1f 3f 53 4a 19 c0
       0.7358416 -2.4951541 0.622843 -2.3951614
0000e0 eb 3f 22 c0 c7 0c 1f c0 5a 85 d9 3e e2 f3 eb 3e
       -2.5351512 -2.4851549 0.42484552 0.46084505
0000f0 fe 4f fb 3e a3 72 1f 3f 2f 79 26 c0 97 21 0d c0
       0.49084467 0.62284297 -2.6011465 -2.2051752
000100 6b 89 2e c0 0b 46 23 c0 57 d9 2b c0 7b 79 16 c0
       -2.7271373 -2.55115 -2.6851404 -2.3511646
000110 18 02 02 3f 2f 79 26 c0 75 7f 1f c0 01 5b 09 c0
       0.50784445 -2.6011465 -2.4921544 -2.1461794
000120 2f 79 26 c0 17 cd 29 c0 af c2 32 c0 37 d3 2a c0
       -2.6011465 -2.6531427 -2.7931325 -2.6691415
000130 73 ee 09 c0 81 06 26 c0 cb d7 10 c0 fa 2c 29 3f
       -2.1551788 -2.594147 -2.263171 0.66084254
000140 37 8d 2e 3f 6e e9 1d 3f 4d 50 22 c0 af c2 32 c0
       0.68184227 0.6168431 -2.5361512 -2.7931325
000150 03 4e 2f c0 74 e8 57 3e d7 5e 17 c0 cb 9b 31 c0
       -2.7391365 0.21084768 -2.3651636 -2.7751338
000160 b7 ba 26 c0 c6 d2 44 3f c1 43 30 c0 a0 eb ff 3e
       -2.6051462 0.76884115 -2.7541354 0.49984455
000170 2f f3 cc bf 4d b8 15 3f 67 5c 2c c0 28 0c 39 3f
       -1.6011714 0.58484346 -2.6931398 0.72284174
000180 6f 54 20 c0 b6 fb e8 bf 10 d3 fb 3e 50 66 f3 3d
       -2.5051534 -1.8201816 0.49184465 0.11884749
000190 10 58 10 3f 2b b9 0b c0 79 68 08 3f ab 02 18 c0
       0.5638437 -2.1831768 0.5328441 -2.3751628
0001a0 62 6a 33 3f d4 80 4c 3f e9 4f 04 3f cd 06 16 c0
       0.700842 0.79884076 0.51684433 -2.344165
0001b0 db bc 21 c0 49 e3 1c 3f cf 66 23 c0 eb a1 32 c0
       -2.5271518 0.6128431 -2.55315 -2.7911327
0001c0 7f 44 08 c0 d3 31 15 c0 3b 9e 1c c0 0f a4 2d c0
       -2.1291807 -2.331166 -2.4471576 -2.7131383
0001d0 83 41 17 3f 71 eb 28 3f a2 91 db 3e 87 16 10 3f
       0.5908434 0.65984255 0.42884547 0.56284374
0001e0 d7 c0 27 c0 b7 58 16 c0 fb d2 04 3f 3c 83 ee 3e
       -2.621145 -2.3491647 0.5188443 0.465845
0001f0 11 71 22 c0 8f 29 19 c0 2b b9 0b c0 d3 93 25 c0
       -2.538151 -2.3931615 -2.1831768 -2.5871475
000200 a8 c5 7c 3e d3 c4 2d c0 f6 57 30 3f ef 6c 24 c0
       0.24684775 -2.7151382 0.6888422 -2.5691488
000210 5c 39 0b 3f c2 c2 e3 3e ef 3a 08 bf 4b 83 2d c0
       0.543844 0.44484526 -0.53214926 -2.7111385
000220 97 b4 25 c0 79 0e 32 c0 79 68 08 3f c7 3d 27 c0
       -2.5891473 -2.7821333 0.5328441 -2.6131456
000230 b2 f3 14 3f 74 e8 57 3e d7 5e 17 c0 f5 97 23 c0
       0.5818435 0.21084768 -2.3651636 -2.5561497
000240 2d b4 1f 3f 0c b0 ff 3d 85 33 28 c0 4c 4e 90 3e
       0.623843 0.1248475 -2.6281445 0.28184736
000250 fb 2f 0a c0 c5 49 03 3f d3 f7 0a 3f 3b 9e 1c c0
       -2.1591785 0.5128444 0.542844 -2.4471576
000260 72 91 04 3f 23 f2 1f c0 19 69 16 c0 63 2f 2a c0
       0.5178443 -2.4991539 -2.3501647 -2.6591423
000270 60 3f c2 3d e2 f3 eb 3e 6b 58 26 c0 af 91 2a c0
       0.09484744 0.46084505 -2.5991466 -2.6651418
000280 9d 6e 09 3f 53 dd 31 c0 9f 3f 32 c0 0f b2 34 3f
       0.5368441 -2.7791336 -2.7851331 0.70584196
000290 03 1d 27 c0 7b db 26 c0 2d 86 00 c0 11 fd 9a 3f
       -2.6111457 -2.607146 -2.0081894 1.210848
0002a0 87 16 10 3f 6f c1 07 c0 92 b4 b6 3e 47 56 2b c0
       0.56284374 -2.1211812 0.3568464 -2.677141
0002b0 3f cb 1e c0 b6 f5 1f 3f 87 31 25 c0 7a b6 e1 3e
       -2.4811552 0.624843 -2.581148 0.4408453
0002c0 af 91 2a c0 b7 58 16 c0 ef 6c 24 c0 8f bc 31 c0
       -2.6651418 -2.3491647 -2.5691488 -2.7771337
0002d0 4a b6 0a 3f 97 83 1d c0 03 1d 27 c0 43 f8 20 c0
       0.541844 -2.4611566 -2.6111457 -2.5151527
0002e0 c4 4a 68 3e a3 77 0b c0 03 1d 27 c0 63 2f 2a c0
       0.22684771 -2.179177 -2.6111457 -2.6591423
0002f0 db 8b 19 c0 bf e3 22 c0 5f a0 17 c0 42 39 2b 3f
       -2.399161 -2.5451505 -2.3691633 0.66884243
000300 74 ed 33 3f 0e a4 de 3e e3 16 26 c0 da c0 b8 3e
       0.702842 0.4348454 -2.595147 0.36084634
000310 57 12 88 bb a3 77 0b c0 e5 e3 1a c0 9f 7b 11 c0
       -0.004152577 -2.179177 -2.4201596 -2.2731702
000320 82 d7 91 3e d7 c0 27 c0 bd 52 0d c0 6b 58 26 c0
       0.28484732 -2.621145 -2.208175 -2.5991466
000330 e6 3f a3 3e 3e 29 ca 3e bb b6 20 c0 86 70 34 3f
       0.31884688 0.3948459 -2.511153 0.704842
000340 79 7b 19 c0 67 5c 2c c0 58 df fd 3e db 1e 32 c0
       -2.3981612 -2.6931398 0.4958446 -2.7831333
000350 1f d9 05 3f cf 97 2b c0 ee e9 94 3e 62 e6 2c 3e
       0.52284425 -2.6811407 0.29084724 0.16884759
000360 2b 88 03 c0 2f 79 26 c0 66 04 c4 3e 75 93 0f 3f
       -2.055186 -2.6011465 0.38284606 0.56084377
000370 67 e5 07 3f e7 43 28 c0 db 29 09 c0 7e 6b 18 3e
       0.53084415 -2.6291444 -2.1431797 0.14884755
000380 09 e6 15 c0 7e 1a ee bf 58 df fd 3e ab 72 f7 bf
       -2.3421652 -1.8601835 0.4958446 -1.9331869
000390 55 79 1e c0 9f 0e 2a c0 ad 41 d3 bd 4f 7f 27 c0
       -2.4761555 -2.6571424 -0.10315261 -2.6171453
0003a0 c8 78 20 3f 5f a0 17 c0 3d 7a c3 bf 73 b2 2a c0
       0.626843 -2.3691633 -1.5271679 -2.6671417
0003b0 8e df bd 3e 4f 7f 27 c0 af 1a fe bf 3f cb 1e c0
       0.3708462 -2.6171453 -1.9851893 -2.4811552
0003c0 1e 6f 80 3e b7 ba 26 c0 f1 39 19 c0 3a 8f 39 3f
       0.25084776 -2.6051462 -2.3941615 0.7248417
0003d0 77 4c 14 c0 66 3f 2c 3f 1b fa 2b c0 9f 3f 32 c0
       -2.317167 0.6728424 -2.6871402 -2.7851331
0003e0 a1 43 02 3f df e9 23 c0 3f fc 26 c0 fc 28 fb bf
       0.50884444 -2.5611494 -2.6091459 -1.9621882
0003f0 ad 93 2d c0 fa f1 c0 3e a7 37 26 c0 ca 6c d5 3e
       -2.7121384 0.37684613 -2.5971467 0.41684562

hidden1_layer.bias_mu f4 [128]
000000 fc ce 9c 3d 58 25 04 3f 1c 0f 65 3f 69 61 e3 bf
       0.07656667 0.5161948 0.8947618 -1.7764102
000010 45 e4 3e 3e 82 15 14 bf b1 ae f3 bf 4c 10 de bf
       0.18641765 -0.5784532 -1.9037687 -1.7348723
000020 69 c7 e7 bf 11 4c ed bf ab 9c 4e bf 6f fd a4 bf
       -1.810773 -1.8538839 -0.80707806 -1.2889842
000030 56 cb e6 bf 66 8f 0c 3f ac ac c3 bf 0e cf d5 bf
       -1.8030803 0.5490631 -1.528707 -1.6703813
000040 00 d5 a3 bf f2 de 64 bf 12 10 a3 bf 10 49 89 be
       -1.2799377 -0.8940269 -1.2739279 -0.26813555
000050 07 ed 5d be a8 be 76 bf 12 4f 69 3e ca 62 f9 bf
       -0.2167245 -0.9638467 0.22784069 -1.9483273
000060 5e 90 c3 bf 50 ed e0 bf 42 1f f6 bf 06 66 3b 3f
       -1.5278432 -1.7572422 -1.9228289 0.7320255
000070 54 82 02 c0 c8 19 d6 bf e7 f1 2a 3e 86 2f de bf
       -2.0392046 -1.6726618 0.16693841 -1.7358253
000080 13 55 f1 bf 41 4e e3 bf 66 ed e3 bf 96 c5 d9 bf
       -1.8854088 -1.7758256 -1.7806823 -1.7013423
000090 54 05 e6 bf c8 5c 05 3f 30 42 e5 be 9c d0 04 c0
       -1.7970376 0.520947 -0.4477706 -2.0752325
0000a0 3b 1e 56 3f 1b bc e1 bf 0d d4 15 bf 19 7c f6 bf
       0.8363988 -1.763553 -0.5852669 -1.9256622
0000b0 40 ed 1a 3f 83 40 4f 3f ed c1 f7 bf 69 13 2a 3f
       0.60518265 0.8095781 -1.9356056 0.6643587
0000c0 90 81 8d bc b0 05 73 3e 64 5f 2f 3f 09 4f fb bf
       -0.017273694 0.23732638 0.6850493 -1.9633495
0000d0 e0 76 01 bf 80 2a 2a be 3c c7 f5 bf 7b d1 2d 3f
       -0.50572014 -0.16617775 -1.9201427 0.67897767
0000e0 49 01 44 3f ca ee ba 3d d4 41 e5 bf 87 3a f8 bf
       0.7656446 0.09127577 -1.7910714 -1.9392861
0000f0 86 0e da bf aa b3 51 3f d9 57 47 3f 56 5c e2 bf
       -1.7035682 0.8191477 0.7786842 -1.7684429
000100 62 b1 0a c0 a0 09 cb bf d0 45 ee bf bb 63 f9 bf
       -2.1670766 -1.5862312 -1.8615055 -1.948356
000110 53 67 2c 3e f0 44 d1 3e ef f0 ff bf eb 0d 86 3f
       0.1683629 0.40872908 -1.9995402 1.0472997
000120 2b 49 c9 3e ac d6 97 bf a0 76 02 c0 2b 33 77 be
       0.39313635 -1.1862388 -2.0384903 -0.24140613
000130 39 37 e6 bf 18 ae a5 bf 08 33 12 3f 99 88 52 3c
       -1.7985603 -1.2943754 0.5710912 0.01284995
000140 10 23 01 c0 3f 94 f2 bf 45 2e 6e bf 3c c6 ec bf
       -2.017765 -1.8951491 -0.9303935 -1.8497996
000150 bb 9c 1e bf cd 8c 9d bf 09 fd 90 bf 8c a9 f7 bf
       -0.619579 -1.2308594 -1.132722 -1.9348617
000160 ca ff c5 3e 21 4a c4 bf 5c 41 a9 bf 4a a9 99 bf
       0.38671714 -1.5335122 -1.3223071 -1.2004788
000170 15 15 f3 bf 6a 44 d9 bf a3 cc ce bf 2a 43 3b 3f
       -1.8990809 -1.6974003 -1.61562 0.7314936
000180 8a c5 81 3e d3 39 44 bd ca c5 ec bf 37 91 d1 bf
       0.25346023 -0.047906708 -1.849786 -1.6372441
000190 ef 6e 02 c0 8e 5c 87 bf 6b 1e e9 bf 86 1e 17 3f
       -2.0380208 -1.057512 -1.8212408 0.5903095
0001a0 cc 3c 1c 3f e6 e6 60 3e b7 cf ff bf 02 bd 27 be
       0.6103027 0.21963081 -1.9985265 -0.16380695
0001b0 47 f1 7f bf e2 a6 cd 3e b8 3a 5a 3f d6 e7 a0 3e
       -0.99977535 0.40166384 0.8524585 0.31426877
0001c0 49 2f 08 c0 12 5d 03 c0 a3 fd dd bf c0 75 c2 3d
       -2.127886 -2.0525556 -1.7343029 0.09495115
0001d0 8f 32 e5 bf 73 8b f8 bf d7 33 bf bf b2 23 ec be
       -1.7906054 -1.9417557 -1.4937695 -0.46120983
0001e0 dd d2 ed bf ce 96 b5 be 44 8a c8 bf fd 6a 2e 3f
       -1.8579975 -0.35466617 -1.5667195 0.68132
0001f0 60 e3 e6 3e 14 c1 e0 bf e4 7f f8 3e ec 50 63 bd
       0.45095348 -1.7558923 0.48535073 -0.055497095

hidden1_layer.bias_log_sigma f4 [128]
000000 78 7c 08 bf 7a 2d a0 3e 4a 4e 90 3e bb b6 20 c0
       -0.53314924 0.31284696 0.2818473 -2.511153
000010 b6 ba b7 3e 18 9a 87 3e 0b 5a f3 bf 9f ac 19 c0
       0.35884637 0.26484752 -1.9011854 -2.401161
000020 7f 44 08 c0 db ed 29 c0 ca b9 c8 bf bd a1 f4 bf
       -2.1291807 -2.6551425 -1.5681698 -1.9111859
000030 37 a2 22 c0 03 06 38 3f 76 76 58 3d 45 f6 1d c0
       -2.5411508 0.71884173 0.05284735 -2.468156
000040 ea c5 dd be ab e8 b5 bf 54 a3 19 bf b6 f7 e0 3d
       -0.4331506 -1.421163 -0.60014844 0.10984747
000050 55 85 51 bd fb 2f 0a c0 57 8a 10 be 67 2b 24 c0
       -0.051152546 -2.1591785 -0.14115272 -2.565149
000060 59 4d d1 bf 45 f6 1d c0 d3 62 1d c0 0b b0 29 3f
       -1.635173 -2.468156 -2.4591568 0.66284245
000070 03 1d 27 c0 29 ec 16 c0 a7 f5 b5 3d fb c2 22 c0
       -2.6111457 -2.358164 0.08884745 -2.5431507
000080 53 dd 31 c0 22 f5 ba be 87 31 25 c0 f4 f4 71 bf
       -2.7791336 -0.36515146 -2.581148 -0.94514394
000090 9b b0 1f c0 8c 68 ff 3e af 05 0a bf 71 f0 0c c0
       -2.4951541 0.4988445 -0.5391492 -2.2021754
0000a0 b8 18 f2 3e e3 83 0d c0 77 ea a0 bf bb e7 28 c0
       0.47284484 -2.2111747 -1.2571553 -2.6391437
0000b0 1e ab 40 be db 3e 3e bf f1 96 37 bf a5 c5 7c 3e
       -0.18815276 -0.7431466 -0.71714693 0.2468477
0000c0 56 d8 e0 be d2 18 6a bd 20 08 23 3f d7 f1 2f c0
       -0.4391505 -0.057152577 0.6368427 -2.7491357
0000d0 54 a3 19 bf 92 2a bb 3c e1 49 31 c0 64 7b 82 3e
       -0.60014844 0.022847448 -2.7701342 0.25484765
0000e0 f2 e6 8d be 15 ea 80 bf 37 a2 22 c0 fb c2 22 c0
       -0.2771526 -1.0071436 -2.5411508 -2.5431507
0000f0 73 50 1a c0 46 2d 18 bd 08 c8 c8 be 57 d9 2b c0
       -2.4111602 -0.03715255 -0.39215112 -2.6851404
000100 c7 6e 2f c0 bd 52 0d c0 b4 a7 e5 bf 5b 06 2e c0
       -2.7411363 -2.208175 -1.7941804 -2.719138
000110 f5 ad d4 3d fe 4f fb 3e ef 0a 14 c0 8b 02 f7 bc
       0.10384742 0.49084467 -2.3131673 -0.03015258
000120 91 6d 43 3e 47 e3 f4 bf 6b 27 1e c0 7f c4 ad 3d
       0.19084765 -1.913186 -2.471156 0.08484744
000130 d1 65 2f bf d0 7a f3 bf 5c f9 90 be 32 ae ba bd
       -0.68514735 -1.9021854 -0.28315246 -0.09115256
000140 24 2f fc bf a7 68 2e c0 0e 22 64 bf 67 c9 13 c0
       -1.9701886 -2.7251375 -0.89114463 -2.3091676
000150 c1 43 30 c0 1b 35 ed bf 9f 2b 81 bf ad 62 25 c0
       -2.7541354 -1.8531832 -1.0091437 -2.5841477
000160 6c 7f 98 3e 41 e7 ea bf 01 b6 e2 bf 7b 07 55 bf
       0.29784715 -1.8351823 -1.7711793 -0.8321454
000170 13 a0 27 c0 36 a7 d8 be d2 09 d6 bf 79 68 08 3f
       -2.6191452 -0.42315072 -1.6721747 0.5328441
000180 98 b8 cc 3e 48 2a d9 be bf 14 2b c0 b3 8d 24 c0
       0.39984584 -0.4241507 -2.6731412 -2.5711486
000190 63 6b 09 c0 9e f5 b5 3d c1 e1 1f c0 de f1 38 bd
       -2.1471794 0.088847384 -2.498154 -0.045152538
0001a0 1e 27 df 3e 3e 30 2c be 20 c2 d4 bf b5 09 20 bf
       0.43584532 -0.16815278 -1.6621742 -0.6251481
0001b0 65 31 6e bd 48 10 2f 3f 44 a4 9e 3e d2 18 6a bd
       -0.058152575 0.6838422 0.309847 -0.057152577
0001c0 f3 ca 2e c0 e3 47 2e c0 56 2d 18 bd 6c 5f f7 be
       -2.731137 -2.7231376 -0.03715261 -0.4831499
0001d0 d7 8f 1f c0 17 fe 31 c0 f7 49 72 bd 1c 97 80 be
       -2.4931543 -2.7811334 -0.05915257 -0.25115287
0001e0 e7 12 20 c0 37 88 72 3e 8a c3 9f bf 96 07 35 bf
       -2.5011537 0.23684774 -1.2481549 -0.707147
0001f0 4c cc 15 bf e7 43 28 c0 bd 52 92 bf 88 81 83 3e
       -0.5851486 -2.6291444 -1.14315 0.25684762

hidden2_layer.weight_mu f4 [128, 128]
000000 a5 bf e0 bf 4e d9 e3 bf c3 d5 e2 bf c2 f9 e8 bf
       -1.7558485 -1.7800691 -1.7721485 -1.820122
000010 21 48 e3 bf 48 0e da bf 3c 06 e6 bf 6d 1f e3 bf
       -1.7756387 -1.7035608 -1.7970653 -1.7743965
000020 3e 6c f0 bf c4 28 f0 bf ab 35 ea bf 24 5b e9 bf
       -1.8783033 -1.8762441 -1.8297628 -1.8230939
000030 4b 72 bd bf 8d 5d ff bf b9 6b f4 bf 7e f2 c3 bf
       -1.4800504 -1.9950424 -1.9095374 -1.5308378
000040 93 2b da bf 0a aa e5 bf df 84 ea bf a7 b6 db bf
       -1.7044548 -1.7942517 -1.8321799 -1.7165116
000050 10 89 e1 bf 9c 54 e9 bf 02 ab d9 bf c6 6e e9 bf
       -1.7619953 -1.8228946 -1.7005312 -1.823693
000060 b7 ac d6 bf 0e 85 e8 bf 8d 69 df bf b1 38 e7 bf
       -1.6771458 -1.8165605 -1.7454087 -1.8064176
000070 ae 6a e2 bf 42 8d f6 bf 90 3c da bf 72 93 f7 bf
       -1.7688806 -1.9261858 -1.7049732 -1.9341872
000080 8c 50 ea bf 88 ed dd bf b0 0c d7 bf 2e d6 e9 bf
       -1.8305831 -1.7338114 -1.6800747 -1.8268487
000090 bf ca d7 bf eb 3d f7 bf 51 0a d1 bf 7f 18 d9 bf
       -1.6858748 -1.9315771 -1.6331273 -1.6960601
0000a0 73 55 f0 bf ad 13 f2 bf 34 de e0 bf ea b2 f4 bf
       -1.8776077 -1.8912255 -1.7567811 -1.91171
0000b0 fb aa c2 bf ef ad dd bf 38 e3 e1 bf 11 20 e8 bf
       -1.5208429 -1.7318705 -1.7647467 -1.8134786
0000c0 38 c1 fd bf 00 ea d8 bf 7e 68 e4 bf 2d ef f4 bf
       -1.9824591 -1.6946411 -1.7844388 -1.9135491
0000d0 1d a7 df bf 3e 22 ef bf 7b 89 f1 bf 6a e7 e4 bf
       -1.7472874 -1.8682325 -1.8870081 -1.7883122
0000e0 eb 5c da bf 2a 8e dd bf 69 52 ee bf c4 bc f1 bf
       -1.7059606 -1.730901 -1.86189 -1.8885732
0000f0 30 0b c9 bf 20 a2 ee bf 6e c1 f4 bf a8 e6 e0 bf
       -1.5706539 -1.8643227 -1.912153 -1.7570391
000100 83 24 eb bf 9f 8f ee bf af af d4 bf fb 22 ea bf
       -1.8370517 -1.863758 -1.6616114 -1.8291925
000110 6b 7f e1 bf 00 64 e6 bf 37 b2 f4 bf 5c 8d e9 bf
       -1.761701 -1.7999268 -1.9116887 -1.8246264
000120 d6 c7 ea bf 48 c8 db bf b8 c8 e2 bf 90 6c d9 bf
       -1.8342235 -1.7170496 -1.7717505 -1.6986256
000130 36 cd d9 bf f7 c4 db bf 2d ff f6 bf 8b 88 d6 bf
       -1.701575 -1.7169484 -1.9296623 -1.676042
000140 ef 13 dc bf d6 12 dc bf 2d c7 e2 bf 7e 55 db bf
       -1.7193583 -1.7193248 -1.7717034 -1.7135465
000150 33 09 e2 bf 7a cc eb bf 60 02 ea bf c6 b3 dd bf
       -1.7659057 -1.8421776 -1.8281975 -1.7320487
000160 a5 90 f0 bf f6 28 ed bf e3 c3 eb bf b0 ba f8 bf
       -1.8794142 -1.8528125 -1.8419155 -1.9431973
000170 ad 53 e9 bf c7 b1 d9 bf 81 56 ef bf 29 ef e3 bf
       -1.8228661 -1.7007378 -1.8698274 -1.7807361
000180 7b ed d4 bf f9 67 ef bf 24 b9 db bf 5e 7e da bf
       -1.6634973 -1.8703605 -1.7165875 -1.7069814
000190 74 77 d3 bf 19 ed e6 bf a0 61 dd bf 99 b6 f5 bf
       -1.6520829 -1.8041106 -1.7295418 -1.9196349
0001a0 4d df e7 bf 79 e8 c8 bf e6 3b da bf d9 49 f1 bf
       -1.8115021 -1.5695945 -1.704953 -1.8850662
0001b0 8b ae ea bf e1 c6 d9 bf e0 3d e6 bf fc 7b e2 bf
       -1.8334516 -1.7013818 -1.7987633 -1.7694087
0001c0 4a c3 f5 bf eb 44 01 c0 1c 16 f5 bf 9d 39 e4 bf
       -1.9200222 -2.0198314 -1.9147372 -1.7830082
0001d0 a3 48 da bf f1 62 e6 bf 12 5b cd bf 67 6f eb bf
       -1.7053417 -1.7998945 -1.6043417 -1.8393372
0001e0 bb 4d e8 bf 16 dd ea bf 85 34 ec bf fb 00 f7 bf
       -1.8148721 -1.834872 -1.8453528 -1.9297174
0001f0 2c db c7 bf 02 9a bd bf 94 1b ed bf 7f de e1 bf
       -1.5613761 -1.4812624 -1.8524041 -1.7646025
000200 b7 35 e8 bf ef 76 e4 bf 38 b2 ee bf 09 fc b4 bf
       -1.8141392 -1.7848796 -1.8648138 -1.4139415
000210 ef 12 df bf 66 b5 df bf 4a c2 e4 bf 25 13 a5 3f
       -1.7427653 -1.7477233 -1.7871792 1.2896467
000220 8c 3f e9 bf 2e dd e5 bf 88 56 cb be 1d 32 f4 bf
       -1.8222518 -1.7958124 -0.39714456 -1.9077793
000230 29 37 dc bf 40 33 f3 bf 07 61 e4 bf df 32 d6 bf
       -1.7204334 -1.9000015 -1.784211 -1.6734275
000240 79 0a e2 bf 2c 15 d6 bf 83 2a cd bf d8 72 b7 bf
       -1.7659446 -1.6725211 -1.6028599 -1.4331923
000250 b5 01 05 c0 72 36 de bf 30 af e8 bf 29 61 e4 bf
       -2.0782292 -1.7360365 -1.8178463 -1.7842151
000260 59 22 d6 bf e2 37 df bf c6 f2 d4 bf b3 bd 66 be
       -1.6729232 -1.7438929 -1.6636589 -0.22533302
000270 3b 06 dd bf d7 8c 00 c0 c5 e9 00 c0 40 24 f2 bf
       -1.7267526 -2.0085962 -2.0142682 -1.8917313
000280 8f e5 f2 bf f9 08 e0 bf 91 ee db bf b1 b6 d6 bf
       -1.8976306 -1.7502738 -1.718218 -1.6774503
000290 80 4c dc bf c8 4c 00 c0 71 9c ea bf 0e b0 cc bf
       -1.7210846 -2.0046864 -1.8328992 -1.5991228
0002a0 aa 46 db bf 9a a0 de bf 54 1b e6 bf 9e 43 c2 bf
       -1.713094 -1.7392762 -1.797709 -1.5176885
0002b0 76 f0 15 bf d2 9f e0 bf 56 69 e7 bf 37 c9 00 c0
       -0.5857004 -1.7548773 -1.8079021 -2.0122812
0002c0 13 9f e6 bf 01 c9 d7 bf 4e e4 eb bf 42 81 dd bf
       -1.8017296 -1.6858217 -1.8429048 -1.7305071
0002d0 97 5e d4 bf 04 9b 00 c0 8c 96 d5 bf 04 ec e3 bf
       -1.6591367 -2.0094614 -1.6686568 -1.7806401
0002e0 ca 66 df bf e4 24 0a c0 6c 98 f5 bf 5e 6e ea bf
       -1.7453244 -2.1585016 -1.918714 -1.8314931
0002f0 d0 af e9 bf 4e 03 f2 bf e5 33 d1 bf 62 98 d7 bf
       -1.8256779 -1.8907259 -1.6343962 -1.6843379
000300 22 b1 db bf 88 66 eb bf 3a 67 f0 bf d9 eb f3 bf
       -1.7163432 -1.8390665 -1.8781502 -1.905635
000310 7c b1 ef bf 9b ae f3 bf 3f 34 e9 bf 7f 50 fa bf
       -1.8726039 -1.903766 -1.8219069 -1.9555815
000320 d2 38 fe bf cf a1 cb bf 20 e6 ef bf cf 4c e9 bf
       -1.986109 -1.5908755 -1.8742104 -1.8226565
000330 23 1d f3 bf 74 23 df bf 4e 02 e8 bf a9 a1 02 c0
       -1.8993267 -1.7432694 -1.8125703 -2.041117
000340 6a 6a e5 bf 87 67 ec bf 19 58 e2 bf 50 cc e6 bf
       -1.79231 -1.8469094 -1.7683135 -1.8031101
000350 67 5d bd bf 4c 08 f3 bf 88 7f e2 bf 9d 34 de bf
       -1.4794129 -1.8986907 -1.769517 -1.7359806
000360 15 d5 e9 bf 83 7d d1 bf bb 78 b0 bf 15 d0 eb bf
       -1.8268152 -1.6366428 -1.3786844 -1.8422877
000370 50 de f6 bf 18 92 eb bf 1a c4 fb bf d2 54 ed bf
       -1.9286594 -1.8403959 -1.966922 -1.854151
000380 46 cd e4 bf 51 ee 03 c0 7b 7e ea bf 9f a0 e6 bf
       -1.7875144 -2.0614207 -1.8319849 -1.8017768
000390 a9 07 eb bf e7 82 f9 bf bd f5 e3 bf 42 9e eb bf
       -1.8361713 -1.9493073 -1.7809368 -1.8407671
0003a0 2c 4d f5 bf a5 3d f3 bf 81 aa e2 bf 53 4b e8 bf
       -1.9164176 -1.9003187 -1.7708284 -1.8147987
0003b0 b9 14 ef bf 1c f5 fa bf 96 14 01 c0 a5 c5 ed bf
       -1.8678199 -1.9606051 -2.0168815 -1.8575941
0003c0 1f 82 d1 bf 57 f4 ee bf 1b 9b d5 bf 54 30 d0 bf
       -1.6367835 -1.8668317 -1.668796 -1.6264749
0003d0 6e df dc bf 8e 5e dd bf b9 d0 e7 bf ff d5 f0 bf
       -1.7255685 -1.7294481 -1.8110572 -1.8815306
0003e0 d8 fd ae bf ff 2b e0 bf e0 64 f9 bf c7 d1 f0 bf
       -1.3671217 -1.7513427 -1.948391 -1.8814019
0003f0 a7 dd d6 bf 69 bd e0 bf 8a 94 e1 bf e4 84 d7 bf
       -1.6786393 -1.7557803 -1.7623456 -1.683743
