model_stock/dynamic_small_evn_all_lr0.0001_25000EP.pth (torch, 356323 bytes, 16 tensors)

input_layer.weight_mu f4 [128, 43]
-0.022537693 -0.4307166 -0.15943614 -0.296732 0.16009678 -0.37675038 0.11443239 -0.23286983
-0.20021218 0.16421084 0.1134836 -0.0047023334 -0.0068203676 0.002489351 -0.044492565 -2.6589383e-05
-4.832648e-05 1.3475001e-05 -0.022425013 -0.36484656 -0.26774058 -0.3874451 0.15959895 -0.4898798
0.09403848 -0.12146196 -0.19434683 0.16186912 0.123258606 -0.004764857 -0.0067603905 0.0025185426
-0.044496402 -9.520754e-05 7.307375e-06 -6.3333675e-05 -0.18958773 -0.55870664 -0.014924936 -0.22546718
-0.164437 0.08383077 -0.1590735 0.2062366 -0.40671128 -0.18253054 -0.32011646 0.21212688
-0.40365064 -0.07991527 0.11604255 -0.02774293 0.10484084 -0.0771475 -0.036637902 -0.05727917
-0.03515567 0.031728186 2.5192428e-05 -3.6917925e-05 0.00010023075 0.20960976 -0.35265356 -0.122571036
-0.28171557 0.21155146 -0.37215278 -0.039084226 -0.02130299 -0.042798005 0.10458306 -0.054746136
-0.036717966 -0.05733545 -0.035005838 0.031836964 4.208659e-05 0.00011746976 -9.227539e-05 -0.07582101
-0.493286 -0.011768898 0.15304083 -0.12993552 0.31492138 0.04324597 0.15658443 -0.4774434
-0.35788977 -0.46850637 0.107188344 -0.5131324 -0.25963372 -0.09494601 0.14870788 -0.03765783
-0.02825737 -0.05258538 -0.07049964 -0.039359674 -0.076526314 0.0001064578 6.458537e-05 6.1087354e-05
0.15650414 -0.54039764 -0.3906209 -0.44205374 0.10703187 -0.49016067 -0.21494107 -0.07000959
0.14873298 0.016767355 -0.1469699 -0.052595124 -0.07060745 -0.039342865 -0.07644716 -5.9988364e-05
-6.0629114e-05 -6.8751833e-06 -0.13815887 -0.5322164 -0.21869811 0.13076471 -0.119371876 0.34231377
-0.07501596 1.492539e-05 -0.6102386 -0.3354765 -0.51335955 0.08613539 -0.69908977 -0.0946112
-0.35265028 2.884691e-05 0.016052991 -5.1774237e-05 -0.053194985 -0.071680635 -0.038570672 -0.08013879
-2.7518377e-05 -8.629853e-06 -8.73133e-05 4.200091e-05 -0.6824271 -0.27294624 -0.463652 0.0864747
-0.64746225 -0.14141273 -0.26916996 9.66008e-05 0.014147423 5.427377e-05 -0.05328113 -0.071705416
-0.038563684 -0.08003685 3.3287455e-05 6.106128e-05 5.539648e-05 -0.20419262 -0.58167344 -0.4076941
0.022625966 -0.055057243 0.10446052 4.271244e-05 0.03704572 -0.3996836 -0.1595542 -0.37189013
0.03247447 -0.54303664 -0.0040646493 -0.12539457 -0.004445007 0.030500453 -0.070746616 -0.00092403014
-0.0010597612 -0.0009168179 6.421284e-05 8.529059e-05 -0.00011344281 -4.7097135e-05 0.03703307 -0.41733846
-0.09596647 -0.554557 0.03238811 -0.40463895 -0.0040611923 -0.10959087 -0.011348944 -0.022021974
-0.103693515 -0.0010623242 -0.0009604466 -0.0009587777 6.631391e-05 1.739162e-05 -8.850179e-05 2.0357067e-05
-0.0046779104 -0.40781724 -0.16779123 -0.0012228342 -0.23378019 -0.037039366 0.033629052 -0.02642979
-0.19064778 -0.042565867 -0.12503386 0.1378417 -0.21285203 0.17006835 0.026590308 0.4274118
-0.40841118 -0.064161286 -0.1395555 -0.017968232 0.10662741 0.3173246 -1.9328887e-05 7.646535e-05
-4.59758e-05 0.03601209 -0.14354746 -0.09910442 -0.0477992 -0.048179433 -0.17162386 0.043958127
-0.13281447 0.30529755 -0.40284565 -0.12122443 0.06710563 -0.02408512 0.11920423 0.42616403
5.737321e-05 -2.2759872e-05 -8.207939e-05 0.48292598 -0.06032656 -0.12813298 -0.081270695 -0.1668713
00000000: f8a0 b8bc e386 dcbe 3a43 23be 42ed 97be
00000010: 69f0 233e 6de5 c0be 875b ea3d 6e75 6ebe
00000020: 6c04 4dbe e326 283e 176a e83d 0816 9abb
00000030: 647d dfbb 6124 233b d63d 36bd 440c dfb7
00000040: 2ab2 4ab8 b012 6237 a9b4 b7bc 2bcd babe
00000050: 4b15 89be 345f c6be e86d 233e 86d1 fabe
00000060: 3f97 c03d 0cc1 f8bd db02 47be 05c1 253e
00000070: 026f fc3d 8422 9cbb 4486 ddbb 220e 253b
00000080: dc41 36bd 29aa c7b8 e031 f536 02d2 84b8
00000090: 4923 42be 6607 0fbf b887 74bc dee0 66be
000000a0: 2c62 28be 77af ab3d 2ae4 22be b02f 533e
000000b0: 763c d0be 49e9 3abe 4ee6 a3be ca37 593e
000000c0: 4cab cebe 9eaa a3bd b7a7 ed3d 2445 e3bc
000000d0: cbb6 d63d 82ff 9dbd a011 16bd 909d 6abd
000000e0: 64ff 0fbd 6af5 013d 5454 d337 52d8 1ab8
000000f0: f932 d238 f1a3 563e 028f b4be 8606 fbbd
00000100: 063d 90be f2a0 583e cf8a bebe c816 20bd
00000110: 9c83 aebc f64c 2fbd a52f d63d 7c3d 60bd
00000120: 9465 16bd 94d8 6abd 4862 0fbd 7a67 023d
00000130: 2286 3038 195a f638 f983 c1b8 0c48 9bbd
00000140: fc8f fcbe 56d2 40bc bcb6 1c3e d10d 05be
00000150: 603d a13e b022 313d ab57 203e 7673 f4be
00000160: 543d b7be 11e0 efbe 9085 db3d a55c 03bf
00000170: b6ee 84be 0e73 c2bd e146 183e 193f 1abd
00000180: 007c e7bc c463 57bd 1e62 90bd 9c37 21bd
00000190: d4b9 9cbd 1942 df38 0272 8738 061c 8038
000001a0: 9f42 203e 8057 0abf 76ff c7be de54 e2be
000001b0: 8633 db3d 57f6 fabe 8319 5cbe 3061 8fbd
000001c0: 754d 183e b15b 893c 477f 16be fc6d 57bd
000001d0: a49a 90bd fc25 21bd 5490 9cbd 049c 7bb8
000001e0: 044c 7eb8 60b1 e6b6 8579 0dbe 563f 08bf
000001f0: 66f2 5fbe 2fe7 053e 3e79 f4bd c043 af3e
00000200: f8a1 99bd 1068 7a37 9938 1cbf 93c3 abbe
00000210: 886b 03bf c067 b03d 8cf7 32bf 84c3 c1bd
00000220: 948e b4be 44fc f137 9081 833c 2a28 59b8
00000230: fce2 59bd 4ccd 92bd 48fc 1dbd ce1f a4bd
00000240: 44d7 e6b7 f0c8 10b7 f91b b7b8 222a 3038
00000250: 8bb3 2ebf 9cbf 8bbe cc63 edbe a619 b13d
00000260: 16c0 25bf 80ce 10be a5d0 89be 2996 ca38
00000270: 98ca 673c 04a4 6338 503d 5abd 4ada 92bd
00000280: f4f4 1dbd 5cea a3bd 229e 0b38 060e 8038
00000290: 8459 6838 df17 51be 8de8 14bf 48bd d0be
000002a0: 175a b93c b483 61bd 66ef d53d 2226 3338
000002b0: 41bd 173d 54a3 ccbe 2d62 23be 6268 bebe
000002c0: f303 053d 7304 0bbf c030 85bb 6f67 00be
000002d0: 6ca7 91bb 16dc f93c 9ae3 90bd 9d3a 72ba
000002e0: afe7 8aba 9c56 70ba 02aa 8638 09de b238
000002f0: 25e8 edb8 2a8a 45b8 fdaf 173d 63ad d5be
00000300: 128a c4bd 73f7 0dbf 65a9 043d d62c cfbe
00000310: c013 85bb 2e71 e0bd ecf0 39bc 6d67 b4bc
00000320: 445d d4bd af3d 8bba 7bc6 7bba 7b56 7bba
00000330: 0212 8b38 38e4 9137 099a b9b8 78c4 aa37
00000340: 2849 99bb 6ccd d0be 77d1 2bbe 8247 a0ba
00000350: 1364 6fbe 97b6 17bd 9ebe 093d 4983 d8bc
00000360: 2c39 43be 8c59 2ebd e008 00be 6026 0d3e
00000370: e2f5 59be 6626 2e3e ebd3 d93c b8d5 da3e
00000380: 451b d1be fe66 83bd a3e7 0ebe 1d32 93bc
00000390: 795f da3d 5f78 a23e 7824 a2b7 065c a038
000003a0: 24d6 40b8 6a81 133d 1bfe 12be 42f7 cabd
000003b0: 18c9 43bd cc57 45bd 2abe 2fbe 700d 343d
000003c0: 8400 08be f64f 9c3e c941 cebe 8444 f8bd
000003d0: ad6e 893d 284e c5bc 5921 f43d 2c32 da3e
000003e0: 04a4 7038 74ec beb7 0922 acb8 1342 f73e
000003f0: fc18 77bd 4b35 03be 4071 a6bd 4fe0 2abe

input_layer.weight_log_sigma f4 [128, 43]
-0.7961643 -0.70914984 -0.5033157 -1.1424217 -0.62593603 -0.908983 -0.89658093 -0.56812644
-0.8879795 -0.5939307 -0.7729604 -0.69954824 -0.6637423 -0.71115017 -0.75505745 -0.6931472
-0.6931472 -0.6931472 -0.89498067 -0.5879297 -0.68574595 -0.84117174 -0.5883298 -0.7729604
-0.5823288 -0.72795296 -0.800365 -0.69954824 -0.64533925 -0.6999483 -0.72075176 -0.67914486
-0.6408385 -0.6931472 -0.6931472 -0.6931472 -0.50071526 -0.85157347 -0.6373379 -0.61873484
-0.6795449 -0.8807783 -0.5659261 -0.57472754 -1.0093997 -0.67114353 -0.8589747 -0.8193681
-0.9337871 -0.79476404 -0.6635423 -0.7475562 -0.6853459 -1.0446055 -0.5883298 -0.6209352
-0.5883298 -0.6613419 -0.6931472 -0.6931472 -0.6931472 -0.8385713 -0.9667926 -0.8437722
-0.72735286 -0.7349541 -0.6003318 -0.72255206 -0.6041324 -0.6955476 -0.740155 -0.7939639
-0.86527574 -0.734354 -0.77015996 -0.6613419 -0.6931472 -0.6931472 -0.6931472 -0.7985647
-0.68034506 -0.661742 -1.1418216 -0.7431555 -0.547523 -1.2220349 -0.6179347 -0.5745275
-0.4495218 -0.9221852 -0.7933638 -1.1942303 -0.5547242 -0.7589581 -0.6835456 -0.7003484
-0.9307866 -0.48411724 -0.7637589 -0.65014005 -0.77436066 -0.6931472 -0.6931472 -0.6931472
-0.68094516 -0.6361377 -0.9319868 -0.8437722 -0.68094516 -1.0009983 -0.57832813 -0.5709269
-0.5685265 -0.7233522 -0.89298034 -0.74415565 -0.66634274 -0.7143507 -0.75695777 -0.6931472
-0.6931472 -0.6931472 -0.6885464 -0.8927803 -0.6191349 -0.7739606 -0.6883464 -1.0580077
-0.9679928 -0.6985481 -0.6931472 -0.6931472 -0.7715602 -0.6931472 -0.88577914 -0.7391548
-0.83637094 -0.6931472 -0.6691432 -0.6931472 -0.6931472 -0.7727604 -0.6931472 -0.7927637
-0.6931472 -0.6931472 -0.6931472 -0.6931472 -0.7807617 -0.72915316 -0.88817954 -0.6931472
-0.8879795 -0.6931472 -0.6847458 -0.6931472 -0.6931472 -0.686146 -0.6631422 -0.7657592
-0.6931472 -0.6933472 -0.6931472 -0.6931472 -0.6931472 -0.7033489 -0.78276205 -0.65194035
-0.8753774 -0.6931472 -1.0814116 -1.0420051 -0.6629422 -0.878978 -0.7307534 -0.7685597
-0.655741 -1.0844121 -0.7307534 -0.67854476 -0.7307534 -0.7307534 -0.67134356 -0.72375226
-0.7009485 -0.655941 -0.6931472 -0.6931472 -0.6931472 -0.6931472 -0.6937473 -0.655941
-0.52471924 -0.69294715 -0.655741 -1.1230185 -0.7527571 -0.70134854 -0.6885464 -0.72375226
-0.76515913 -0.6939473 -0.65554094 -0.7307534 -0.6931472 -0.6931472 -0.6931472 -0.6931472
-0.70254874 -0.6943474 -0.65554094 -0.7217519 -0.6403384 -0.66214204 -0.655741 -0.6631422
-1.0846121 -0.4533213 -1.005199 -0.73875475 -1.2376375 -0.5873296 -0.49311605 -0.7921636
-0.72075176 -1.0148005 -0.7511568 -0.7969644 -0.8169677 -1.0204015 -0.6931472 -0.6931472
-0.6931472 -0.860975 -1.0904131 -0.33633676 -0.8193681 -0.7691598 -0.8389714 -0.9361875
-0.8299699 -0.9181845 -0.9161842 -0.76475906 -0.79656434 -0.77136016 -1.5796943 -0.80856633
-0.6931472 -0.6931472 -0.6931472 -0.7035489 -0.8239689 -0.37653145 -0.94018817 -0.89378047
00000000: 6cd1 4bbf d88a 35bf 4cd9 00bf e03a 92bf
00000010: 583d 20bf 1cb3 68bf 5486 65bf bc70 11bf
00000020: a052 63bf d80b 18bf bce0 45bf 9815 33bf
00000030: 04eb 29bf f00d 36bf 724b 41bf 1872 31bf
00000040: 1872 31bf 1872 31bf 741d 65bf 9082 16bf
00000050: 0c8d 2fbf 0857 57bf c89c 16bf bce0 45bf
00000060: 8013 15bf 205b 3abf b8e4 4cbf 9815 33bf
00000070: f434 25bf d02f 33bf 3083 38bf 70dc 2dbf
00000080: fe0d 24bf 1872 31bf 1872 31bf 1872 31bf
00000090: e02e 00bf b800 5abf 9428 23bf 6865 1ebf
000000a0: a8f6 2dbf b07a 61bf 88e0 10bf 5821 13bf
000000b0: 0234 81bf 10d0 2bbf c4e5 5bbf 1cc2 51bf
000000c0: ac0c 6fbf a875 4bbf e8dd 29bf d85f 3fbf
000000d0: d472 2fbf a2b5 85bf c89c 16bf 9cf5 1ebf
000000e0: c89c 16bf b44d 29bf 1872 31bf 1872 31bf
000000f0: 1872 31bf 9cac 56bf b87f 77bf 7401 58bf
00000100: cc33 3abf f425 3cbf 58af 19bf 2cf9 38bf
00000110: 6ca8 1abf 680f 32bf cc7a 3dbf 3841 4bbf
00000120: b682 5dbf a0fe 3bbf 3429 45bf b44d 29bf
00000130: 1872 31bf 1872 31bf 1872 31bf bc6e 4cbf
00000140: 182b 2ebf ec67 29bf 3627 92bf 703f 3ebf
00000150: 782a 0cbf a46b 9cbf f830 1ebf 3c14 13bf
00000160: b927 e6be 5414 6cbf e419 4bbf 8adc 98bf
00000170: 6802 0ebf 144b 42bf d8fc 2ebf 084a 33bf
00000180: 0848 6ebf 37de f7be b485 43bf 946f 26bf
00000190: 803c 46bf 1872 31bf 1872 31bf 1872 31bf
000001a0: 6c52 2ebf ecd9 22bf b096 6ebf 7401 58bf
000001b0: 6c52 2ebf b620 80bf 500d 14bf 4428 12bf
000001c0: f48a 11bf 9c2d 39bf 5c9a 64bf fc80 3ebf
000001d0: 7095 2abf b0df 36bf fcc7 41bf 1872 31bf
000001e0: 1872 31bf 1872 31bf 9444 30bf 408d 64bf
000001f0: a07f 1ebf 4822 46bf 7837 30bf cc6c 87bf
00000200: 60ce 77bf 0cd4 32bf 1872 31bf 1872 31bf
00000210: f884 45bf 1872 31bf 6cc2 62bf 4039 3dbf
00000220: 681c 56bf 1872 31bf f84c 2bbf 1872 31bf
00000230: 1872 31bf a0d3 45bf 1872 31bf 90f2 4abf
00000240: 1872 31bf 1872 31bf 1872 31bf 1872 31bf
00000250: 00e0 47bf c8a9 3abf bc5f 63bf 1872 31bf
00000260: a052 63bf 1872 31bf 804b 2fbf 1872 31bf
00000270: 1872 31bf 44a7 2fbf b0c3 29bf cc08 44bf
00000280: 1872 31bf 347f 31bf 1872 31bf 1872 31bf
00000290: 1872 31bf ac0e 34bf 1863 48bf 90e5 26bf
000002a0: bc18 60bf 1872 31bf b26b 8abf 6c60 85bf
000002b0: 94b6 29bf b404 61bf a812 3bbf 54c0 44bf
000002c0: a4de 27bf 04ce 8abf a812 3bbf 1cb5 2dbf
000002d0: a812 3bbf a812 3bbf 2cdd 2bbf d447 39bf
000002e0: 5c71 33bf c0eb 27bf 1872 31bf 1872 31bf
000002f0: 1872 31bf 1872 31bf 6c99 31bf c0eb 27bf
00000300: 0054 06bf fc64 31bf a4de 27bf 12bf 8fbf
00000310: b0b4 40bf 948b 33bf 9444 30bf d447 39bf
00000320: 78e1 43bf 88a6 31bf 88d1 27bf a812 3bbf
00000330: 1872 31bf 1872 31bf 1872 31bf 1872 31bf
00000340: 3cda 33bf c0c0 31bf 88d1 27bf bcc4 38bf
00000350: 38ed 23bf 2482 29bf a4de 27bf b0c3 29bf
00000360: 92d4 8abf bb19 e8be 5caa 80bf 081f 3dbf
00000370: e86a 9ebf 3c5b 16bf b579 fcbe 3ccb 4abf
00000380: 3083 38bf fce4 81bf d04b 40bf dc05 4cbf
00000390: cc24 51bf 849c 82bf 1872 31bf 1872 31bf
000003a0: 1872 31bf dc68 5cbf a892 8bbf 5534 acbe
000003b0: 1cc2 51bf a8e7 44bf d4c6 56bf fca9 6fbf
000003c0: e878 54bf 240e 6bbf 0c8b 6abf 40c7 43bf
000003d0: a4eb 4bbf dc77 45bf 6c33 cabf 34fe 4ebf
000003e0: 1872 31bf 1872 31bf 1872 31bf c81b 34bf
000003f0: a0ef 52bf bbc8 c0be 2cb0 70bf ccce 64bf

input_layer.bias_mu f4 [128]
-0.49577615 -0.425309 -0.5576838 -0.7466639 -0.63004565 -0.089853555 -0.6295979 0.026923522
-0.6089138 -0.344502 -0.62149507 -0.57807124 -0.35865635 -0.27246034 -0.37268245 -0.34069973
-0.48851934 -0.073073894 -0.16529813 -0.6185588 -0.7587775 -0.733298 -0.4854192 -0.40568203
-0.24566972 -0.10801923 -0.17239265 -0.4224812 -0.62922657 -0.6898611 -0.17092411 -0.6171488
-0.7123882 -0.49930313 -0.7695319 -0.5592894 -0.64952594 -0.03164271 -0.48249966 -0.56893575
-0.43026048 -0.5583313 -0.36982816 -0.4887626 -0.6925905 -0.6088732 -0.5533865 -0.7114851
-0.46235123 -0.64734465 -0.66005564 -0.81775284 -0.54946 -0.31668693 -0.15933011 0.050172172
-0.12273763 -0.46999258 -0.23647338 -0.53062665 -0.31546372 -0.17524886 -0.42405957 -0.73546845
-0.42855284 -0.7435799 -0.4442767 -0.7469632 -0.49330255 -0.43606704 -0.6560313 -0.74299157
-0.50815684 -0.55531657 -0.67947614 -0.5725775 -0.73332644 -0.7555898 -0.55046 -0.65263236
-0.595436 -0.43768626 -0.55593526 -0.78470474 -0.09887266 -0.49401712 -0.7205357 -0.3457335
-0.60971636 -0.4516132 -0.54128236 -0.50447667 -0.6848432 -0.5824733 -0.44066793 -0.5594128
-0.65090716 -0.5989013 -0.66860026 -0.7417119 -0.73902637 -0.09867245 -0.458277 -0.43666893
-0.5436559 -0.5729369 -0.5360536 -0.31565905 -0.70295835 -0.7580827 -0.40952876 -0.116413474
-0.20587382 -0.12693323 -0.6651837 -0.52165896 -0.74071026 -0.4942028 -0.7536003 -0.38404477
-0.6319377 -0.003780344 -0.6647514 -0.25775123 -0.18182746 -0.4761677 -0.2980219 -0.51073486
00000000: 5fd6 fdbe 1ac2 d9be 5ec4 0ebf 5e25 3fbf
00000010: ac4a 21bf 2405 b8bd 542d 21bf b88e dc3c
00000020: c6e1 1bbf 9162 b0be 4d1a 1fbf 7afc 13bf
00000030: cea1 b7be ec7f 8bbe 3cd0 bebe 3270 aebe
00000040: 351f fabe c4a7 95bd ea43 29be df59 1ebf
00000050: 3e3f 42bf 6bb9 3bbf de88 f8be 8eb5 cfbe
00000060: d890 7bbe 3039 ddbd b387 30be 754f d8be
00000070: fe14 21bf bd9a 30bf bb06 2fbe 77fd 1dbf
00000080: 135f 36bf a9a4 ffbe 0b00 45bf 972d 0fbf
00000090: 5547 26bf c99b 01bd 320a f7be c6a5 11bf
000000a0: 1a4b dcbe cdee 0ebf 1e5a bdbe 173f fabe
000000b0: 9c4d 31bf 1ddf 1bbf bdaa 0dbf e323 36bf
000000c0: 4db9 ecbe 61b8 25bf 68f9 28bf 4058 51bf
000000d0: 69a9 0cbf ca24 a2be 6f27 23be 5681 4d3d
000000e0: de5d fbbd dea2 f0be 1426 72be 26d7 07bf
000000f0: 7684 a1be 7074 33be 561e d9be a947 3cbf
00000100: 476b dbbe 415b 3ebf 3c78 e3be fb38 3fbf
00000110: 2792 fcbe 2e44 dfbe abf1 27bf b234 3ebf
00000120: 9116 02bf 3a29 0ebf 26f2 2dbf 7094 12bf
00000130: 48bb 3bbf 556e 41bf f2ea 0cbf ea12 27bf
00000140: 7e6e 18bf 6a18 e0be c651 0ebf 69e2 48bf
00000150: c07d cabd d0ef fcbe 0775 38bf fb03 b1be
00000160: 5f16 1cbf d839 e7be 7b91 0abf 6225 01bf
00000170: e251 2fbf f81c 15bf 3a9f e1be ad35 0fbf
00000180: daa1 26bf 9851 19bf 6329 2bbf d5e0 3dbf
00000190: d530 3dbf c814 cabd 48a3 eabe 1293 dfbe
000001a0: 082d 0bbf feab 12bf cf3a 09bf 109e a1be
000001b0: 14f5 33bf b511 42bf c1ad d1be 306a eebd
000001c0: 96d0 52be c9fa 01be 7b49 2abf 718b 05bf
000001d0: 309f 3dbf 2608 fdbe f3eb 40bf 84a1 c4be
000001e0: abc6 21bf a6bf 77bb 262d 2abf f8f7 83be
000001f0: fa30 3abe 41cc f3be 5496 98be 85bf 02bf

input_layer.bias_log_sigma f4 [128]
-1.2720432 -1.0120001 -0.94538903 -1.2030318 -1.0124002 -1.2850454 -0.8999815 -0.6353376
-1.2384377 -0.704149 -1.0800114 -0.6985481 -1.421468 -1.0260024 -0.8817785 -1.0079994
-1.0870125 -0.7565577 -0.56392574 -1.0972142 -0.8777778 -1.1096163 -0.78216195 -0.69474745
-1.0736103 -0.71895146 -0.9415884 -1.1266191 -0.7547574 -1.1336203 -0.78996325 -0.9379878
-0.9537904 -0.93338704 -1.1670258 -0.9909966 -0.69414735 -0.8781779 -0.5969312 -1.2062323
-0.7191515 -0.8687763 -0.61153364 -0.94858956 -1.0832119 -1.19263 -0.6884464 -0.90698266
-1.2918465 -1.0608082 -0.87677765 -1.0240021 -0.66714287 -1.2444386 -0.83397055 -0.97979474
-1.1024151 -0.8655758 -0.90198183 -1.1896296 -1.2566407 -1.1286194 -0.9953973 -1.1310198
-0.8211684 -1.138021 -0.9349873 -0.95519066 -1.2712431 -0.59113026 -1.3118498 -0.7681596
-0.9843955 -1.0059991 -0.8621752 -0.9277861 -1.5620914 -0.8579745 -1.1250188 -1.1166174
-0.66754293 -0.7837622 -0.842772 -1.318851 -0.96839285 -1.2692428 -0.90458226 -1.023602
-1.2047321 -1.390863 -1.2050321 -1.1964307 -1.1516232 -1.2216349 -1.1104164 -0.5179181
-1.0214016 -1.1846287 -1.5198843 -0.8921802 -0.9781945 -1.1270192 -1.0552073 -0.94118834
-1.3996644 -1.0552073 -1.1334202 -0.9343872 -1.1362207 -1.3304529 -1.0091996 -0.7389548
-0.872777 -1.1030152 -0.94368875 -1.0524068 -1.156024 -1.1046154 -0.99299693 -1.0549072
-1.2788444 -0.94678926 -0.9373877 -1.2506397 -0.83937144 -0.8613751 -1.397064 -1.1060157
00000000: 50d2 a2bf 3889 81bf 0405 72bf f2fc 99bf
00000010: 5496 81bf 5e7c a4bf 3065 66bf 7ca5 22bf
00000020: 2085 9ebf 1c43 34bf d03d 8abf 0cd4 32bf
00000030: aaf2 b5bf 0c54 83bf 3cbc 61bf 2006 81bf
00000040: 3a23 8bbf c4ad 41bf 705d 10bf 8471 8cbf
00000050: 0cb6 60bf e807 8ebf c43b 48bf f8da 31bf
00000060: 106c 89bf 340d 38bf f00b 71bf 0e35 90bf
00000070: c837 41bf 781a 91bf 083b 4abf f81f 70bf
00000080: 9c2b 74bf 74f2 6ebf 1a61 95bf f4b1 7dbf
00000090: a4b3 31bf 44d0 60bf 7cd0 18bf d265 9abf
000000a0: 501a 38bf 2068 5ebf 788d 1cbf c4d6 72bf
000000b0: b0a6 8abf 1aa8 98bf 063e 30bf 0430 68bf
000000c0: 3a5b a5bf 90c8 87bf 8074 60bf 8012 83bf
000000d0: e0c9 2abf c449 9fbf 187f 55bf d4d3 7abf
000000e0: f01b 8dbf 6096 5dbf 48e8 66bf c845 98bf
000000f0: 9ad9 a0bf 9a76 90bf 5cd2 7ebf 42c5 90bf
00000100: 1838 52bf acaa 91bf 545b 6fbf 6087 74bf
00000110: 18b8 a2bf 5054 17bf b2ea a7bf 1ca6 44bf
00000120: 5801 7cbf 94c4 80bf 84b7 5cbf 6483 6dbf
00000130: 9cf2 c7bf 38a4 5bbf 9e00 90bf 52ed 8ebf
00000140: 18e4 2abf a4a4 48bf e8bf 57bf 1cd0 a8bf
00000150: 98e8 77bf 8c76 a2bf b492 67bf 6405 83bf
00000160: a934 9abf cc07 b2bf 7e3e 9abf a424 99bf
00000170: 6468 93bf 885e 9cbf 2022 8ebf 4896 04bf
00000180: 4abd 82bf eaa1 97bf 928b c2bf ec65 64bf
00000190: f46a 7abf 2a42 90bf 0811 87bf b8f1 70bf
000001a0: 3428 b3bf 0811 87bf ea13 91bf 0034 6fbf
000001b0: ae6f 91bf 484c aabf 742d 81bf 242c 3dbf
000001c0: 506e 5fbf 9a2f 8dbf 9695 71bf 44b5 86bf
000001d0: 98f8 93bf 0a64 8dbf 0c35 7ebf 3307 87bf
000001e0: 2cb1 a3bf c860 72bf a4f8 6fbf f614 a0bf
000001f0: 0ce1 56bf 1483 5cbf fed2 b2bf ec91 8dbf

hidden1_layer.weight_mu f4 [128, 128]
-0.009589629 -0.17199408 0.13608953 -4.7808528e-05 -0.0008175704 0.06369062 -0.023608794 -0.2977209
-0.030980753 -0.018349022 0.0941392 -0.013627024 0.068736255 0.11308637 -0.043033913 -0.016167453
3.4155448e-05 -0.022762517 0.09065816 -0.06765489 0.03769332 -0.17471665 0.4627622 -0.12570922
0.12447098 0.3737434 -0.027069956 -0.21986486 -0.00011039191 0.015450928 0.24117883 -0.047949597
-0.012601038 0.0061666463 -0.10548446 0.107268035 0.068974294 0.2093416 0.0047437884 -2.8437156e-05
-0.017632527 -0.15190835 0.07558684 0.19276604 -0.15094797 0.064006105 0.0923059 0.1065916
0.06824714 -9.4828865e-06 0.030229786 3.2147516e-05 -0.050096408 0.4629038 -0.04781118 -0.24061355
-0.26682368 -0.14354962 0.15469505 0.18948388 0.076724924 0.15958083 -0.14481734 -0.07023393
-0.50114226 0.08273162 0.08300244 -9.8850964e-05 -0.112188265 0.07793532 -0.015618382 -4.1077074e-05
-0.016428163 -0.09983329 0.022880103 0.02650863 -0.043614224 -0.003549776 0.017951181 0.12666905
-0.08138552 -0.06867789 -0.055234995 0.015434111 0.15674697 0.2878686 -0.00035953018 0.36254832
-0.04643995 0.07206742 0.18568513 -0.188484 0.05659322 -0.11571863 0.013217112 -0.3751276
-0.04856068 0.19073609 0.24653836 -0.02719093 0.03540073 0.23224181 0.30245677 0.032910973
0.003496981 -0.051768042 -0.061814427 -0.031013405 0.03775829 0.002744821 0.24613877 0.31194034
-0.16607606 -0.2468659 0.019615306 -0.019531734 -0.014790991 0.049638994 -0.05816497 -0.08436852
-0.17976175 -0.17393954 -0.002350172 0.052882567 0.35154393 -0.123238295 -0.06429453 0.0037627085
-0.062971145 0.09238553 0.078281745 -0.08515264 0.033775315 0.08807179 -0.11313514 0.24890633
0.17792474 0.4703718 0.050788213 -0.21491553 -0.06871335 -0.20111878 0.0329663 -0.11251232
-0.0051465705 0.056408897 -0.042816482 0.13464345 0.07727526 0.18473645 0.29223958 0.071228325
0.14538108 0.18911202 0.2431129 0.36329663 7.2402618e-06 -0.10737002 0.57128197 0.002087205
0.063409284 0.13666582 0.19333139 0.024028962 -0.090786956 0.29368505 0.013714977 0.06277616
0.029541872 0.09283069 0.038406923 0.12880597 0.16150676 -0.10154016 -0.01256015 -0.011541463
0.33114904 -0.034344077 0.5772508 7.956863e-05 0.04031678 0.09440678 -0.012853172 0.3820122
0.48022175 0.14056791 -0.05383014 0.0071872827 0.40721622 0.22067681 0.016497098 -0.06302489
0.15100667 0.13746172 -0.0033402988 0.18012016 -0.028566038 0.08906539 -0.1229766 0.005345829
0.02222391 0.099816754 -0.022055913 -0.04429385 0.09247053 -0.003758879 0.06528257 0.0015115128
0.0033922163 -0.030241096 -0.047256783 -0.16489072 0.00996309 0.2936277 -0.0014222864 0.09663217
0.37357846 0.020453952 0.17171304 0.18180099 0.13901614 0.14643842 0.1793855 -0.012364944
0.075738266 0.1276272 -0.13654795 0.0207356 0.15981075 0.30023694 0.21810608 -0.1579845
-9.265921e-05 -0.021168912 -0.03045128 0.12592521 0.047986463 0.020824896 0.3668141 -0.037148915
0.06888296 0.11847614 -0.006000364 -0.035402842 -0.034037516 -0.034832552 0.056918964 0.31168497
0.13959807 0.5509688 8.646414e-05 0.051383063 0.17212878 0.04296127 -0.17785113 8.056308e-05
00000000: d21d 1dbc 371f 30be 0e5b 0b3e 0486 48b8
00000010: 3952 56ba 3a70 823d 3b67 c1bc e06e 98be
00000020: 59cb fdbc b050 96bc 0ecc c03d e243 5fbc
00000030: 98c5 8c3d d499 e73d 5444 30bd 9b71 84bc
00000040: 2242 0f38 7578 babc fcaa b93d a68e 8abd
00000050: 5064 1a3d ece8 32be 2bef ec3e ebb9 00be
00000060: a4ea fe3d 4c5b bf3e d0c1 ddbc 4124 61be
00000070: 3582 e7b8 e425 7d3c 95f7 763e cc66 44bd
00000080: 9674 4ebc 9411 ca3b 3d08 d8bd 58af db3d
00000090: 6542 8d3d a55d 563e c871 9b3b 548c eeb7
000000a0: 1772 90bc dd8d 1bbe 46cd 9a3d 7664 453e
000000b0: 1b92 1abe a215 833d e00a bd3d b24c da3d
000000c0: 28c5 8b3d b018 1fb7 75a4 f73c 22d6 0638
000000d0: e431 4dbd ba01 ed3e a8d5 43bd 6663 76be
000000e0: 1d9d 88be acfe 12be 6168 1e3e 1008 423e
000000f0: f521 9d3d 2869 233e ff4a 14be cfd6 8fbd
00000100: dc4a 00bf 326f a93d 2ffd a93d 354e cfb8
00000110: f6c2 e5bd 8e9c 9f3d 3ee4 7fbc 2c4a 2cb8
00000120: 5b94 86bc 6575 ccbd 0e6f bb3c a028 d93c
00000130: d4a4 32bd 5ca3 68bb 5b0e 933c 88b5 013e
00000140: 74ad a6bd fea6 8cbd 173e 62bd 5adf 7c3c
00000150: 4782 203e 8363 933e 537f bcb9 ef9f b93e
00000160: d137 3ebd 1598 933d 3e24 3e3e f301 41be
00000170: 4bce 673d e4fd ecbd 968c 583c ba10 c0be
00000180: 90e7 46bd 5250 433e 8d74 7c3e 83bf debc
00000190: 5b00 113d ccd0 6d3e 9ddb 9a3e a8cd 063d
000001a0: 9b2d 653b ba0a 54bd 2031 7dbd d30f febc
000001b0: 70a8 1a3d 74e2 333b cd0b 7c3e a5b6 9f3e
000001c0: d80f 2abe 6aca 7cbe 47b0 a03c 0401 a0bc
000001d0: ea55 72bc 4252 4b3d 643e 6ebd 67c9 acbd
000001e0: 7713 38be 351d 32be 5805 1abb 649b 583d
000001f0: 91fd b33e 5c64 fcbd daac 83bd c697 763b
00000200: 04f7 80bd a034 bd3d 2e52 a03d 8264 aebd
00000210: fc57 0a3d fc5e b43d 65b3 e7bd 4de1 7e3e
00000220: e731 363e 93d4 f03e 4d07 503d d112 5cbe
00000230: 96b9 8cbd 15f2 4dbe ac07 073d dc6c e6bd
00000240: 90a4 a8bb 040d 673d 5660 2fbd f9df 093e
00000250: 7e42 9e3d 8d2b 3d3e 6da0 953e 28e0 913d
00000260: c7de 143e 95a6 413e 97f2 783e 0402 ba3e
00000270: 60f1 f236 d0e4 dbbd 893f 123f 7dc9 083b
00000280: badc 813d 20f2 0b3e aaf8 453e 63d8 c43c
00000290: 83ee b9bd e35d 963e c8b4 603c ca90 803d
000002a0: cc01 f23c 041e be3d 9450 1d3d b6e5 033e
000002b0: 0762 253e 4af4 cfbd 16c9 4dbc 6818 3dbc
000002c0: 5e8c a93e 60ac 0cbd b5c6 133f 15de a638
000002d0: 3523 253d 5858 c13d 1c96 52bc 1a97 c33e
000002e0: a0df f53e 09f1 0f3e fe7c 5cbd 4c83 eb3b
000002f0: a57e d03e 1af9 613e ec24 873c 3213 81bd
00000300: 7ea1 1a3e c4c2 0c3e eae8 5abb 6b71 383e
00000310: 5303 eabc ea67 b63d 28db fbbd 102c af3b
00000320: eb0e b63c ba6c cc3d 9aae b4bc 786d 35bd
00000330: 3061 bd3d 8657 76bb deb2 853d f41d c63a
00000340: f24f 5e3b 2dbc f7bc 5490 41bd 1dd9 28be
00000350: 3a3c 233c 5f56 963e 036c baba 16e7 c53d
00000360: ad45 bf3e 0c8f a73c 8bd5 2f3e 0a2a 3a3e
00000370: 3f5a 0e3e f4f3 153e d5b0 373e 5696 4abc
00000380: aa1c 9b3d b4b0 023e 3ad3 0bbe b4dd a93c
00000390: 6ea5 233e a8b8 993e 3357 5f3e b0c6 21be
000003a0: 0952 c2b8 6d6a adbc f674 f9bc 8af2 003e
000003b0: 748d 443d f998 aa3c 0fcf bb3e 7629 18bd
000003c0: 8212 8d3d 9ea3 f23d b49e c4bb 9202 11bd
000003d0: ec6a 0bbd 94ac 0ebd dc23 693d 2c95 9f3e
000003e0: ccf2 0e3e 4b0c 0d3f 1554 b538 0c77 523d
000003f0: 8742 303e 28f8 2f3d 9b1e 36be f9f3 a838

hidden1_layer.weight_log_sigma f4 [128, 128]
-0.8777778 -0.89978147 -0.5317204 -0.6931472 -0.7259526 -1.2058322 -0.6313369 -0.89838123
-0.66214204 -0.58973 -0.6081331 -0.80336547 -0.65134025 -0.86117506 -0.7313535 -0.75815797
-0.6931472 -0.5739274 -0.7197516 -0.76095843 -0.65554094 -0.6925471 -0.23014782 -0.7457559
-0.55852485 -0.55552435 -0.7757609 -0.72795296 -0.6819453 -0.55612445 0.015755476 -0.68754625
-0.6969478 -0.8311701 -0.6047325 -0.65074015 -0.6533406 -1.2088327 -0.43692347 -0.6931472
-0.6487398 -0.9747939 -0.6341374 -0.8301699 -0.6777446 -0.7005484 -0.7190515 -0.6063328
-0.81416726 -0.66814303 -0.6371379 -0.6931472 -0.67294383 -0.9017818 -0.6119337 -0.6021321
-0.85277367 -0.71395063 -0.88337874 -0.758358 -0.493516 -0.8951807 -0.6901467 -0.607533
-0.5559244 -0.69774795 -0.607733 -0.6931472 -0.7367544 -0.8685763 -0.5721271 -0.6931472
-0.6765444 -0.7721603 -0.67114353 -0.6931472 -0.6493399 -0.6637423 -0.48551705 -0.56572604
-0.7377546 -0.76175857 -0.6117337 -0.6517403 -0.77556086 -0.6155343 -0.6967478 -0.7009485
-0.80026495 -0.5545242 -0.62173533 -0.9457891 -0.7497566 -0.6945474 -0.7277529 -0.96539235
-0.69354725 -0.43692347 -0.9113834 -0.70674944 -0.6516403 -0.6517403 -0.5891299 -0.8113668
-0.6931472 -0.6551409 -0.63093686 -0.49251613 -0.685946 -0.6889465 -0.5481231 -0.9341872
-1.114217 -0.6885464 -0.6692432 -0.68214536 -0.65734124 -0.6949475 -0.7235522 -0.66884315
-0.5281198 -0.77616096 -0.6931472 -0.9373877 -0.78336215 -0.6287365 -0.69534755 -0.6931472
-0.91298366 -0.7937639 -0.7553575 -0.6931472 -0.84417224 -1.4450719 -0.5745275 -0.79896474
-0.7355542 -0.6577413 -0.7517569 -0.703949 -0.5745275 -0.40092823 -0.6089332 -0.3285378
-0.6931472 -0.7835622 -1.4506729 -0.7395549 -0.7323537 -0.69414735 -0.6987481 -0.5673263
-1.0360041 -0.36973235 -1.3280525 -0.8661759 -0.6937473 -0.87857795 -1.3805612 -0.76095843
-0.7355542 -0.7415552 -0.6759443 -0.6341374 -0.7663593 -0.59413075 -0.8619752 -0.6931472
-0.6757443 -0.349735 -0.7901633 -0.987396 -0.61873484 -0.655741 -0.83107007 -0.848773
-0.27534482 -0.7359543 -0.50671625 -0.7089498 -0.6999483 -0.9383879 -0.91118336 -0.90638256
-0.5877297 -0.98399544 -0.72015166 -0.67734456 -0.75935817 -1.1304197 -0.752157 -0.6341374
-0.55982506 -0.7307534 -0.5951309 -0.6329372 -0.68394566 -0.70674944 -0.89658093 -0.68574595
-0.67354393 -0.6427388 -0.71515083 -0.6895466 -0.8169677 -0.6931472 -0.842872 -0.8415718
-0.79666436 -0.6283364 -0.90578246 -0.6963477 -0.48351732 -0.54772305 -0.87677765 -0.7855625
-0.6726438 -0.48271742 -0.5183182 -0.6769445 -0.7057493 -0.6939473 -0.80196524 -0.6873462
-0.78696275 -0.613734 -0.57312727 -0.68574595 -0.7506567 -1.096214 -0.878778 -0.8289697
-0.69834805 -0.67354393 -0.619735 -0.5421221 -0.6245358 -0.7191515 -0.8202683 -0.9077828
-0.83517075 -0.9475894 -0.72005165 -0.6349375 -0.68694615 -0.7087498 -0.69894814 -0.44222277
-0.8591747 -1.234437 -0.6931472 -0.82556915 -0.98159504 -0.68874645 -0.6275363 -0.691947
00000000: 0cb6 60bf 1458 66bf d41e 08bf 1872 31bf
00000010: 08d8 39bf b658 9abf 4c9f 21bf 50fc 65bf
00000020: 2482 29bf 8cf8 16bf 9cae 1bbf 5ca9 4dbf
00000030: 3cbe 26bf f875 5cbf fc39 3bbf a416 42bf
00000040: 1872 31bf e8ec 12bf a441 38bf 2cce 42bf
00000050: 88d1 27bf c44a 31bf dfab 6bbe dce9 3ebf
00000060: 7cfb 0ebf d836 0ebf 4498 46bf 205b 3abf
00000070: f893 2ebf 2c5e 0ebf a111 813c 0803 30bf
00000080: 2c6b 32bf 90c7 54bf c0cf 1abf e896 26bf
00000090: 5441 27bf 08bb 9abf 6fb4 dfbe 1872 31bf
000000a0: d013 26bf 188c 79bf d456 22bf 0486 54bf
000000b0: ac80 2dbf 2457 33bf c213 38bf a038 1bbf
000000c0: 446d 50bf 6c0b 2bbf 781b 23bf 1872 31bf
000000d0: 0c46 2cbf 2cdb 66bf b0a7 1cbf 5425 1abf
000000e0: 604f 5abf 78c5 36bf 1c25 62bf c023 42bf
000000f0: 21ae fcbe 902a 65bf 74ad 30bf 4887 1bbf
00000100: 1051 0ebf 9c9f 32bf 6494 1bbf 1872 31bf
00000110: f09b 3cbf 045b 5ebf ec76 12bf 1872 31bf
00000120: 0432 2dbf 4cac 45bf 10d0 2bbf 1872 31bf
00000130: 243b 26bf 04eb 29bf b195 f8be 6cd3 10bf
00000140: 7cdd 3cbf 9c02 43bf 949a 1cbf 74d8 26bf
00000150: 288b 46bf a893 1dbf 105e 32bf 5c71 33bf
00000160: 2ade 4cbf 4cf5 0dbf 0c2a 1fbf 3c1f 72bf
00000170: 0cf0 3fbf dccd 31bf 044e 3abf f423 77bf
00000180: 508c 31bf 6fb4 dfbe 6c50 69bf 88ed 34bf
00000190: e6d1 26bf 74d8 26bf 38d1 16bf bcb5 4fbf
000001a0: 1872 31bf 50b7 27bf 1485 21bf 132b fcbe
000001b0: 289a 2fbf cc5e 30bf cc51 0cbf e426 6fbf
000001c0: aa9e 8ebf 9444 30bf 8653 2bbf 14a1 2ebf
000001d0: 8447 28bf 14e8 31bf b83a 39bf 4e39 2bbf
000001e0: dc32 07bf 7cb2 46bf 1872 31bf a4f8 6fbf
000001f0: 6c8a 48bf e0f4 20bf 4c02 32bf 1872 31bf
00000200: 4cb9 69bf 1c34 4bbf 1c5f 41bf 1872 31bf
00000210: ac1b 58bf 1ef8 b8bf 3c14 13bf f488 4cbf
00000220: 484d 3cbf bc61 28bf 2473 40bf 0036 34bf
00000230: 3c14 13bf 7746 cdbe 0ce3 1bbf 1b36 a8be
00000240: 1872 31bf 8897 48bf a6af b9bf 7853 3dbf
00000250: 887b 3bbf a4b3 31bf 28e1 32bf 4c3c 11bf
00000260: c89b 84bf 8f4d bdbe a0fd a9bf b4bd 5dbf
00000270: 6c99 31bf 7cea 60bf 3bb6 b0bf 2cce 42bf
00000280: 484d 3cbf 90d6 3dbf b00a 2dbf d456 22bf
00000290: 2030 44bf f418 18bf 68aa 5cbf 1872 31bf
000002a0: 94fd 2cbf 7710 b3be 2448 4abf fcc5 7cbf
000002b0: 6865 1ebf a4de 27bf 02c1 54bf 3049 59bf
000002c0: fff9 8cbe 8067 3cbf 28b8 01bf bc7d 35bf
000002d0: d02f 33bf 303a 70bf 5043 69bf b008 68bf
000002e0: 7475 16bf 20e7 7bbf dc5b 38bf 7466 2dbf
000002f0: 4c65 42bf 98b1 90bf 5c8d 40bf d456 22bf
00000300: b250 0fbf a812 3bbf 805a 18bf 2c08 22bf
00000310: 1017 2fbf 88ed 34bf 5486 65bf 0c8d 2fbf
00000320: 606d 2cbf 888a 24bf 2014 37bf 2086 30bf
00000330: cc24 51bf 1872 31bf 76c6 57bf 4071 57bf
00000340: 32f2 4bbf a8da 20bf 5ce1 67bf d843 32bf
00000350: 958f f7be 9437 0cbf 8074 60bf a01a 49bf
00000360: 6232 2cbf bd26 f7be 80b0 04bf 3c4c 2dbf
00000370: fcab 34bf 88a6 31bf 984d 4dbf ecf5 2fbf
00000380: 6476 49bf ac1d 1dbf 78b8 12bf 0c8d 2fbf
00000390: 0a2b 40bf be50 8cbf 98f7 60bf 5c37 54bf
000003a0: f0c6 32bf 606d 2cbf f4a6 1ebf 84c8 0abf
000003b0: 94e1 1fbf 501a 38bf 1afd 51bf 7464 68bf
000003c0: c0cd 55bf 3895 72bf 4e55 38bf 448b 22bf
000003d0: b4db 2fbf a070 35bf 44ee 32bf 066b e2be
000003e0: e0f2 5bbf 0802 9ebf 1872 31bf 8058 53bf
000003f0: d049 7bbf b051 30bf 38a6 20bf 7023 31bf

hidden1_layer.bias_mu f4 [128]
-0.033084672 0.33682957 -0.023054827 0.4058688 0.80995864 0.7951585 -0.2102755 0.004797982
0.5429552 0.4420089 0.28168067 -0.06601602 0.5265411 0.60913646 0.34281325 0.38478532
0.5266068 0.3237229 0.61698323 0.80964977 0.34713602 0.28911465 -0.24514118 0.0444289
0.33081964 0.38079736 0.12410356 0.35761675 0.16925798 0.7139833 0.507258 -0.12598342
0.28816554 0.6941519 0.085824266 -0.14715798 -0.26417527 0.3544836 0.86439836 0.19277628
0.95809114 0.42226592 0.6075814 0.23124543 0.47606796 0.8962994 0.2045316 0.2808405
0.30293256 -0.21064553 -0.32109502 0.46335688 0.087931335 0.24681208 0.44344115 -0.4818033
0.64537215 0.5526004 0.16925047 0.170455 0.57405716 0.62230754 0.69801986 0.3293848
0.2700753 1.0814518 0.088988125 -0.24921969 -0.3871078 0.4197801 0.24811281 -0.33979014
0.70274067 -0.0039315373 0.78319097 0.84857905 0.12764348 0.61627173 0.62991726 -0.5834333
0.50636196 0.6592636 0.7393312 0.15857333 0.013137203 0.16366532 0.6942681 0.4190526
-0.14781062 -0.55346155 0.35546687 0.3087504 0.9923476 0.5486738 0.24891634 -0.11576691
0.3021394 0.69078517 0.23980948 0.55719364 -0.071750596 -0.79970056 0.6717154 0.55056393
0.7441591 0.57961506 0.008466668 0.14934714 0.74917316 -0.12611261 0.5027028 0.11920647
0.41289693 0.94602984 0.5116163 0.36232844 0.34400454 -0.457583 0.29460144 -0.39029437
0.28454328 0.6485622 0.22585803 0.75081104 0.91480815 0.56445855 0.16347054 -0.063501574
00000000: cb83 07bd ed74 ac3e 7add bcbc 09ce cf3e
00000010: 7359 4f3f 828f 4b3f 7652 57be 6438 9d3b
00000020: 1dff 0a3f fe4e e23e 7338 903e 6833 87bd
00000030: 66cb 063f 5ef0 1b3f 3885 af3e 9502 c53e
00000040: b4cf 063f 02bf a53e 9df2 1d3f 3545 4f3f
00000050: d0bb b13e d606 943e 4a06 7bbe 14fb 353d
00000060: 3161 a93e dff7 c23e 022a fe3d 8b19 b73e
00000070: f751 2d3e 9cc7 363f a9db 013f cc01 01be
00000080: 6f8a 933e f0b3 313f a2c4 af3d 95b0 16be
00000090: fb41 87be e07e b53e 3649 5d3f 2567 453e
000000a0: 7645 753f 3d33 d83e 748a 1b3f 9acb 6c3e
000000b0: 2ebf f33e e173 653f bb70 513e 53ca 8f3e
000000c0: fa19 9b3e 76b3 57be 9166 a4be 1d3d ed3e
000000d0: 5815 b43d 4ebc 7c3e b80a e33e ecae f6be
000000e0: 1c37 253f 3877 0d3f ff4f 2d3e c18b 2e3e
000000f0: 69f5 123f 8c4f 1f3f 6eb1 323f 20a5 a83e
00000100: 4f47 8a3e 036d 8a3f 683f b63d 7233 7fbe
00000110: fe32 c6be 6bed d63e 4911 7e3e f9f8 adbe
00000120: d0e6 333f 20d4 80bb 347f 483f 7a3c 593f
00000130: f9b4 023e fcc3 1d3f 4242 213f e25b 15bf
00000140: f0a0 013f 80c5 283f cf44 3d3f 0c61 223e
00000150: 6c3d 573c e297 273e 8ebb 313f 108e d63e
00000160: ab5b 17be a8af 0dbf c1ff b53e 8814 9e3e
00000170: 7e0a 7e3f e375 0c3f ede3 7e3e 3417 edbd
00000180: 04b2 9a3e 4cd7 303f 9e90 753e 3ea4 0e3f
00000190: faf1 92bd 2db9 4cbf 8af5 2b3f c2f1 0c3f
000001a0: 3681 3e3f a761 143f c8b7 0a3c 75ee 183e
000001b0: d0c9 3f3f aa23 01be 21b1 003f 8622 f43d
000001c0: 3a67 d33e 032f 723f 49f9 023f 1d83 b93e
000001d0: 5d21 b03e 5248 eabe 00d6 963e aad4 c7be
000001e0: a8af 913e 2c08 263f 5447 673e 2735 403f
000001f0: de30 6a3f 5b80 103f d264 273e 1d0d 82bd

hidden1_layer.bias_log_sigma f4 [128]
-0.74055505 -1.1244187 -0.96959305 -0.84797287 -1.4338701 -1.3076491 -0.89378047 -1.2208347
-1.403265 -1.1847287 -1.0572076 -1.0005982 -0.90818286 -1.2506397 -0.88097835 -0.7227521
-0.87617755 -1.1586244 -1.2970474 -0.89378047 -0.77856135 -1.0438054 -0.94798946 -1.3462555
-1.3042486 -0.85817456 -0.9681928 -0.6063328 -0.8649757 -1.2330368 -0.9597914 -0.6059327
-0.9793947 -1.5348868 -0.5403218 -1.1264191 -0.8257692 -1.1710265 -1.1181177 -0.637738
-1.3042486 -1.1248188 -1.0284028 -0.9559908 -0.93758774 -1.4494727 -1.1496229 -0.99379706
-0.84237194 -0.9681928 -1.1706264 -1.0300031 -0.99319696 -1.2062323 -0.8451724 -0.82256866
-0.9757941 -1.2339369 -1.1372209 -1.0848122 -0.455721 -0.9959974 -1.0886128 -0.794364
-0.9645922 -1.078011 -0.8693764 -0.8015652 -0.90578246 -0.7741606 -0.96349204 -0.82786953
-0.96899295 -1.120218 -1.1428218 -1.1106164 -1.0444055 -0.93398714 -0.75615764 -1.0632086
-0.96899295 -0.6973479 -1.162425 -0.74835634 -1.2244353 -0.7787614 -1.0146005 -1.0085995
-0.8541739 -1.1064157 -1.1168175 -0.7021487 -0.87377715 -0.9439888 -0.872777 -1.1094162
-1.029403 -1.2296362 -0.8456725 -0.9841955 -0.80736613 -1.2598412 -0.9427886 -1.4280691
-0.5625255 -1.2381376 -0.9723935 -1.2798445 -1.5166838 -0.8817785 -0.70914984 -0.5185182
-0.7981646 -1.668309 -1.1339203 -0.6963477 -1.0646088 -1.0768108 -0.5734273 -1.289046
-0.78876305 -0.9119835 -1.1386211 -1.0288029 -1.1851288 -1.0724101 -0.7891631 -0.9829953
00000000: 0495 3dbf f4ec 8fbf 4037 78bf c014 59bf
00000010: 0e89 b7bf 0c61 a7bf ccce 64bf 5044 9cbf
00000020: 309e b3bf 31a5 97bf 9452 87bf 9a13 80bf
00000030: ac7e 68bf f614 a0bf cc87 61bf 4806 39bf
00000040: 2c4d 60bf ce4d 94bf a605 a6bf ccce 64bf
00000050: cc4f 47bf 6a9b 85bf 70af 72bf 1a52 acbf
00000060: 9ef1 a6bf 54b1 5bbf 7cdb 77bf a038 1bbf
00000070: 0c6f 5dbf 26d4 9dbf e4b4 75bf 681e 1bbf
00000080: 9cb9 7abf 2c77 c4bf 8852 0abf 802e 90bf
00000090: 9c65 53bf 32e4 95bf 7b1e 8fbf cc42 23bf
000000a0: 9ef1 a6bf 10fa 8fbf b4a2 83bf d0bb 74bf
000000b0: c005 70bf 5288 b9bf d826 93bf 7c69 7ebf
000000c0: b0a5 57bf 7cdb 77bf 16d7 95bf 24d7 83bf
000000d0: 2842 7ebf d265 9abf 385d 58bf dc93 52bf
000000e0: a4cd 79bf a5f1 9dbf 7490 91bf 20db 8abf
000000f0: 4354 e9be b0f9 7ebf aa57 8bbf 705b 4bbf
00000100: 84ef 76bf 44fc 89bf 748f 5ebf 6033 4dbf
00000110: 5ce1 67bf 642f 46bf 6aa7 76bf 42ef 53bf
00000120: ec0f 78bf 4e63 8fbf fc47 92bf ae28 8ebf
00000130: 14af 85bf c819 6fbf 8c93 41bf 3817 88bf
00000140: ec0f 78bf 6485 32bf 58ca 94bf 4894 3fbf
00000150: 4cba 9cbf e85c 47bf 6ede 81bf ca19 81bf
00000160: 24ab 5abf 089f 8dbf e0f3 8ebf 04c0 33bf
00000170: dcaf 5fbf 40a9 71bf 506e 5fbf 5a01 8ebf
00000180: 7ac3 83bf b864 9dbf fe7d 58bf 3cf4 7bbf
00000190: 8caf 4ebf 7a42 a1bf 985a 71bf f8ca b6bf
000001a0: ac01 10bf 4b7b 9ebf c8ee 78bf f2d1 a3bf
000001b0: b222 c2bf 3cbc 61bf d88a 35bf 9cbd 04bf
000001c0: 8454 4cbf 268b d5bf 4d24 91bf d843 32bf
000001d0: 1a45 88bf f0d4 89bf 22cc 12bf 76ff a4bf
000001e0: 60ec 49bf c077 69bf 56be 91bf d0af 83bf
000001f0: 4db2 97bf bc44 89bf 9806 4abf 94a5 7bbf

hidden2_layer.weight_mu f4 [128, 128]
-0.33546647 -0.18929833 -0.07046533 -0.37516573 -0.5493772 -0.3575397 -0.045224547 -0.07466915
-0.21911882 -0.15609631 -0.19372003 -0.020792784 -0.15721583 -0.21921948 -0.3017531 -0.2315533
-0.24085683 -0.09507713 -0.2836127 -0.3277727 -0.14024192 -0.4183064 -0.08145064 -0.20543239
-0.37934425 -0.3646818 -0.14340976 -0.16909415 -0.073122695 -0.28533858 -0.21105161 -0.13665545
-0.31306267 -0.38119528 -0.15664935 -0.08285025 -0.068183854 -0.39270553 -0.45772567 -0.35891774
-0.42871734 -0.18620172 -0.24159877 -0.104541376 -0.22737737 -0.47601146 -0.28916037 -0.23726922
-0.14572747 -0.1163234 7.054584e-05 -0.34808525 -0.13198812 -0.20646408 -0.2749451 -6.0834034e-05
-0.17613475 -0.49540895 -0.3184898 -0.21082214 -0.13705227 -0.2675404 -0.23776136 -0.18565166
-0.16628358 -0.4888242 -0.06595732 -0.09631692 -0.05128798 -0.22466877 -0.081070125 -0.09383091
-0.5073961 -0.16355132 -0.32698497 -0.4782365 -0.23895927 -0.20772205 -0.2518969 -0.08297901
-0.44475272 -0.50524086 -0.37777784 -0.42227483 -0.33754823 -0.21975653 -0.41092992 -0.26739305
-0.1804508 -0.059274882 -0.32280448 -0.22592159 -0.40726227 -0.18540278 -0.2464723 -0.23508969
-0.25966907 -0.21025345 -0.19850643 -0.2719388 -0.104538575 4.3427695e-05 -0.30062813 -0.40711674
-0.396015 -0.2941837 -0.12527359 -0.18053289 -0.4205366 -0.12753715 -0.2576174 -0.1029049
-0.35644278 -0.32565355 -0.2825365 -0.12934299 -0.21024439 -0.11488345 -0.22936253 -0.08830504
-0.13304028 -0.19996144 -0.48891982 -0.36722997 -0.5274098 -0.31323218 -0.23742703 -0.18408424
0.0061635394 -0.27829203 -0.0014948086 -0.0627134 -0.30082843 -0.25477526 -0.0038142556 -0.011882398
-0.22964427 -0.22916009 -0.22589388 -0.048621535 -0.015703745 -0.41147077 -0.29861552 -0.10367325
-0.27383026 -0.06272648 -0.1987123 -0.47737572 -0.058620334 -0.036954954 -0.0017413449 -0.19515558
-0.18641883 -0.16103691 -0.049626052 -0.023329064 -0.038187638 -0.28965667 -0.18249038 -0.0059379153
-0.12548128 -0.31893283 -0.13152055 -0.03613524 -0.011436714 -0.10968456 -0.2363788 -0.22349796
-0.26562786 -0.04510562 -0.20368144 -0.060110226 -0.04306203 -0.30409235 -0.024364287 -0.10252945
-0.09838118 -0.11388436 -0.010421695 -0.48529166 -0.075250745 -0.07896514 -0.080008924 0.00013254985
-0.11980048 -0.38971958 -0.010221159 -0.022078954 -0.08515434 -0.3187812 -0.23523158 -0.025991702
-0.20519052 -0.39565647 -0.08468428 -0.0697182 2.304279e-05 -0.17086709 -0.061527237 -6.0953236e-05
-0.25801328 -0.21973594 -0.2504364 -0.36473694 -0.03792332 -0.31119928 -0.31409788 9.2569804e-05
-0.30690408 -0.13982302 -0.29399264 -0.09072952 -0.15622273 -0.049918517 -0.15595882 -0.16995515
0.005570514 -0.0041482896 -0.31610042 -0.05007714 -0.5303243 -0.03962168 -0.077724114 -0.0012803246
-0.08606219 -0.36442107 -0.33487266 -0.11835788 -0.003261341 0.004538182 -0.24179998 -0.1838144
-0.14412405 -0.3036044 -0.043321654 -0.24316172 -0.40195367 -0.0034836333 -0.19065556 -0.009636836
-0.12237023 -0.3291768 -0.2064136 -0.20242974 -0.00769902 -0.010468215 -0.05207029 -0.011422766
-0.042435408 -0.08230962 -0.043382272 -0.058826268 -0.34448284 -0.16495563 -0.05151339 -0.14765394
00000000: 43c2 abbe 6cd7 41be 2050 90bd b915 c0be
00000010: fca3 0cbf 720f b7be 603d 39bd 24ec 98bd
00000020: af60 60be b6d7 1fbe 8b5e 46be a155 aabc
00000030: 30fd 20be 127b 60be 627f 9abe 4f1c 6dbe
00000040: 2ca3 76be ccb7 c2bd af35 91be d3d1 a7be
00000050: 949b 0fbe 422c d6be 98cf a6bd de5c 52be
00000060: 6939 c2be 93b7 babe 02da 12be 0427 2dbe
00000070: 5ac1 95bd e617 92be ea1d 58be 68ef 0bbe
00000080: c049 a0be 072c c3be b068 20be 64ad a9bd
00000090: faa3 8bbd b310 c9be 055b eabe 11c4 b7be
000000a0: d780 dbbe aaab 3ebe ab65 77be ca19 d6bd
000000b0: 9dd5 68be c6b7 f3be d40c 94be b4f6 72be
000000c0: 9539 15be f63a eebd 02f2 9338 3b38 b2be
000000d0: e527 07be 526b 53be 9bc5 8cbe 0c28 7fb8
000000e0: ab5c 34be 3ea6 fdbe 1811 a3be c2e1 57be
000000f0: 6e57 0cbe 0efb 88be b777 73be 781b 3ebe
00000100: 3e46 2abe 2a47 fabe a214 87bd ce41 c5bd
00000110: 5813 52bd 920f 66be 1808 a6bd 6c2a c0bd
00000120: b6e4 01bf ff79 27be 936a a7be 6adb f4be
00000130: bdb1 74be 17b5 54be a1f8 80be e6f0 a9bd
00000140: a1b6 e3be 7757 01bf 196c c1be 6834 d8be
00000150: 1fd3 acbe db07 61be 6865 d2be bee7 88be
00000160: 18c8 38be 38ca 72bd a146 a5be fd57 67be
00000170: ae84 d0be 3ada 3dbe 3c63 7cbe 5abb 70be
00000180: 58f3 84be ae4c 57be 4545 4bbe 903b 8bbe
00000190: 5218 d6bd 2226 3638 eeeb 99be 9b71 d0be
000001a0: 7ac2 cabe 3f9f 96be b847 00be 9ddd 38be
000001b0: 9350 d7be 1999 02be 6ee6 83be cebf d2bd
000001c0: ab7f b6be 10bc a6be a0a8 90be 7d72 04be
000001d0: 4e4a 57be 0448 ebbd 03de 6abe 46d9 b4bd
000001e0: b63b 08be b1c2 4cbe b353 fabe 9105 bcbe
000001f0: 5404 07bf f85f a0be 1220 73be 9480 3cbe
00000200: 84f7 c93b 4b7c 8ebe 74ed c3ba e26f 80bd
00000210: 2f06 9abe e771 82be 97f8 79bb 64ae 42bc
00000220: de27 6bbe f1a8 6abe ba50 67be 6027 47bd
00000230: 24a5 80bc 4cac d2be 22e4 98be a452 d4bd
00000240: 7b33 8cbe be76 80bd 3d7b 4bbe 976a f4be
00000250: e01b 70bd 145e 17bd d73d e4ba ddd6 47be
00000260: 94e4 3ebe dce6 24be b044 4bbd 981c bfbc
00000270: a46a 1cbd e14d 94be c2de 3abe d892 c2bb
00000280: 2a7e 00be 2a4b a3be 53ad 06be 8c02 14bd
00000290: 0e61 3bbc 4ca2 e0bd 490d 72be a6dc 64be
000002a0: 6000 88be acc0 38bd de91 50be 2436 76bd
000002b0: d061 30bd feb1 9bbe 9d97 c7bc f6fa d1bd
000002c0: 127c c9bd 343c e9bd c2bf 2abc 2678 f8be
000002d0: 101d 9abd 7ab8 a1bd b8db a3bd 14fd 0a39
000002e0: f459 f5bd 5389 c7be a676 27bc ecde b4bc
000002f0: 6665 aebd 4a37 a3be 8ce0 70be 8dec d4bc
00000300: 771d 52be 7c93 cabe f46e adbd 6ac8 8ebd
00000310: 044c c137 c8f7 2ebe fc03 7cbd 0aa8 7fb8
00000320: 511a 84be 7502 61be 3339 80be cdbe babe
00000330: 7c55 1bbd 8355 9fbe 70d1 a0be 0922 c238
00000340: 8822 9dbe c42d 0fbe 3486 96be 66d0 b9bd
00000350: daf8 1fbe 5c77 4cbd abb3 1fbe b908 2ebe
00000360: dc88 b63b 60ee 87bb ead7 a1be b01d 4dbd
00000370: 55c3 07bf 584a 22bd d22d 9fbd 91d0 a7ba
00000380: 6041 b0bd 6695 babe 6e74 abbe 9e65 f2bd
00000390: 39bc 55bb 08b5 943b 6a9a 77be d839 3cbe
000003a0: 4195 13be 0972 9bbe 0c72 31bd 63ff 78be
000003b0: dfcc cdbe ab4d 64bb 363b 43be d2e3 1dbc
000003c0: 3e9d fabd dd89 a8be 165e 53be be49 4fbe
000003d0: 1048 fcbb e082 2bbc a847 55bd 8e26 3bbc
000003e0: c0d0 2dbd f291 a8bd 9cb1 31bd d0f3 70bd
000003f0: 0e60 b0be 21ea 28be b4ff 52bd 9832 17be

hidden2_layer.weight_log_sigma f4 [128, 128]
-0.5937307 -0.84777284 -0.68514585 -0.7503567 -0.8657758 -0.7997649 -0.6631422 -0.77376056
-0.860775 -0.83327043 -0.6069329 -0.68334556 -0.7997649 -0.583529 -0.8197682 -0.8149674
-0.61453414 -0.62413573 -0.5763278 -0.6727438 -0.7377546 -0.85677433 -0.68874645 -0.6967478
-0.788563 -0.57652783 -0.81836796 -0.8275695 -0.7649591 -0.5529239 -0.607733 -0.7847624
-0.8493731 -0.9499898 -0.824569 -0.7503567 -0.66934323 -0.83397055 -0.842872 -0.7967644
-0.8409717 -0.5873296 -0.81596756 -0.66034174 -0.7613585 -0.82016826 -0.6457393 -0.583529
-0.78216195 -0.6931472 -0.6931472 -0.85577416 -0.794564 -0.5943308 -0.57252717 -0.6931472
-0.80436563 -0.8294698 -0.78456235 -0.59233046 -0.57112694 -0.80336547 -0.8389714 -0.607533
-0.84837294 -0.8089664 -0.71835136 -0.6853459 -0.63573766 -0.80396557 -0.73925483 -0.78446233
-0.8115668 -0.59113026 -0.55672455 -0.9723935 -0.7807617 -0.5805285 -0.800365 -0.77136016
-0.64473915 -0.81896806 -0.5891299 -0.5991316 -0.7867627 -0.63933825 -0.87737775 -0.8335705
-0.6433389 -0.6873462 -0.8891797 -0.76095843 -0.8341706 -0.5849292 -0.7361543 -0.56032515
-0.8047657 -0.79056334 -0.6094333 -0.8257692 -0.5963311 -0.6931472 -0.6529405 -0.84417224
-0.91118336 -0.8824786 -0.7063494 -0.553324 -0.82076836 -0.746156 -0.8325703 -0.8035655
-0.8197682 -0.8783779 -0.91228354 -0.692147 -0.56692624 -0.6397383 -0.7564577 -0.59773135
-0.80976653 -0.5867295 -0.83457065 -0.8139672 -0.82306874 -0.58132863 -0.74295545 -0.75755787
-0.6931472 -0.68274546 -0.6931472 -0.68814635 -0.70374894 -0.7711601 -0.69954824 -0.68094516
-0.7143507 -0.6902467 -0.7036489 -0.6931472 -0.6931472 -0.7571578 -0.842572 -0.6825454
-0.6957476 -0.65074015 -0.70854974 -0.7831621 -0.728153 -0.7239523 -0.6931472 -0.7071495
-0.6931472 -0.8095665 -0.70995 -0.7033489 -0.66454244 -0.8041656 -0.6879463 -0.6931472
-0.70374894 -0.7035489 -0.68274546 -0.70374894 -0.697948 -0.7035489 -0.7256526 -0.6931472
-0.6787448 -0.6967478 -0.71755123 -0.68034506 -0.7395549 -0.6993482 -0.70014834 -0.6691432
-0.6901467 -0.6931472 -0.6825454 -0.6835456 -0.7455559 -0.6769445 -0.70014834 -0.6931472
-0.6825454 -0.7036489 -0.71595097 -0.7035489 -0.7259526 -0.70374894 -0.66634274 -0.6908468
-0.6901467 -0.69474745 -0.6931472 -0.75075674 -0.6931472 -0.7167511 -0.68274546 -0.69124687
-0.7317536 -0.70254874 -0.66634274 -0.7395549 -0.68274546 -0.71835136 -0.686146 -0.6931472
-0.70374894 -0.70374894 -0.71955156 -0.72725284 -0.6831455 -0.71875143 -0.75085676 -0.7455559
-0.6901467 -0.69234705 -0.6969478 -0.6825454 -0.7114502 -0.7035489 -0.68274546 -0.6931472
-0.6637423 -0.7547574 -0.6853459 -0.70494914 -0.70374894 -0.6991482 -0.71355057 -0.70374894
-0.6931472 -0.752257 -0.6835456 -0.6795449 -0.70794964 -0.6931472 -0.70374894 -0.71955156
-0.71955156 -0.7439556 -0.7036489 -0.71055007 -0.7106501 -0.6825454 -0.70134854 -0.6985481
-0.7253525 -0.7691598 -0.68334556 -0.704249 -0.68694615 -0.7059493 -0.7009485 -0.7093499
00000000: bcfe 17bf a407 59bf b865 2fbf 6017 40bf
00000010: 7ca3 5dbf 64bd 4cbf b0c3 29bf 2c15 46bf
00000020: c05b 5cbf 3651 55bf f45f 1bbf bcef 2ebf
00000030: 64bd 4cbf 2862 15bf 54dc 51bf b4a1 50bf
00000040: 1c52 1dbf 5cc7 1fbf 388a 13bf f038 2cbf
00000050: 7cdd 3cbf 9055 5bbf b051 30bf 105e 32bf
00000060: 44df 49bf 5497 13bf 9080 51bf 98db 53bf
00000070: 5cd4 43bf 6c8c 0dbf 6494 1bbf 30e6 48bf
00000080: 8470 59bf 8832 73bf f416 53bf 6017 40bf
00000090: 145a 2bbf 187f 55bf 76c6 57bf c0f8 4bbf
000000a0: ec49 57bf 3c5b 16bf 40e3 50bf 280c 29bf
000000b0: 64e8 42bf 8cf6 51bf 2c4f 25bf 2862 15bf
000000c0: c43b 48bf 1872 31bf 1872 31bf 0414 5bbf
000000d0: 8c68 4bbf 1026 18bf 2491 12bf 1872 31bf
000000e0: e8ea 4dbf 2258 54bf 14d9 48bf f8a2 17bf
000000f0: 6035 12bf 5ca9 4dbf d4c6 56bf 4887 1bbf
00000100: f82e 59bf 6c18 4fbf e0e5 37bf d472 2fbf
00000110: b4bf 22bf b0d0 4dbf ce3f 3dbf 86d2 48bf
00000120: d8c2 4fbf 5054 17bf 8085 0ebf c8ee 78bf
00000130: 00e0 47bf 849d 14bf b8e4 4cbf dc77 45bf
00000140: a00d 25bf e4a7 51bf 38d1 16bf b060 19bf
00000150: 4869 49bf acab 23bf d49b 60bf e064 55bf
00000160: dcb1 24bf ecf5 2fbf 48a1 63bf 2cce 42bf
00000170: 348c 55bf ecbd 15bf 9c74 3cbf 7871 0fbf
00000180: 2005 4ebf 5c62 4abf d203 1cbf 9c65 53bf
00000190: 28a9 18bf 1872 31bf 1c27 27bf ac1b 58bf
000001a0: 5043 69bf 1eea 61bf 50d3 34bf a4a6 0dbf
000001b0: e01d 52bf 1404 3fbf 5423 55bf 78b6 4dbf
000001c0: 54dc 51bf 60dd 60bf 6a8b 69bf 8c30 31bf
000001d0: 1422 11bf e4c5 23bf 36a7 41bf ec04 19bf
000001e0: dc4c 4fbf e833 16bf 6ca6 55bf 2860 50bf
000001f0: a2b4 52bf f4d1 14bf 5432 3ebf 50ef 41bf
00000200: 1872 31bf 68c8 2ebf 1872 31bf 5c2a 30bf
00000210: e428 34bf c06a 45bf 9815 33bf 6c52 2ebf
00000220: b0df 36bf 02b4 30bf 5622 34bf 1872 31bf
00000230: 1872 31bf 18d5 41bf ccb2 57bf 4cbb 2ebf
00000240: 841c 32bf e896 26bf 8463 35bf 507d 48bf
00000250: 3c68 3abf f054 39bf 1872 31bf c007 35bf
00000260: 1872 31bf c03f 4fbf 48bf 35bf ac0e 34bf
00000270: 741f 2abf ccdd 4dbf 401d 30bf 1872 31bf
00000280: e428 34bf c81b 34bf 68c8 2ebf e428 34bf
00000290: b8ac 32bf c81b 34bf 5ec4 39bf 1872 31bf
000002a0: 38c2 2dbf 105e 32bf 70b1 37bf 182b 2ebf
000002b0: 7853 3dbf 7c08 33bf ec3c 33bf f84c 2bbf
000002c0: 74ad 30bf 1872 31bf 4cbb 2ebf d8fc 2ebf
000002d0: c0dc 3ebf 3c4c 2dbf ec3c 33bf 1872 31bf
000002e0: 4cbb 2ebf 5622 34bf 9048 37bf c81b 34bf
000002f0: 08d8 39bf e428 34bf 7095 2abf 56db 30bf
00000300: 74ad 30bf f8da 31bf 1872 31bf 9831 40bf
00000310: 1872 31bf 007d 37bf 68c8 2ebf 8ef5 30bf
00000320: 3454 3bbf 3cda 33bf 7095 2abf 7853 3dbf
00000330: 68c8 2ebf e0e5 37bf 44a7 2fbf 1872 31bf
00000340: e428 34bf e428 34bf 8834 38bf 3e2d 3abf
00000350: a0e2 2ebf 1800 38bf 2638 40bf c0dc 3ebf
00000360: 74ad 30bf a83d 31bf 2c6b 32bf 4cbb 2ebf
00000370: 9a21 36bf c81b 34bf 68c8 2ebf 1872 31bf
00000380: 04eb 29bf c837 41bf d472 2fbf 8c77 34bf
00000390: e428 34bf 60fb 32bf 40ab 36bf e428 34bf
000003a0: 1872 31bf ea93 40bf d8fc 2ebf a8f6 2dbf
000003b0: 303c 35bf 1872 31bf e428 34bf 8834 38bf
000003c0: 8834 38bf e073 3ebf 5622 34bf 9ce6 35bf
000003d0: 2aed 35bf 4cbb 2ebf 948b 33bf 0cd4 32bf
000003e0: b4b0 39bf a8e7 44bf bcef 2ebf aa49 34bf
000003f0: b4db 2fbf 18b9 34bf 5c71 33bf f497 35bf
