model_stock/dynamic_small_evn_all_lr0.0001_2000EP.pth (torch, 356305 bytes, 16 tensors)

input_layer.weight_mu f4 [128, 43]
000000 e6 55 c1 3d e3 59 38 bd c3 93 ac be 93 2b 00 be
       0.09440212 -0.045007598 -0.33706483 -0.12516622
000010 a4 c5 d8 3d 00 fb 98 be 9c 2a 82 be 7e 89 84 be
       0.10584572 -0.29878998 -0.25423133 -0.25886148
000020 e9 ae 9d 3e 62 85 80 be 5e 9e 3c be 4f be 28 bd
       0.30797508 -0.25101763 -0.18419787 -0.041197117
000030 b7 41 20 be 6a 7e 5c be 94 75 76 be 86 f3 81 b8
       -0.15650068 -0.21532598 -0.2406829 -6.196559e-05
000040 35 ce fa b8 22 46 1c b8 da 76 a0 bd 97 30 2b be
       -0.00011959338 -3.7258615e-05 -0.07835169 -0.16717754
000050 77 0f 56 bd 09 16 61 be d6 b4 d2 bd 39 d3 8a bd
       -0.052260842 -0.21981062 -0.10288398 -0.06778569
000060 38 1a 32 be 56 71 0d be 3c 3b 00 3e ef 6f 92 be
       -0.17392814 -0.13812765 0.12522596 -0.28601024
000070 11 8a 23 be d6 3f 39 be e0 ab 91 be 30 dd a0 be
       -0.15970637 -0.18090758 -0.28451443 -0.31418753
000080 7e 66 bd bd 09 92 c2 b8 b9 ad a8 b8 2a 82 0b 38
       -0.092480645 -9.277842e-05 -8.0432226e-05 3.3261407e-05
000090 d7 08 7a bd 12 6f 9c bd f8 c2 1e be d8 21 b8 3d
       -0.061043587 -0.076383725 -0.15504062 0.0899083
0000a0 7f 94 8d bd b7 f6 fb 3d fd ab 1c be 37 09 3a ba
       -0.06913089 0.123029165 -0.15299983 -0.000709671
0000b0 74 8d 90 be 9f d7 80 bd 8a fb 32 be ac 38 7e 3d
       -0.2823292 -0.062911265 -0.17478767 0.062065765
0000c0 7c 13 3b be cf 46 62 be 69 76 18 be ea a7 99 3e
       -0.18269151 -0.22097324 -0.1488892 0.3001092
0000d0 5b f9 49 be c0 03 8f bd e8 5f 49 be ce 8b 28 be
       -0.19724028 -0.06983137 -0.19665492 -0.16459581
0000e0 dc 9e 9a be e3 ca 51 bd 15 1c a6 38 40 a0 6c 36
       -0.30199325 -0.05121888 7.9207275e-05 3.5260018e-06
0000f0 70 c8 47 b7 46 5e 5f bd 13 63 71 be da 1c 68 be
       -1.1907992e-05 -0.054533266 -0.2357295 -0.22667256
000100 06 80 71 be 2a 2e bb bd de 79 32 be 2d 3f 65 be
       -0.23583993 -0.091396645 -0.17429301 -0.22387381
000110 eb 7b 28 be f8 9b 81 3d 4e a2 9f bd 97 57 23 be
       -0.16453521 0.06328577 -0.07794629 -0.15951382
000120 a0 eb f9 bd f8 a5 ca bc 0d b8 9b be 63 37 a4 be
       -0.12203145 -0.024737343 -0.30413857 -0.32073507
000130 e0 8f 93 b6 c0 9d 2c 36 02 5a 9b 38 da 83 74 be
       -4.3976906e-06 2.572182e-06 7.407741e-05 -0.23878422
000140 fe d8 65 be 8d a8 d8 bd 3f 76 bc bd 57 82 36 be
       -0.22446057 -0.105790235 -0.09202241 -0.17823158
000150 7f bb 3a 3e c7 e0 04 be 00 fd 7b bd d4 31 a0 be
       0.18235587 -0.12976371 -0.061520576 -0.31288016
000160 26 09 b2 bd ee 36 3a be 11 31 28 bd 16 d2 25 be
       -0.08693151 -0.18185017 -0.04106242 -0.16193423
000170 4b 5c 30 be f1 a5 52 be 85 33 e2 3d 5a e1 c1 bd
       -0.17222707 -0.20571114 0.11044983 -0.094668105
000180 49 cd c8 bd 8b 9f a1 be c5 b0 45 be 97 a7 50 be
       -0.0980478 -0.31567034 -0.19305713 -0.2037643
000190 d5 48 1e be 06 6c 87 38 08 0c a2 b7 08 14 9e b7
       -0.1545747 6.4574226e-05 -1.9317507e-05 -1.8844396e-05
0001a0 f3 15 13 be 92 e0 9e be 97 0c 96 be 00 78 a9 be
       -0.14363842 -0.3103071 -0.2930648 -0.33099365
0001b0 c4 78 0e be 6d 20 b2 bd f4 9c 27 be 04 fc 76 be
       -0.13913256 -0.08697591 -0.16368467 -0.24119574
0001c0 7b ce bf 3d ba ee 27 be 8c 50 99 be 06 b3 9a be
       0.09365555 -0.1639966 -0.29944265 -0.3021471
0001d0 fc 4f 21 be 67 f9 95 be cb 9d 88 be 2c 3e 4b b8
       -0.15753168 -0.2929184 -0.26682886 -4.8456874e-05
0001e0 0a 30 61 b8 20 30 bb b6 6a 10 16 be 4b 4e 9b be
       -5.368892e-05 -5.578637e-06 -0.14654699 -0.3033317
0001f0 db 90 3b be bb fb cf 3c 9e be 62 be a2 1b 33 3e
       -0.18316977 0.02538859 -0.22143027 0.1749101
000200 61 a3 eb bd fc 5b ad bd ae 9c 2d be 09 83 57 be
       -0.115057714 -0.0846481 -0.169543 -0.2104608
000210 fb e8 80 be c7 8a a5 3c a7 df e8 bd dc eb f8 bd
       -0.2517775 0.020207776 -0.11370783 -0.121543616
000220 4d ed 0b be 93 7a dd 3d 8c 73 a2 be 08 d6 01 be
       -0.13664742 0.10814395 -0.3172878 -0.12679303
000230 86 36 96 be 61 99 9a be 4c 03 1e be 72 3c 85 bd
       -0.29338473 -0.30195144 -0.15430945 -0.0650567
000240 06 b7 87 b8 78 ec 80 37 86 99 84 b8 e8 2b 54 3d
       -6.4713924e-05 1.5368903e-05 -6.3228465e-05 0.051799685
000250 7f a4 d8 bd 8d 27 09 be da 79 a2 be 83 cf 94 bc
       -0.1057825 -0.13393994 -0.3173359 -0.018165356
000260 ea e0 a4 be be c9 5d be 63 5b 98 bd 35 38 22 3e
       -0.32202846 -0.2165899 -0.07439306 0.15841754
000270 d2 f8 a2 be f0 31 ab bd 5c 26 83 be 62 d6 aa be
       -0.3183046 -0.08359134 -0.25615203 -0.33366686
000280 15 c8 77 be 14 b6 5d be 06 ba 95 b8 04 b4 72 b8
       -0.24197419 -0.21651489 -7.139523e-05 -5.786495e-05
000290 22 a6 36 b8 ff 47 3b bd 58 83 45 be 22 46 74 be
       -4.3546905e-05 -0.045722958 -0.19288385 -0.23854879
0002a0 35 e1 23 be dc 13 3c be 3f cf 72 3e 58 16 e7 bd
       -0.16003878 -0.18366951 0.2371187 -0.112835586
0002b0 43 df 2b bd 4f af 98 be b6 c8 2b be 6b 35 5d bd
       -0.041960966 -0.2982125 -0.16775784 -0.05400602
0002c0 62 4d d0 3d b2 b1 9e be 5c 73 a2 be 6d 19 88 be
       0.101710096 -0.30994946 -0.31728637 -0.26581898
0002d0 ae 2b 0c 3e 59 7b 66 be dd d1 b0 bd 9f bd f5 bd
       0.13688537 -0.22507991 -0.08633778 -0.11999058
0002e0 90 c0 fb bd 1f 7c a8 be 11 7f 95 bc 79 2d a8 b8
       -0.12292588 -0.32907197 -0.018249067 -8.019334e-05
0002f0 f9 69 ae 38 06 1c 89 38 d9 73 bc bd 28 ad 6e be
       8.3167055e-05 6.537889e-05 -0.09201784 -0.23308241
000300 c9 81 87 be c2 39 b0 be fc b1 0c 3d 18 01 66 be
       -0.26466206 -0.34419066 0.034349427 -0.22461355
000310 d0 d7 d3 bd ad 6d 84 be 0d 6f 96 3e d7 f0 ad be
       -0.10343897 -0.25864926 0.293816 -0.3397281
000320 39 4e 4a be e9 cd a7 be 2a af 96 be 1b 77 5a be
       -0.19756402 -0.32774284 -0.29430515 -0.21334498
000330 15 ea cc bc 44 d4 d6 37 78 54 a7 b7 35 34 ea 38
       -0.025013963 2.5609632e-05 -1.9947285e-05 0.00011167714
000340 d8 3f 77 be 2e 55 a2 be e0 89 60 be 40 9d 3f bd
       -0.24145448 -0.31705612 -0.21927595 -0.046780825
000350 26 19 3e be e6 22 66 3e b4 da 8e be 28 39 bb 3d
       -0.18564281 0.2247425 -0.27901232 0.09141761
000360 b7 e0 52 be ce 65 fd bd aa d2 9e be ba f1 f5 bd
       -0.20593534 -0.12372933 -0.310201 -0.12008996
000370 9a c6 2e be 41 69 92 bd f7 f4 8b bd 59 17 f1 3c
       -0.17067948 -0.07148982 -0.06833833 0.029430078
000380 3d 49 57 be 22 1e d8 bd 4c 13 80 be 94 3f 45 be
       -0.21024032 -0.105526224 -0.25014722 -0.19262534
000390 ff b2 8b be 67 77 92 be 22 d2 0a 38 f0 28 0a 37
       -0.27285 -0.28606722 3.3097465e-05 8.2349725e-06
0003a0 2a 3a 14 38 94 ce 3c 3d 6a c7 8e be 2f 27 8f be
       3.534012e-05 0.046095446 -0.27886516 -0.27959582
0003b0 03 b6 d8 bd 60 e7 74 bd b7 63 71 bd 5e 79 85 be
       -0.10581591 -0.05979097 -0.058932986 -0.26069158
0003c0 52 ac 97 be 57 61 5e 3e f9 fb 91 be c3 3d 38 bd
       -0.29623657 0.2171682 -0.28512552 -0.044980776
0003d0 7e 1c 3e be 51 93 77 be 0f 17 a2 bd b3 11 77 be
       -0.18565556 -0.2417729 -0.07914554 -0.24127845
0003e0 35 61 d1 b8 22 0a 02 b8 f9 07 b5 b8 c5 f6 98 be
       -9.984003e-05 -3.1003852e-05 -8.6322376e-05 -0.2987577
0003f0 c1 28 ae be 32 de cc bd bf 10 ea bd 09 36 8c be
       -0.34015468 -0.10003318 -0.11428975 -0.27384976

input_layer.weight_log_sigma f4 [128, 43]
000000 00 fc 54 bf 88 41 5c bf c4 1f 3b bf 30 49 59 bf
       -0.8319702 -0.8603749 -0.73095345 -0.848773
000010 8c 12 5f bf 90 55 5b bf 70 dc 2d bf 08 9e 5a bf
       -0.87137675 -0.85677433 -0.67914486 -0.85397387
000020 0c e1 56 bf 40 55 4a bf 20 21 5b bf 62 3f 50 bf
       -0.83937144 -0.7903633 -0.8559742 -0.81346714
000030 16 ba 55 bf da 96 38 bf ea 05 3a bf 18 72 31 bf
       -0.8348707 -0.7210518 -0.72665274 -0.6931472
000040 18 72 31 bf 18 72 31 bf d8 ed 45 bf f4 eb 5c bf
       -0.6931472 -0.6931472 -0.77316046 -0.86297536
000050 ec 11 3d bf 24 ab 5a bf 6c 8a 48 bf a0 7d 59 bf
       -0.7385547 -0.8541739 -0.78336215 -0.84957314
000060 44 7c 39 bf e8 4d 5e bf b8 e4 4c bf e8 94 61 bf
       -0.7245524 -0.86837626 -0.800365 -0.8811784
000070 bc 8a 59 bf d6 53 3c bf f6 b0 5c bf 9e ab 35 bf
       -0.84977317 -0.73565423 -0.8620752 -0.7096499
000080 36 df 5b bf 18 72 31 bf 18 72 31 bf 18 72 31 bf
       -0.8588747 -0.6931472 -0.6931472 -0.6931472
000090 e8 bf 57 bf 20 af 61 bf 14 f7 1a bf 2c 94 63 bf
       -0.842772 -0.88157845 -0.6053326 -0.8889797
0000a0 a4 95 5f bf 28 60 50 bf 0c 6f 5d bf e0 48 48 bf
       -0.8733771 -0.8139672 -0.8649757 -0.782362
0000b0 10 f9 5c bf 34 fe 4e bf 58 c9 61 bf 80 ae 3f bf
       -0.8631754 -0.80856633 -0.8819785 -0.7487564
0000c0 20 af 61 bf f0 0d 36 bf 38 eb 5e bf 94 26 5e bf
       -0.88157845 -0.71115017 -0.87077665 -0.86777616
0000d0 88 88 5f bf a8 66 62 bf d4 63 46 bf dc 86 2e bf
       -0.87317705 -0.8843789 -0.77496076 -0.6817453
0000e0 d4 38 50 bf d4 0d 5a bf 18 72 31 bf 18 72 31 bf
       -0.8133671 -0.8517735 -0.6931472 -0.6931472
0000f0 18 72 31 bf 48 31 2f bf 64 04 50 bf 34 c6 34 bf
       -0.6931472 -0.6843457 -0.812567 -0.70614934
000100 c4 57 55 bf dc 21 59 bf e8 06 5b bf 2c 24 2f bf
       -0.83337045 -0.8481729 -0.85557413 -0.6841457
000110 b0 5e 54 bf a8 d8 5b bf 4c 56 59 bf 50 6e 5f bf
       -0.8295698 -0.85877466 -0.84897304 -0.872777
000120 f8 84 45 bf 20 4c 51 bf 8c a2 2a bf a8 03 52 bf
       -0.7715602 -0.8175678 -0.66654277 -0.8203683
000130 18 72 31 bf 18 72 31 bf 18 72 31 bf 5c f0 50 bf
       -0.6931472 -0.6931472 -0.6931472 -0.8161676
000140 d0 11 61 bf 0c 71 22 bf 64 ae 63 bf 60 dd 60 bf
       -0.87917805 -0.63453746 -0.88937974 -0.8783779
000150 08 2c 61 bf bc 5f 63 bf f8 a0 52 bf 38 5d 58 bf
       -0.8795781 -0.88817954 -0.8227687 -0.8451724
000160 f8 68 38 bf e0 1d 52 bf a8 03 52 bf 84 fe 5f bf
       -0.7203517 -0.82076836 -0.8203683 -0.87497735
000170 d0 2f 33 bf d4 9b 60 bf c0 6a 45 bf 14 ca 5f bf
       -0.6999483 -0.87737775 -0.7711601 -0.8741772
000180 3c bc 61 bf 02 17 41 bf c2 76 48 bf 5e 99 43 bf
       -0.8817785 -0.7542573 -0.7830621 -0.76405895
000190 62 f8 4c bf 18 72 31 bf 18 72 31 bf 18 72 31 bf
       -0.800665 -0.6931472 -0.6931472 -0.6931472
0001a0 8c f6 51 bf 84 c6 45 bf 24 e5 39 bf 30 02 56 bf
       -0.82016826 -0.77256036 -0.72615266 -0.8359709
0001b0 dc 93 52 bf fc e3 4e bf 1c 8a 37 bf a0 c4 5c bf
       -0.82256866 -0.80816627 -0.71695113 -0.86237526
0001c0 d0 11 61 bf 8c 12 5f bf 60 c1 53 bf 72 bd 3a bf
       -0.87917805 -0.87137675 -0.8271694 -0.7294532
0001d0 f2 60 3c bf 22 ca 4d bf 8a ea 4e bf 18 72 31 bf
       -0.73585427 -0.80386555 -0.8082663 -0.6931472
0001e0 18 72 31 bf 18 72 31 bf a8 03 52 bf b8 72 53 bf
       -0.6931472 -0.6931472 -0.8203683 -0.8259692
0001f0 c0 eb 27 bf 9c ac 56 bf 60 96 5d bf 10 40 60 bf
       -0.655941 -0.8385713 -0.8655758 -0.8759775
000200 8c 12 5f bf 40 b8 5a bf c0 14 59 bf 90 73 2d bf
       -0.87137675 -0.85437393 -0.84797287 -0.6775446
000210 68 f1 5f bf 84 7f 42 bf 08 e5 5d bf bc c4 38 bf
       -0.8747773 -0.75975823 -0.866776 -0.7217519
000220 70 05 5f bf ac a9 5e bf 70 30 55 bf 1c 09 55 bf
       -0.8711767 -0.8697765 -0.83277035 -0.83217025
000230 64 76 49 bf 38 cf 51 bf 50 1a 38 bf b0 33 5e bf
       -0.78696275 -0.81956816 -0.7191515 -0.8679762
000240 18 72 31 bf 18 72 31 bf 18 72 31 bf 38 5d 58 bf
       -0.6931472 -0.6931472 -0.6931472 -0.8451724
000250 94 0a 51 bf 64 76 49 bf b0 5e 54 bf 60 7a 50 bf
       -0.81656766 -0.78696275 -0.8295698 -0.8143673
000260 e8 bf 57 bf f8 21 35 bf b4 bd 5d bf 34 29 45 bf
       -0.842772 -0.7075496 -0.8661759 -0.77015996
000270 e0 39 5f bf 28 35 5a bf 84 8e 2b bf 00 27 4b bf
       -0.87197685 -0.8523736 -0.67014337 -0.79356384
000280 58 4a 44 bf d4 0d 5a bf 18 72 31 bf 18 72 31 bf
       -0.7667594 -0.8517735 -0.6931472 -0.6931472
000290 18 72 31 bf c0 14 59 bf 90 9c 5e bf e0 ba 41 bf
       -0.6931472 -0.84797287 -0.86957645 -0.75675774
0002a0 b0 7a 61 bf 54 3f 62 bf 4c 56 59 bf dc f6 62 bf
       -0.8807783 -0.8837788 -0.84897304 -0.8865793
0002b0 0c 9a 53 bf 10 c1 42 bf 14 cc 24 bf 5c 53 61 bf
       -0.8265693 -0.7607584 -0.643739 -0.8801782
0002c0 60 a5 46 bf 4c 0f 56 bf 10 a5 35 bf d4 7f 53 bf
       -0.7759609 -0.8361709 -0.7095499 -0.82616925
0002d0 28 a7 53 bf 50 6e 5f bf fc ff 5b bf ec 83 36 bf
       -0.82676935 -0.872777 -0.85937476 -0.71295047
0002e0 f0 0d 36 bf d0 67 4d bf 58 3b 5b bf 18 72 31 bf
       -0.71115017 -0.8023653 -0.85637426 -0.6931472
0002f0 18 72 31 bf 18 72 31 bf 48 cc 59 bf 68 aa 5c bf
       -0.6931472 -0.6931472 -0.85077333 -0.8619752
000300 84 70 59 bf 08 2c 61 bf d4 00 36 bf 68 f1 5f bf
       -0.8493731 -0.8795781 -0.71095014 -0.8747773
000310 78 9a 40 bf 30 d7 5f bf 00 43 58 bf e8 4d 5e bf
       -0.752357 -0.87437725 -0.84477234 -0.86837626
000320 84 fe 5f bf bc c4 38 bf 0c 9a 53 bf 88 a6 31 bf
       -0.87497735 -0.7217519 -0.8265693 -0.6939473
000330 78 53 3d bf 18 72 31 bf 18 72 31 bf 18 72 31 bf
       -0.7395549 -0.6931472 -0.6931472 -0.6931472
000340 e4 7c 5b bf a4 4e 5c bf 10 24 53 bf a4 dc 62 bf
       -0.8573744 -0.86057496 -0.824769 -0.8861792
000350 cc 87 61 bf 68 47 4c bf cc 87 61 bf 10 b2 59 bf
       -0.88097835 -0.7979646 -0.88097835 -0.85037327
000360 cc 40 5e bf e8 06 5b bf 54 f8 5e bf b8 47 5d bf
       -0.8681762 -0.85557413 -0.8709767 -0.8643756
000370 5c 0c 5e bf b0 89 4a bf 5c 53 61 bf f0 d3 56 bf
       -0.8673761 -0.79116344 -0.8801782 -0.8391714
000380 a0 7d 59 bf 94 df 5a bf 08 82 4d bf 30 90 5c bf
       -0.84957314 -0.85497403 -0.80276537 -0.8615751
000390 cc 08 44 bf 38 32 62 bf 18 72 31 bf 18 72 31 bf
       -0.7657592 -0.8835788 -0.6931472 -0.6931472
0003a0 18 72 31 bf fc 2a 52 bf 50 6e 5f bf 10 08 46 bf
       -0.6931472 -0.8209684 -0.872777 -0.7735605
0003b0 94 26 5e bf 48 94 3f bf 20 af 61 bf 48 06 39 bf
       -0.86777616 -0.74835634 -0.88157845 -0.7227521
0003c0 b0 7a 61 bf 14 83 5c bf e0 ab 58 bf 60 96 5d bf
       -0.8807783 -0.8613751 -0.8463726 -0.8655758
0003d0 a0 ef 52 bf c8 9a 51 bf c0 79 2e bf 2c 06 5d bf
       -0.8239689 -0.818768 -0.68154526 -0.8633754
0003e0 18 72 31 bf 18 72 31 bf 18 72 31 bf e4 ee 54 bf
       -0.6931472 -0.6931472 -0.6931472 -0.8317702
0003f0 8c f6 51 bf 48 31 2f bf 50 6e 5f bf 04 a2 61 bf
       -0.82016826 -0.6843457 -0.872777 -0.8813784

input_layer.bias_mu f4 [128]
000000 3d f1 8b be ee 28 84 be 67 18 f1 bd 92 9a 87 be
       -0.27332488 -0.25812477 -0.117722325 -0.26485115
000010 6b e7 a0 be 83 67 86 bd 5a cb 8d be 04 d4 be bd
       -0.31426558 -0.06562712 -0.27694207 -0.093177825
000020 68 b1 36 be 2b 92 5f be c4 82 92 be c8 b8 69 be
       -0.17841113 -0.21833102 -0.2861539 -0.22824395
000030 c8 c1 9d be a3 99 37 bd ef f9 95 be 09 c7 91 be
       -0.30811906 -0.044824254 -0.29292247 -0.28472164
000040 b8 4e 8d bd c0 28 4d be d9 4b a9 be cc 01 bf bd
       -0.0689978 -0.20035076 -0.3306568 -0.093265146
000050 ee 2f 85 be 87 27 33 be 99 98 2f be 8e 9d a1 bd
       -0.2601313 -0.17495547 -0.17148055 -0.07891379
000060 b4 26 bd bd bb 92 92 bd 31 b8 3f be f7 5a 06 be
       -0.09235898 -0.07156893 -0.18722607 -0.13120638
000070 84 a9 6a be f3 18 89 bd ad 92 3d be 39 60 9a be
       -0.22916228 -0.06694212 -0.18512984 -0.30151537
000080 02 06 a2 bd fd 58 88 be d2 61 98 be 46 2c 05 be
       -0.07911302 -0.26630393 -0.2976213 -0.1300517
000090 d6 36 9d be 97 ff 6c bd 89 4f 93 be 7f 0c 0d be
       -0.307059 -0.057860937 -0.28771618 -0.13774298
0000a0 eb 3e 42 bd 39 20 80 be e5 be e1 bd 53 15 80 bd
       -0.047423285 -0.25024584 -0.11022738 -0.06254067
0000b0 ac b0 a5 be 52 a8 43 be 06 7a 0e be 72 25 51 be
       -0.32361352 -0.19107178 -0.13913736 -0.2042444
0000c0 1a 16 8a be 6e ac 62 be 8b 55 68 be 3c f1 aa bd
       -0.26969987 -0.22136089 -0.22688882 -0.08346793
0000d0 d0 53 1c be f6 c4 d1 bd e8 5c f7 bd 64 6a 85 be
       -0.15266347 -0.102426454 -0.12078267 -0.26057732
0000e0 7b bb 8d be 1a 2c a7 be 5e a7 39 be c0 6b 05 be
       -0.276821 -0.32650834 -0.18130252 -0.13029385
0000f0 7a e0 0a be 31 65 ab be de 9e 9f bd 04 66 1e be
       -0.13562194 -0.3347564 -0.077939734 -0.15468603
000100 d6 6d 67 be 61 13 46 be e4 fb a0 bd f8 1b 97 be
       -0.22600493 -0.1934333 -0.07860544 -0.29513526
000110 07 58 9c bd 3a 45 65 be 7f 5d 97 be a0 80 cb bd
       -0.076339774 -0.22389689 -0.2956352 -0.09936643
000120 df 92 c8 bd 39 f7 60 be ff bc 52 bd bf 9e 3d be
       -0.097936384 -0.21969308 -0.051449772 -0.18517588
000130 a5 2d 17 be 0f 30 7c be 30 42 13 be b3 34 47 bd
       -0.14763506 -0.24627708 -0.14380717 -0.048634242
000140 43 76 89 be f8 18 08 be ad f8 48 be 97 d8 27 be
       -0.2684804 -0.13290775 -0.19626112 -0.16391216
000150 5f 41 5d bd 5e 50 15 be 94 f4 86 be 34 b5 80 be
       -0.05401742 -0.14581439 -0.26358473 -0.25138247
000160 61 18 fc bd e4 21 20 be 5c a7 d3 bd 3d a7 95 be
       -0.123093374 -0.15637928 -0.10334656 -0.29229155
000170 a8 fa fc bd 27 03 91 be 72 f4 4a be 09 f3 80 be
       -0.123524964 -0.28322718 -0.19819811 -0.2518542
000180 9d fd 9f be 72 56 5d be 15 3f 39 be 93 e4 80 be
       -0.3124818 -0.21615008 -0.1809047 -0.25174388
000190 6e f2 a2 be d8 be f7 bd f7 09 9a bd 52 a9 59 be
       -0.31825584 -0.120969474 -0.07521432 -0.21255997
0001a0 26 c4 48 be ae 2b 4e be 94 92 91 be c5 b8 9c be
       -0.19606075 -0.2013385 -0.28432143 -0.30609718
0001b0 82 4d 80 bd 83 ad ab bd 49 c2 b3 bd 35 0e 89 bd
       -0.062647834 -0.08382704 -0.08777291 -0.06692163
0001c0 47 5f 4b be ef 7a 1c be 6a e4 a7 be fe a8 0d be
       -0.19860564 -0.1528127 -0.32791454 -0.13833997
0001d0 01 b4 a2 be 7f 4f 2c be 19 5a 7a be ee 09 b8 bd
       -0.31777957 -0.168272 -0.24448432 -0.08986269
0001e0 ed 53 21 be 0e 41 81 be bb f9 7a be 5e 5e 0b be
       -0.15754671 -0.25244945 -0.24509327 -0.13610217
0001f0 94 65 70 be fa 2f 9d be 25 ff e0 bd c5 20 8d bd
       -0.23476249 -0.30700666 -0.10986165 -0.06891016

input_layer.bias_log_sigma f4 [128]
000000 b8 47 5d bf 48 5a 60 bf 50 e0 58 bf 1c 25 62 bf
       -0.8643756 -0.8763776 -0.84717274 -0.88337874
000010 a4 dc 62 bf b0 ec 5a bf 92 a8 61 bf c8 b6 5e bf
       -0.8861792 -0.85517406 -0.8814784 -0.8699765
000020 c4 73 62 bf 4c e4 5f bf c0 a2 5f bf 14 11 63 bf
       -0.88457894 -0.8745773 -0.8735771 -0.88697934
000030 64 ae 63 bf a8 66 62 bf cc 87 61 bf f8 75 5c bf
       -0.88937974 -0.8843789 -0.88097835 -0.86117506
000040 b4 04 61 bf 7c 15 57 bf 08 2c 61 bf 18 54 5f bf
       -0.878978 -0.8401716 -0.8795781 -0.8723769
000050 04 5b 5e bf fc ff 5b bf b4 bd 5d bf dc f6 62 bf
       -0.8685763 -0.85937476 -0.8661759 -0.8865793
000060 48 5a 60 bf 3c bc 61 bf 48 3e 53 bf 74 d6 61 bf
       -0.8763776 -0.8817785 -0.8251691 -0.88217854
000070 a6 5a 5f bf e4 c3 5e bf b4 04 61 bf c4 73 62 bf
       -0.87247694 -0.87017655 -0.878978 -0.88457894
000080 78 60 61 bf d4 c6 56 bf a0 0b 60 bf 84 fe 5f bf
       -0.88037825 -0.8389714 -0.8751774 -0.87497735
000090 e8 94 61 bf 48 a1 63 bf ce 4c 61 bf 50 b5 62 bf
       -0.8811784 -0.8891797 -0.8800782 -0.8855791
0000a0 04 a2 61 bf 00 18 62 bf 9c 3a 5d bf 38 32 62 bf
       -0.8813784 -0.8831787 -0.86417556 -0.8835788
0000b0 20 21 5b bf e8 4d 5e bf e4 0a 62 bf 94 6d 61 bf
       -0.8559742 -0.86837626 -0.8829787 -0.8805783
0000c0 34 a8 62 bf d0 11 61 bf cc 40 5e bf bc 5f 63 bf
       -0.8853791 -0.87917805 -0.8681762 -0.88817954
0000d0 fe 0b 5f bf d8 25 60 bf a4 dc 62 bf 1c 25 62 bf
       -0.87127674 -0.87557745 -0.8861792 -0.88337874
0000e0 40 46 61 bf 24 39 61 bf 98 69 5a bf f0 ef 63 bf
       -0.8799782 -0.87977815 -0.85317373 -0.8903799
0000f0 fc 8d 62 bf 4c 2b 63 bf 94 6d 61 bf b8 00 5a bf
       -0.884979 -0.8873794 -0.8805783 -0.85157347
000100 28 c3 60 bf 40 e3 50 bf e4 7c 5b bf a4 95 5f bf
       -0.87797785 -0.81596756 -0.8573744 -0.8733771
000110 a0 0b 60 bf c4 2c 5f bf a8 d8 5b bf 4c 2b 63 bf
       -0.8751774 -0.8717768 -0.85877466 -0.8873794
000120 20 af 61 bf d0 ca 5d bf d0 11 61 bf 58 c9 61 bf
       -0.88157845 -0.8663759 -0.87917805 -0.8819785
000130 28 c3 60 bf a8 66 62 bf a4 dc 62 bf 10 87 63 bf
       -0.87797785 -0.8843789 -0.8861792 -0.88877964
000140 b0 ec 5a bf 24 39 61 bf 4c 9d 5c bf 30 49 59 bf
       -0.85517406 -0.87977815 -0.86177516 -0.848773
000150 6c c2 62 bf 5c 0c 5e bf 10 87 63 bf 70 4c 62 bf
       -0.88577914 -0.8673761 -0.88877964 -0.88397884
000160 fc 46 5f bf 2c 4d 60 bf 24 39 61 bf ec 1e 61 bf
       -0.8721769 -0.87617755 -0.87977815 -0.8793781
000170 58 c9 61 bf 7c a3 5d bf b8 d5 63 bf a8 1f 5f bf
       -0.8819785 -0.8657758 -0.88997984 -0.8715768
000180 28 a7 53 bf 24 39 61 bf e4 35 58 bf e4 0a 62 bf
       -0.82676935 -0.87977815 -0.8445723 -0.8829787
000190 64 67 60 bf 50 6e 5f bf 44 fb 56 bf 78 19 5e bf
       -0.8765776 -0.872777 -0.8397715 -0.8675761
0001a0 1c 25 62 bf 2c 94 63 bf 16 d6 62 bf d8 de 5c bf
       -0.88337874 -0.8889797 -0.8860792 -0.8627753
0001b0 08 e5 5d bf e0 80 62 bf f0 a8 60 bf 84 fe 5f bf
       -0.866776 -0.884779 -0.8775778 -0.87497735
0001c0 d8 25 60 bf b4 e8 53 bf 6c 34 5c bf f8 03 63 bf
       -0.87557745 -0.8277695 -0.8601749 -0.8867793
0001d0 38 eb 5e bf f8 bc 5f bf d0 11 61 bf 56 04 62 bf
       -0.87077665 -0.8739772 -0.87917805 -0.88287866
0001e0 a8 66 62 bf 38 a4 5b bf c0 e9 62 bf 7c ea 60 bf
       -0.8843789 -0.8579745 -0.88637924 -0.87857795
0001f0 f0 a8 60 bf 3c bc 61 bf 2c 4d 60 bf 40 46 61 bf
       -0.8775778 -0.8817785 -0.87617755 -0.8799782

hidden1_layer.weight_mu f4 [128, 128]
000000 59 b1 1d be 39 6a 70 be db b0 aa bd ed 16 df bd
       -0.15399684 -0.2347802 -0.08334514 -0.108930446
000010 69 c5 33 be 9a fe e9 bd 26 c1 02 bd 1a cd b2 bd
       -0.17555775 -0.114255145 -0.031922482 -0.08730526
000020 78 cc b5 bd a0 02 52 bd 5a 09 da bd 57 19 4c be
       -0.0887689 -0.051272035 -0.10646315 -0.19931541
000030 9d 9f 28 be 1c fa 4c bc e0 c4 4c bc 44 bc 90 bb
       -0.16467138 -0.012510803 -0.0124981105 -0.0044169743
000040 f4 c3 19 be 6c 54 d5 bd d5 71 3f be 40 7d 51 be
       -0.15016156 -0.10416493 -0.18695767 -0.20457935
000050 fa 7f 23 be 36 2e 16 be 74 dd bd bd fb f1 43 bd
       -0.15966788 -0.14666066 -0.092707545 -0.047838192
000060 8e b3 dc bc 9e 77 73 3b 69 21 31 be 53 1a b9 bc
       -0.026941087 0.0037150155 -0.17297901 -0.02259556
000070 bf 98 1c bd fa 10 5b bd 61 c4 8d bd 54 16 cc bd
       -0.038231608 -0.053482987 -0.06922222 -0.09965196
000080 be f3 0a be e0 f7 f0 bd fa b2 36 bc 0c 6d 6b be
       -0.13569543 -0.117660284 -0.01115107 -0.22990817
000090 86 3d 98 bd ee 8a 5f bd 02 f7 fd bd 31 09 01 be
       -0.0743361 -0.054575853 -0.124006286 -0.12601162
0000a0 27 93 d8 bd 19 f0 38 bd 48 86 cc bd f4 34 03 be
       -0.10574942 -0.04515085 -0.099865496 -0.12813169
0000b0 05 2e ab 38 1c bc a0 bd 01 17 b1 bd 70 3c af bd
       8.162487e-05 -0.07848379 -0.08646966 -0.085564494
0000c0 08 61 e0 bd f0 ae 5d bc d7 de e6 bc 94 3f 81 be
       -0.10956007 -0.013530478 -0.02818243 -0.2524382
0000d0 ba 49 fb bd 48 b1 e3 bb 3e 45 4d bd 26 d4 aa bc
       -0.122699216 -0.006948624 -0.050114863 -0.020853113
0000e0 fa 3a 9e bd 98 2b e7 3b e4 a8 6c bd be c1 89 bd
       -0.07726093 0.0070547573 -0.057778254 -0.067264065
0000f0 f4 44 f6 bc 64 35 91 bc dd 16 1c be 73 ee ce bd
       -0.030062176 -0.017725654 -0.15243097 -0.10104074
000100 5a 61 40 be 09 3c 88 bd 20 f3 2a bd 10 27 cf bd
       -0.18787137 -0.06652076 -0.04173577 -0.101148725
000110 13 00 c4 bd 65 6e 34 bd 79 06 b3 bd 8e 38 94 bc
       -0.09570327 -0.044050593 -0.08741469 -0.018093374
000120 1d 23 9c bd fb 55 0d be 18 8d b6 bd fc 84 f1 bd
       -0.07623885 -0.1380233 -0.0891363 -0.11792943
000130 4c ad 22 be b0 65 4e be a0 27 e4 bd 68 00 8f bd
       -0.1588642 -0.20155978 -0.1114037 -0.06982499
000140 f0 81 2d be 30 4e 91 bc 4d 71 04 be 30 b0 f6 bb
       -0.16944098 -0.017737478 -0.12933846 -0.0075283274
000150 1c 6e 8d 3c fa 89 1b bd 85 91 81 bd ca 75 6c bd
       0.017264418 -0.03797338 -0.06326584 -0.05772952
000160 f4 30 0f be ab c7 62 be d2 8a 94 bd 0c 06 09 be
       -0.13983518 -0.2214648 -0.072530404 -0.13381213
000170 06 6c 32 be 78 b4 0d be 84 87 23 be 32 c0 95 bd
       -0.1742402 -0.13838375 -0.15969664 -0.07312049
000180 7e e5 14 be a0 a8 d3 bd 67 5c 32 be 79 99 b0 bd
       -0.1454067 -0.10334897 -0.17418061 -0.086230226
000190 32 51 8c bd 8e b0 e6 bd 35 00 36 be 40 9c 62 bd
       -0.06851424 -0.11264144 -0.17773516 -0.055324793
0001a0 8c 0b 68 be cf 12 59 be 8e 68 9c 3c 80 c6 7c bd
       -0.22660655 -0.21198581 0.019092824 -0.06171274
0001b0 9d 5e 2f be 91 c5 9e bd 7a 76 11 be 36 92 47 3c
       -0.17125936 -0.077525266 -0.14205351 0.0121808555
0001c0 f6 09 c4 bc 1c db 34 be 42 c4 46 bd 18 a1 42 bd
       -0.023930531 -0.17661709 -0.04852701 -0.047516912
0001d0 fa b2 cb bd 6f a4 42 be 64 1d c4 bd dc 6b 4d bc
       -0.099462464 -0.19008039 -0.09575918 -0.012537923
0001e0 cc 73 84 3b 44 d9 be bd 36 2a 3f be 26 25 4f be
       0.0040421244 -0.09318784 -0.18668446 -0.20229015
0001f0 f1 69 e4 bd 5c e5 dc bd 9c 67 bf bd ee 6c ae 3c
       -0.11153019 -0.10785934 -0.09345934 0.021292176
000200 52 1a 06 be c1 21 34 be 24 df 1f be 95 f6 e8 bc
       -0.13095978 -0.17591001 -0.15612465 -0.028437892
000210 90 8d 47 be 5a 46 e9 bd 62 3b 14 be be ba 35 bd
       -0.19487596 -0.113903716 -0.14475778 -0.044367544
000220 9b b5 56 be 25 c6 6d be 5c a6 c1 bd 80 3e d9 bd
       -0.20967714 -0.23220117 -0.09455559 -0.10607624
000230 29 33 55 be 28 db c0 bd 55 55 7d be 5d 5a 20 be
       -0.20820297 -0.09416801 -0.24739583 -0.15659471
000240 4b 5c 41 be d8 42 14 be 57 f6 2b be 25 f9 25 be
       -0.18882863 -0.14478624 -0.1679319 -0.16208322
000250 82 9c 39 be c0 7f 33 be a8 91 d6 bb c6 a9 2d be
       -0.18126109 -0.17529202 -0.0065481253 -0.16959295
000260 02 90 b9 bd f9 ee 37 be 42 66 6a bd dc 3b 20 be
       -0.090606704 -0.17962255 -0.057226427 -0.15647835
000270 1b 25 ec bd 3c 50 d3 bd 63 fb 05 be 7b 75 b2 bd
       -0.11530515 -0.10318038 -0.13084178 -0.08713814
000280 8c 72 06 be 1e 1d 47 be 97 0e d3 bc df cb 35 be
       -0.13129634 -0.19444701 -0.025763793 -0.17753552
000290 3c c3 48 be 97 b8 4f be 92 c6 eb bd 5e 5e 84 bd
       -0.19605726 -0.20285259 -0.11512484 -0.064633116
0002a0 83 2f 1e be 54 72 4f be c4 1a 8f bd a2 27 6e 39
       -0.15447812 -0.20258456 -0.06987527 0.00022712213
0002b0 e2 b9 8f bd e4 a6 42 be 5d 31 5a be 97 35 c2 bd
       -0.07017876 -0.19008976 -0.21307893 -0.09482878
0002c0 2c 2f 26 be ae 94 6f bd 6a 3f d9 bd 02 71 d5 bd
       -0.16228932 -0.0584914 -0.106077984 -0.10421945
0002d0 c9 23 e5 bd 3d a4 72 be c1 10 c6 bd da f2 d7 bd
       -0.11188466 -0.23695464 -0.09671164 -0.10544367
0002e0 60 03 01 3d f4 08 14 be 46 b0 99 bd 27 43 0b bd
       0.03149736 -0.1445654 -0.075043246 -0.03399959
0002f0 a0 a2 7d bd f6 94 9c bd 9d 6f 14 be 07 74 30 be
       -0.06192267 -0.076455995 -0.14495702 -0.17231761
000300 4e 1c 16 bd d4 97 1e be 5c 5f 20 be 81 d7 b8 bd
       -0.036648087 -0.15487605 -0.15661377 -0.09025479
000310 a5 95 3f be 11 68 3f be 12 1b d8 bd bf d8 24 be
       -0.18709429 -0.18692042 -0.10552038 -0.16098307
000320 b2 1a 26 be 3e 46 00 be 94 a1 e1 bd 68 d4 19 be
       -0.16221121 -0.12526795 -0.11017147 -0.15022433
000330 f6 12 16 bd 9b a5 16 be b0 9b 29 be f4 18 e2 bd
       -0.036639176 -0.14711611 -0.16563296 -0.11039916
000340 e9 66 82 be 78 4b e6 bd 89 b0 08 be 96 70 5e be
       -0.2546914 -0.11244863 -0.13348593 -0.21722636
000350 87 a9 08 be c5 34 b5 bd aa 2d ab bd 49 1c af bc
       -0.1334592 -0.088479556 -0.08358319 -0.021375792
000360 2e 64 30 be ca 7f b7 bd 66 6a ca bd f0 c3 ea bd
       -0.17225716 -0.08959921 -0.09883575 -0.11463153
000370 c2 0c 1d bd b7 45 b4 bd 70 fe 7c be 01 96 e5 bd
       -0.038342245 -0.088023596 -0.24706435 -0.112102516
000380 9a 05 2c be db 9c 07 be 68 37 77 be 45 4e 83 3c
       -0.16799012 -0.1324343 -0.2414223 0.016028533
000390 8b 51 c0 bd 78 71 fc bd b5 59 cf bd dc eb 8a be
       -0.09390553 -0.1232633 -0.10124532 -0.2713307
0003a0 9e 15 37 bd d2 bf 97 bd bf 1c 0f be c4 96 a6 bd
       -0.04469835 -0.07409634 -0.1397581 -0.08134225
0003b0 90 3c b6 bd 9b f1 80 be 49 cf 43 be 9c 22 08 be
       -0.0889827 -0.2518433 -0.19122042 -0.13294452
0003c0 80 04 4d be 27 61 41 be f7 c8 35 be 3c 46 cf bd
       -0.20021248 -0.18884717 -0.17752443 -0.10120818
0003d0 52 8c 05 be a1 b0 3a be fe 70 02 be f4 c1 30 be
       -0.13041809 -0.18231441 -0.12738416 -0.17261487
0003e0 33 d0 06 be cc e9 4b be 1b f0 26 be 14 ef f6 bd
       -0.13165359 -0.19913405 -0.1630253 -0.12057319
0003f0 a7 15 1e be a5 0a 26 be 1f ff 00 be 3d 8c 95 bd
       -0.15437947 -0.16214998 -0.12597321 -0.07302139

hidden1_layer.weight_log_sigma f4 [128, 128]
000000 ea 3d 54 bf 06 92 57 bf 7e 5b 39 bf fe 0b 5f bf
       -0.82906973 -0.8420719 -0.7240523 -0.87127674
000010 96 97 36 bf e4 fd 3d bf ee 64 43 bf ea 21 47 bf
       -0.7132505 -0.7421553 -0.7632588 -0.77786124
000020 02 ec 4a bf 3e 1e 51 bf 06 e8 43 bf aa d7 3a bf
       -0.7926637 -0.8168677 -0.76525915 -0.7298533
000030 c6 b9 44 bf 4e 71 45 bf 52 98 34 bf c6 ac 20 bf
       -0.7684597 -0.77126014 -0.7054492 -0.6276363
000040 7a a6 43 bf ea 68 4a bf fe 45 3e bf 9a 77 22 bf
       -0.764259 -0.79066336 -0.7432555 -0.6346375
000050 d2 c9 3c bf 92 b7 4a bf e2 7f 41 bf d2 48 5a bf
       -0.73745453 -0.79186356 -0.7558576 -0.85267365
000060 7a d1 39 bf f2 fd 2b bf de d9 34 bf 5a 9d 4a bf
       -0.7258526 -0.67184365 -0.7064494 -0.7914635
000070 fa 3a 5c bf be 96 5c bf e4 a7 51 bf 52 17 52 bf
       -0.8602749 -0.86167514 -0.81896806 -0.82066834
000080 52 26 3b bf be d0 3b bf e2 54 4b bf 92 0d 37 bf
       -0.7310535 -0.7336539 -0.79426396 -0.7150508
000090 e2 aa 37 bf 12 3f 3f bf aa 81 4e bf fe a8 4e bf
       -0.7174512 -0.7470561 -0.806666 -0.8072661
0000a0 8a a3 4b bf 6a c5 48 bf 3e 9f 33 bf ca 5f 51 bf
       -0.79546416 -0.7842623 -0.7016486 -0.8178679
0000b0 6a 2a 1e bf 0e d1 4c bf 1e f9 4a bf be fb 31 bf
       -0.6178347 -0.8000649 -0.7928637 -0.69524753
0000c0 6e 7a 3e bf b2 16 30 bf 44 0a 40 bf 92 fe 4d bf
       -0.7440556 -0.6878463 -0.75015664 -0.8046657
0000d0 42 1a 4a bf 12 5b 4c bf 82 01 46 bf 62 b1 49 bf
       -0.78946316 -0.7982646 -0.7734605 -0.7878629
0000e0 7a 8a 36 bf 8a c1 1d bf 20 14 37 bf 92 70 47 bf
       -0.7130505 -0.6162344 -0.71515083 -0.77906144
0000f0 1a f0 2d bf 26 0d 4a bf f6 78 42 bf 22 3c 47 bf
       -0.6794449 -0.7892631 -0.7596582 -0.7782613
000100 8e ae 2d bf 96 97 36 bf 92 54 3a bf b6 75 39 bf
       -0.67844474 -0.7132505 -0.72785294 -0.7244524
000110 8e 83 37 bf 56 85 44 bf 42 ef 53 bf 82 64 56 bf
       -0.7168511 -0.76765954 -0.82786953 -0.8374711
000120 82 8f 4c bf 3e 49 47 bf ae 52 51 bf 1e ce 54 bf
       -0.79906476 -0.77846134 -0.81766784 -0.8312701
000130 0a b9 46 bf be 5e 42 bf 8a 87 3e bf 16 9e 48 bf
       -0.776261 -0.75925815 -0.74425566 -0.7836622
000140 5a e4 4d bf 66 10 53 bf 76 63 47 bf 12 86 42 bf
       -0.8042656 -0.824469 -0.7788614 -0.75985825
000150 be 7a 4f bf 9a da 32 bf 6e 96 4b bf c2 92 55 bf
       -0.81046665 -0.6986481 -0.7952641 -0.8342706
000160 a2 98 45 bf 9a 75 5d bf fe d3 44 bf f2 df 59 bf
       -0.77186024 -0.8650757 -0.76885974 -0.8510734
000170 8e 02 55 bf 3a 15 34 bf 3e 02 44 bf ca 8a 47 bf
       -0.83207023 -0.7034489 -0.7656592 -0.7794615
000180 42 70 36 bf 5e fc 53 bf d6 28 46 bf da 15 56 bf
       -0.7126504 -0.82806957 -0.7740606 -0.8362709
000190 7e be 49 bf a6 31 2e bf 02 42 37 bf b6 91 46 bf
       -0.78806293 -0.6804451 -0.71585095 -0.7756609
0001a0 c6 00 48 bf 9e ab 35 bf 3e 58 30 bf 56 e8 54 bf
       -0.7812618 -0.7096499 -0.68884647 -0.83167017
0001b0 5a 00 5b bf 02 96 5e bf 8e 74 4e bf 72 20 4b bf
       -0.8554741 -0.86947644 -0.806466 -0.7934638
0001c0 76 63 47 bf c2 92 55 bf 82 73 3f bf be 17 3f bf
       -0.7788614 -0.8342706 -0.74785626 -0.746456
0001d0 b2 dc 50 bf da ce 52 bf 56 3e 41 bf 6e 33 3b bf
       -0.81586754 -0.8234688 -0.7548574 -0.7312535
0001e0 a2 6d 4f bf 56 e8 54 bf 4e a9 5f bf 6e 24 52 bf
       -0.8102666 -0.83167017 -0.87367713 -0.8208684
0001f0 1a 9a 41 bf ce 30 54 bf 1e 4f 37 bf 52 6d 3e bf
       -0.75625765 -0.8288697 -0.716051 -0.7438556
000200 34 fe 4e bf 3c 21 37 bf 60 33 4d bf c4 bc 2a bf
       -0.80856633 -0.71535087 -0.8015652 -0.66694283
000210 b8 e4 4c bf a8 59 3e bf 2e af 4f bf 34 9b 3e bf
       -0.800365 -0.74355555 -0.8112668 -0.7445557
000220 7c 87 50 bf 58 2e 37 bf 10 f9 5c bf 28 6f 39 bf
       -0.8145673 -0.7155509 -0.8631754 -0.72435236
000230 20 93 54 bf 8a 31 52 bf 8c 05 3b bf 58 75 3a bf
       -0.83036995 -0.8210684 -0.7305534 -0.728353
000240 5c f0 50 bf 84 c6 45 bf b8 56 46 bf a4 07 59 bf
       -0.8161676 -0.77256036 -0.7747607 -0.84777284
000250 58 1f 4e bf a0 45 3f bf 74 ba 54 bf 94 c3 4d bf
       -0.80516577 -0.74715614 -0.83097005 -0.80376554
000260 c8 0c 4b bf 14 04 3f bf cc 4f 47 bf 28 53 2c bf
       -0.7931638 -0.746156 -0.77856135 -0.67314386
000270 fa 74 3b bf 7c b2 46 bf b0 d0 4d bf 10 f9 5c bf
       -0.7322537 -0.77616096 -0.80396557 -0.8631754
000280 2c a3 4c bf 78 fd 50 bf 38 a4 5b bf c4 c9 4e bf
       -0.7993648 -0.8163676 -0.8579745 -0.8077662
000290 6c e0 34 bf 98 db 53 bf f2 b6 28 bf c4 1f 3b bf
       -0.7065494 -0.8275695 -0.6590415 -0.73095345
0002a0 48 3e 53 bf cc dd 4d bf 50 7d 48 bf cc a5 33 bf
       -0.8251691 -0.8041656 -0.7831621 -0.7017486
0002b0 dc a2 3b bf 60 96 5d bf 5c 37 54 bf 2c 40 3c bf
       -0.7329538 -0.8655758 -0.8289697 -0.7353542
0002c0 a8 4a 55 bf f8 e7 55 bf ec f5 2f bf 50 ef 41 bf
       -0.8331704 -0.8355708 -0.6873462 -0.75755787
0002d0 5e 8a 5a bf 9c d7 4c bf 1c 7b 4e bf cc 24 51 bf
       -0.8536738 -0.80016494 -0.806566 -0.8169677
0002e0 f0 63 22 bf 24 f2 5d bf f4 eb 5c bf 38 88 4e bf
       -0.6343374 -0.866976 -0.86297536 -0.80676603
0002f0 fc ab 34 bf f4 eb 5c bf f8 3d 42 bf f0 d3 56 bf
       -0.7057493 -0.86297536 -0.75875807 -0.8391714
000300 2a 25 50 bf ac 55 37 bf 28 d2 49 bf 34 9b 3e bf
       -0.8130671 -0.716151 -0.788363 -0.7445557
000310 60 33 4d bf 08 82 4d bf 5c a9 4d bf 24 01 47 bf
       -0.8015652 -0.80276537 -0.80336547 -0.77736115
000320 7c 5c 5a bf d4 d5 3f bf b8 47 5d bf 28 8b 46 bf
       -0.8529737 -0.7493565 -0.8643756 -0.77556086
000330 b0 17 51 bf 38 6c 41 bf 98 78 43 bf 78 b6 4d bf
       -0.8167677 -0.75555754 -0.76355886 -0.8035655
000340 b0 42 47 bf 18 aa 4b bf 5c 46 3d bf 9c 90 49 bf
       -0.7783613 -0.7955642 -0.73935485 -0.7873628
000350 b0 33 5e bf d4 c6 56 bf cc dd 4d bf d0 f5 53 bf
       -0.8679762 -0.8389714 -0.8041656 -0.82796955
000360 54 4e 4b bf 3c cb 4a bf d0 a1 2c bf b0 33 5e bf
       -0.79416394 -0.7921636 -0.67434406 -0.8679762
000370 30 ca 3b bf fc 2a 52 bf 28 53 2c bf 74 48 5b bf
       -0.7335539 -0.8209684 -0.67314386 -0.8565743
000380 28 28 36 bf 60 ec 49 bf 20 e9 40 bf 68 e4 3b bf
       -0.71155024 -0.78876305 -0.7535572 -0.73395395
000390 7c 5c 5a bf 68 e4 3b bf 78 53 3d bf e4 35 58 bf
       -0.8529737 -0.73395395 -0.7395549 -0.8445723
0003a0 6c 8a 48 bf 90 8f 3a bf 92 61 5e bf 98 bf 46 bf
       -0.78336215 -0.7287531 -0.8686763 -0.776361
0003b0 c8 53 4e bf f4 b3 42 bf 44 b4 53 bf d8 ed 45 bf
       -0.8059659 -0.76055837 -0.8269694 -0.77316046
0003c0 38 88 4e bf f4 eb 5c bf 34 d3 58 bf cc dd 4d bf
       -0.80676603 -0.86297536 -0.8469727 -0.8041656
0003d0 b8 c8 3f bf b0 fb 43 bf 64 76 49 bf 26 c6 46 bf
       -0.7491565 -0.7655592 -0.78696275 -0.776461
0003e0 98 22 57 bf 70 be 5b bf 34 b7 4b bf 40 b8 5a bf
       -0.8403716 -0.8583746 -0.7957642 -0.85437393
0003f0 80 bd 28 bf ac 71 44 bf 60 17 40 bf b8 0f 43 bf
       -0.65914154 -0.7673595 -0.7503567 -0.7619586

hidden1_layer.bias_mu f4 [128]
000000 2a de b6 bd b2 4c 59 bd a1 e4 65 be 41 0c 32 be
       -0.08929093 -0.053051658 -0.22450496 -0.17387487
000010 57 7e f2 bd e2 01 c1 bd 31 67 2f be 0a 9c 42 be
       -0.11840504 -0.09424187 -0.17129208 -0.19004837
000020 b6 ec f5 bd ea b5 56 be 36 b2 65 be 79 e2 9a bd
       -0.1200804 -0.20967832 -0.22431263 -0.075627275
000030 d6 52 e6 bd 98 98 e8 bd 54 40 9a bd 96 05 66 be
       -0.112462685 -0.1135723 -0.07531801 -0.22463068
000040 6a 6e 07 be 34 73 21 be 51 cd 1b be ff bf ad bd
       -0.13225713 -0.15766603 -0.1521504 -0.08483886
000050 27 5b 09 be 6a 8a 2f be 74 7a ad bd af 9d 3f be
       -0.13413678 -0.17142645 -0.08470622 -0.18712495
000060 6f f8 21 be aa 5c 73 bd 7a e5 97 bd e4 1e 26 be
       -0.15817426 -0.059414543 -0.07416816 -0.16222721
000070 97 53 19 be 2a 0b ec bd 30 27 a1 bd 7f 68 1b be
       -0.14973293 -0.11525567 -0.078688025 -0.15176581
000080 64 a5 e0 bd 01 be 92 bd 60 62 26 be 98 0a 31 be
       -0.10969046 -0.071651466 -0.16248465 -0.17289197
000090 ce 50 ba bc 6e b2 20 be 94 2e 94 bd a4 85 10 be
       -0.022743609 -0.15693066 -0.072354466 -0.1411348
0000a0 ba 80 03 be 1b ea 3f be e5 1c 07 be ba b1 e2 bd
       -0.12842074 -0.18741648 -0.13194616 -0.11069055
0000b0 31 9f 93 bd 22 2e ff bd 3c fe 01 be c0 43 2c be
       -0.07208098 -0.12459971 -0.12694639 -0.1682272
0000c0 84 8c 33 bd 01 da 21 be a1 76 38 be 28 86 4d be
       -0.043835178 -0.15805818 -0.18014003 -0.20070708
0000d0 a9 82 b5 bd 50 ba df bd 24 cc 20 be 76 86 02 be
       -0.08862812 -0.10924208 -0.15702873 -0.12746605
0000e0 36 73 fc bd ad 9c 13 be f9 b5 9b bd 1e e7 f1 bd
       -0.12326662 -0.14415236 -0.07603068 -0.1181166
0000f0 e0 8e f0 bd 04 41 ea bd ae 66 fd bd 28 7f b3 bd
       -0.11746001 -0.11438182 -0.123731 -0.087644875
000100 8f 9a 08 bd e6 aa 10 bd 94 8c 0d be 52 d8 5d bd
       -0.033350524 -0.03531923 -0.13823158 -0.054161377
000110 84 e7 cb bd 40 66 a6 bd c6 2c 47 be 32 07 d9 bd
       -0.099562675 -0.081249714 -0.19450673 -0.105970755
000120 02 25 3f be ca 31 88 bd 9f 2e c5 bd 17 e1 04 be
       -0.18666461 -0.066501215 -0.09628033 -0.1297649
000130 84 59 c3 bd 9b 88 3c bd a7 a2 21 be 12 13 2c be
       -0.09538558 -0.046028715 -0.15784703 -0.1680415
000140 92 bd b8 bd 00 48 a0 bd 6a e1 55 bd 12 9f 09 be
       -0.09020533 -0.07826233 -0.052216925 -0.13439587
000150 db 9a 32 be 67 a7 62 be 90 ce 44 bd f4 76 c6 bd
       -0.17441885 -0.22134171 -0.048048556 -0.09690657
000160 1f 78 84 bd 84 40 92 bd 28 52 de bd ac 53 ed bd
       -0.06468224 -0.07141212 -0.10855514 -0.11588225
000170 30 a6 c2 bd 22 fb f9 bd bc d7 48 be 6e d7 8e bd
       -0.09504354 -0.12206103 -0.19613546 -0.06974684
000180 47 ea 51 be 00 4c 3e be 6e 65 fb bd dc 85 b0 bd
       -0.20499526 -0.18583679 -0.122752056 -0.08619282
000190 f1 43 9d bd 78 ef 32 bd 2a f7 5b be be 74 3f bd
       -0.076789744 -0.043685406 -0.21481004 -0.046742193
0001a0 c8 15 30 be e1 18 1d be f2 17 5c be 50 fc dd bd
       -0.17195809 -0.15341522 -0.2149351 -0.108391404
0001b0 a0 ed 7b bd 82 b9 31 bd 27 e9 04 be d4 36 4b bd
       -0.061505914 -0.043389805 -0.12979566 -0.049612835
0001c0 cd 69 46 be aa 41 c6 bd 0a a2 e5 bd bf 72 12 be
       -0.19376297 -0.09680493 -0.11212547 -0.14301585
0001d0 8b 5f 1e be bc e9 13 be 7c db 40 be 1e 3e 88 bd
       -0.15466134 -0.14444631 -0.18833727 -0.06652473
0001e0 84 b8 91 bd 70 a6 07 be a2 da a6 bd 94 30 fa bd
       -0.07115272 -0.13247085 -0.0814717 -0.12216297
0001f0 c0 99 cc bd 1a ec f7 bd e8 0d 1f be cc cd 76 bd
       -0.09990263 -0.1210558 -0.15532649 -0.060254857

hidden1_layer.bias_log_sigma f4 [128]
000000 36 df 5b bf 3c 3d 44 bf c0 23 42 bf dc 77 45 bf
       -0.8588747 -0.76655936 -0.758358 -0.77136016
000010 90 f2 4a bf f0 45 50 bf 42 70 36 bf 40 b8 5a bf
       -0.7927637 -0.81356716 -0.7126504 -0.85437393
000020 e4 35 58 bf 28 d2 49 bf 8e 83 37 bf 60 08 57 bf
       -0.8445723 -0.788363 -0.7168511 -0.83997154
000030 28 8b 46 bf 04 3f 51 bf bc 52 3f bf c0 dc 3e bf
       -0.77556086 -0.8173678 -0.7473562 -0.7455559
000040 38 de 3a bf 00 99 44 bf 0c 1b 36 bf 7c 40 4d bf
       -0.7299533 -0.7679596 -0.7113502 -0.8017652
000050 14 f5 55 bf c4 c9 4e bf 80 ca 4c bf 8c 84 58 bf
       -0.83577085 -0.8077662 -0.7999649 -0.8457725
000060 0c 53 50 bf 14 ae 52 bf 34 29 45 bf 2e f6 52 bf
       -0.8137672 -0.8229687 -0.77015996 -0.8240689
000070 10 08 46 bf ca ed 57 bf 9c 65 53 bf c4 e5 5b bf
       -0.7735605 -0.8434721 -0.8257692 -0.8589747
000080 f4 88 4c bf fc b8 58 bf 90 64 44 bf e8 78 54 bf
       -0.79896474 -0.84657264 -0.76715946 -0.8299699
000090 e8 5c 47 bf 24 01 47 bf b8 0f 43 bf 64 67 60 bf
       -0.7787614 -0.77736115 -0.7619586 -0.8765776
0000a0 e8 78 54 bf 68 00 49 bf b0 ec 5a bf cc 96 4a bf
       -0.8299699 -0.78516245 -0.85517406 -0.7913635
0000b0 5c c5 5a bf 14 67 4f bf 40 55 4a bf 24 ab 5a bf
       -0.85457397 -0.8101666 -0.7903633 -0.8541739
0000c0 6c a6 55 bf 7c 87 50 bf 70 e9 51 bf 34 1a 5c bf
       -0.83457065 -0.8145673 -0.8199682 -0.8597748
0000d0 a4 4e 5c bf 5e 99 43 bf d0 83 5a bf 18 63 48 bf
       -0.86057496 -0.76405895 -0.8535738 -0.78276205
0000e0 0c 7e 46 bf be 33 4c bf 3c e7 57 bf d8 09 53 bf
       -0.7753608 -0.7976645 -0.8433721 -0.82436895
0000f0 9c 02 43 bf f0 45 50 bf a8 1f 5f bf 3a db 54 bf
       -0.76175857 -0.81356716 -0.8715768 -0.83147013
000100 10 24 53 bf 6c a6 55 bf f2 ee 42 bf 7c 24 40 bf
       -0.824769 -0.83457065 -0.7614585 -0.7505567
000110 98 bf 46 bf 70 3f 3e bf f0 45 50 bf cc ec 36 bf
       -0.776361 -0.7431555 -0.81356716 -0.71455073
000120 04 23 44 bf 5c d4 43 bf 84 7f 42 bf 6c 5f 52 bf
       -0.7661593 -0.7649591 -0.75975823 -0.8217685
000130 f8 75 5c bf b4 5a 4d bf 4e e3 3e bf c4 57 55 bf
       -0.86117506 -0.80216527 -0.7456559 -0.83337045
000140 e4 ee 54 bf 58 2e 37 bf 98 31 40 bf d0 ae 50 bf
       -0.8317702 -0.7155509 -0.75075674 -0.8151674
000150 5a 0f 44 bf 96 25 3d bf 26 c6 46 bf 2e 84 59 bf
       -0.76585925 -0.73885477 -0.776461 -0.84967315
000160 1c 09 55 bf 62 b1 49 bf c4 c9 4e bf d4 c6 56 bf
       -0.83217025 -0.7878629 -0.8077662 -0.8389714
000170 c6 d5 51 bf 00 99 44 bf 54 b1 5b bf a8 e7 44 bf
       -0.8196682 -0.7679596 -0.85817456 -0.7691598
000180 28 a7 53 bf cc b2 57 bf a8 e7 44 bf e0 1d 52 bf
       -0.82676935 -0.842572 -0.7691598 -0.82076836
000190 c4 f4 44 bf a8 75 4b bf 60 96 5d bf 2e af 4f bf
       -0.7693598 -0.79476404 -0.8655758 -0.8112668
0001a0 bc 27 49 bf 68 72 42 bf fc 9c 4b bf d4 38 50 bf
       -0.78576255 -0.7595582 -0.79536414 -0.8133671
0001b0 34 70 48 bf 44 98 46 bf 66 f4 45 bf a0 61 4c bf
       -0.7829621 -0.7757609 -0.7732605 -0.79836464
0001c0 6c a6 55 bf 2c 06 5d bf 24 d6 50 bf 1c de 5e bf
       -0.83457065 -0.8633754 -0.8157675 -0.8705766
0001d0 80 ae 3f bf f8 a0 52 bf 30 58 42 bf 98 94 50 bf
       -0.7487564 -0.8227687 -0.75915813 -0.81476736
0001e0 18 b9 34 bf e8 78 54 bf 70 30 55 bf 54 16 31 bf
       -0.7059493 -0.8299699 -0.83277035 -0.69174695
0001f0 50 ef 41 bf 94 c3 4d bf 48 db 42 bf f8 af 3b bf
       -0.75755787 -0.80376554 -0.76115847 -0.7331538

hidden2_layer.weight_mu f4 [128, 128]
000000 13 e6 90 be 5d be 84 be 93 a8 e6 bd 2b 60 79 be
       -0.28300533 -0.25926486 -0.11262622 -0.24353091
000010 41 6c 32 be 5d e6 f9 bd f0 f3 89 be bc 2c 2b be
       -0.17424108 -0.122021414 -0.26943922 -0.16716284
000020 3e c3 3c be d6 40 0a be b3 68 8e be 80 3b 4d be
       -0.18433854 -0.13501295 -0.27814254 -0.20042229
000030 01 2c 88 be b7 1a 05 be a4 a5 2e be 25 4e 05 be
       -0.26596072 -0.12998472 -0.17055374 -0.13018091
000040 a5 34 48 be 93 a2 44 be c2 10 51 be 5a ea 29 be
       -0.19551332 -0.19202642 -0.20416549 -0.16593304
000050 18 fc 33 be c3 fb 0a be c6 f9 2f be 42 1c 5d be
       -0.17576635 -0.13572602 -0.17185125 -0.21592811
000060 0e 85 83 be 47 1b 8e be 33 c3 4d be 78 53 35 be
       -0.2568745 -0.27755186 -0.20093994 -0.17707622
000070 57 e3 66 be 5f 4f 6a be 17 ad 6d be 44 75 6b be
       -0.22547661 -0.2288184 -0.2321056 -0.22993952
000080 3f 45 60 be f5 d6 7a be 80 27 60 be d9 c2 56 be
       -0.21901415 -0.24496062 -0.21890068 -0.20972766
000090 4d 63 47 be 57 52 57 be d8 a0 36 be 1e 47 45 be
       -0.19471474 -0.21027504 -0.17834795 -0.1926541
0000a0 a1 f7 5a be b5 ab 07 be fe 13 69 be fe 8e 81 be
       -0.21383525 -0.13249095 -0.22761533 -0.25304407
0000b0 7c 80 47 be 00 8c 60 be b7 c6 61 be 57 51 81 be
       -0.19482607 -0.21928406 -0.2204846 -0.2525737
0000c0 4d 9a 4d be 11 b9 e9 bd 3a 7f 1f be e1 67 74 be
       -0.20078392 -0.11412252 -0.15575877 -0.23867752
0000d0 c8 23 09 be 3f 17 0d be 13 fd 23 be b4 7c 80 be
       -0.13392556 -0.13778399 -0.16014509 -0.2509514
0000e0 09 1e 1e be d1 1f 59 be f6 05 87 be bb f6 8e be
       -0.15441145 -0.21203543 -0.26371735 -0.27922615
0000f0 c1 a2 fa bd 2c 68 e4 bd 0e 60 34 be c1 a9 ef bd
       -0.12238074 -0.11152682 -0.17614767 -0.117023
000100 7a e1 58 be ab 46 68 be 74 37 57 be 16 31 f9 bd
       -0.21179762 -0.22683208 -0.21017247 -0.121675655
000110 32 74 82 be 38 55 60 be 13 d4 1f be 31 3e 5b be
       -0.25479275 -0.21907508 -0.15608244 -0.21410443
000120 70 2b 3a be 17 15 f4 bd ae 1b 8c be 31 a5 8d be
       -0.18180633 -0.11918085 -0.27364868 -0.27665094
000130 04 1d 11 be 2c 1f 15 be 19 7f 83 be fc 4d 72 be
       -0.14171225 -0.14562672 -0.25682905 -0.23662561
000140 dd b0 24 be ac a7 75 be f2 fe 28 be cb 03 69 be
       -0.16083093 -0.23989743 -0.16503504 -0.22755353
000150 15 1a 67 be bf 14 36 be 6a b5 68 be a1 53 4f be
       -0.22568543 -0.17781352 -0.22725454 -0.20246746
000160 6b 81 59 be 1d 99 f5 bd 21 07 5d be 9e 4a 73 be
       -0.21240775 -0.11992095 -0.2158475 -0.23758933
000170 eb 8b 82 be 96 99 79 be 06 58 41 be c2 0e 71 be
       -0.25497374 -0.24374995 -0.18881235 -0.23540786
000180 ee 67 77 be a6 ef 74 be cb 45 2a be a2 84 0d be
       -0.2416074 -0.23919544 -0.16628186 -0.13820127
000190 a4 1b 55 be 55 33 89 be 8b 99 7a be 9f 65 8d be
       -0.20811325 -0.26796976 -0.24472634 -0.27616593
0001a0 5d 2a 22 be 14 79 4a be 42 55 7f be 7e 34 2f be
       -0.15836473 -0.1977275 -0.24934867 -0.17109868
0001b0 8b 73 16 be 78 6e 30 be c4 7c 27 be 6a b0 53 be
       -0.14692514 -0.1722964 -0.16356188 -0.20672765
0001c0 e3 00 2d be 39 52 8b be cd 3c f4 bd 8d d9 74 be
       -0.1689487 -0.27211168 -0.11925659 -0.23911114
0001d0 44 c3 90 be 97 02 0c be 64 57 f1 bd 08 59 8d be
       -0.28273976 -0.13672863 -0.117842466 -0.27606988
0001e0 e6 0a e6 bd 07 ed e6 bd 98 16 4f be 16 f7 7a be
       -0.112325475 -0.11275678 -0.20223463 -0.24508318
0001f0 7d 7f 81 be ea 66 f6 bd 10 ab 38 be bd 3e 19 be
       -0.25292578 -0.12031348 -0.18034005 -0.14965339
000200 46 26 6c be 20 37 69 be d9 e3 6b be e7 3c 0d be
       -0.23061475 -0.22774935 -0.23036136 -0.13792764
000210 12 1f 8c be 33 29 17 be c3 b9 21 be 89 a1 e6 bd
       -0.27367455 -0.1476181 -0.15793519 -0.11261279
000220 2c b7 91 be 57 f3 0c be ee ed 83 be 0c 75 09 be
       -0.28460062 -0.13764702 -0.25767463 -0.13423556
000230 e6 83 3c be fc 58 70 be 0c 31 6d be aa ea 81 be
       -0.1840969 -0.23471445 -0.23163241 -0.25374347
000240 b0 1e 31 be e7 52 74 be 17 d8 8c be 44 02 6d be
       -0.17296863 -0.2385975 -0.27508613 -0.23145396
000250 79 ac ef bd 02 e1 04 be e2 60 90 be a2 d0 44 be
       -0.117028184 -0.12976459 -0.28198916 -0.19220212
000260 02 22 5a be bf 54 31 be 5f 91 8c be 66 7b 7d be
       -0.21302035 -0.17317484 -0.2745466 -0.24754104
000270 a2 14 0d be 07 e3 0e be cb 2d 1c be d4 67 81 be
       -0.13777402 -0.13953792 -0.15251844 -0.25274527
000280 81 16 31 be ef b2 45 be fd e7 21 be 74 9e 5c be
       -0.17293741 -0.19306539 -0.15811153 -0.2154482
000290 c4 7b 8f be d5 32 36 be e6 bb 1b be 53 d9 17 be
       -0.28024113 -0.17792828 -0.15208396 -0.14828996
0002a0 4e a5 4b be c4 7a 1a be 85 e7 90 be 7f 4c 51 be
       -0.19887277 -0.15085894 -0.28301635 -0.20439337
0002b0 6c 4f 66 be 32 f6 14 be 64 fc 3d be cf f2 8a be
       -0.22491235 -0.14547041 -0.1855331 -0.27138373
0002c0 7f 27 88 be 3e b0 06 be af 1c 81 be 23 91 79 be
       -0.26592633 -0.13153169 -0.25217196 -0.24371772
0002d0 82 36 47 be 14 e0 5f be d2 bd 1f be 4d aa 6c be
       -0.19454387 -0.21862823 -0.15599754 -0.2311184
0002e0 cc ea 0d be b3 1c 1f be 24 23 87 be 58 c0 6c be
       -0.13859099 -0.15538292 -0.26393998 -0.23120248
0002f0 89 96 2d be 47 86 58 be 3b 65 82 be 08 d9 52 be
       -0.16951956 -0.21144973 -0.25467858 -0.20590603
000300 bf 57 83 be e4 fe 8a be 0e af 36 be 08 1b 73 be
       -0.25652882 -0.2714759 -0.17840216 -0.2374078
000310 28 df 7f be 90 e6 7d be 97 c6 49 be e2 3a 03 be
       -0.24987471 -0.24794984 -0.19704662 -0.12815431
000320 24 fe 1d be 0a 0c 88 be 43 8e 1e be 84 4e 3d be
       -0.15428978 -0.26571685 -0.15483956 -0.18486983
000330 53 8c 3b be 4d 6e 60 be e8 8f 21 be ee 47 1f be
       -0.18315248 -0.21917076 -0.15777552 -0.15554783
000340 03 9f 6b be 6c 58 74 be 5b 1e ef bd d9 41 2d be
       -0.23009877 -0.23861855 -0.11675712 -0.1691965
000350 ff cf 5f be 7f 13 92 be 0b a8 1d be 4b 76 fd bd
       -0.21856688 -0.285305 -0.15396135 -0.12376078
000360 6a bc 65 be f3 f7 2e be 49 a8 07 be 4c af 80 be
       -0.22435156 -0.17086773 -0.1324779 -0.2513374
000370 14 d3 7f be 91 fe ed bd 00 09 8c be f7 3e 84 be
       -0.24982864 -0.1162082 -0.27350616 -0.25829288
000380 ac e8 eb bd b1 c6 52 be f5 c4 51 be 16 b6 84 be
       -0.11518988 -0.20583607 -0.2048529 -0.2592017
000390 9d 16 40 be 6c ed 82 be c0 b6 01 be 18 d2 8e be
       -0.18758626 -0.25571764 -0.1266737 -0.27894664
0003a0 ed e4 8c be 69 75 80 be e3 e4 17 be c3 8a 3e be
       -0.27518407 -0.25089577 -0.14833407 -0.18607621
0003b0 8f 88 03 be df be 82 be f5 8a fb bd b3 e4 92 be
       -0.12845062 -0.25536248 -0.12282363 -0.2869011
0003c0 88 d0 8d be fa 0c 27 be e8 27 28 be 5b ad 7c be
       -0.2769816 -0.16313544 -0.16421473 -0.24675505
0003d0 03 6e 75 be 71 ba 87 be 7b bb 85 be 1a 8e 8a be
       -0.23967747 -0.2650943 -0.261196 -0.2706154
0003e0 6c 30 58 be 53 78 04 be 52 f7 13 be 9a 2e 28 be
       -0.21112221 -0.12936525 -0.14449814 -0.16424027
0003f0 19 33 1b be e7 d4 59 be 43 30 8f be 31 1e 49 be
       -0.15156211 -0.21272622 -0.27966508 -0.19640423
