model_stock/world/world_extra.pth (torch, 706301 bytes, 16 tensors)

input_layer.weight_mu f8 [128, 43]
00000000: 6a82 acc9 e871 bebf 8b39 c27c f050 d7bf
00000010: a8e5 78b3 ae9d d5bf ff8c 528b 73b1 d7bf
00000020: 0f7b 0f99 3650 ab3f 32f5 102e 195a cebf
00000030: 2a6f 4ec0 2183 b6bf 76c5 cf64 58be b5bf
00000040: 8fd2 4926 7fc8 a23f 10f1 d3f8 1f8c d3bf
00000050: bf84 ab13 e992 d3bf b9ef 6138 7fee d4bf
00000060: 51a7 ade5 646e c7bf aaa0 1be3 bb30 c6bf
00000070: 570a bbd9 ecd9 d3bf c7de c9a6 a598 d83f
00000080: e7d5 a0eb 0971 debf b1d8 1425 1d54 da3f
00000090: ec61 3f29 df3d b63f e643 32e4 2aea cfbf
000000a0: f134 039a be94 d6bf eba9 df7c 9093 c6bf
000000b0: f17b 2c15 e1a1 a5bf e818 11ea ca76 d2bf
000000c0: b04a fd1a 7dad d7bf 4450 22a8 4c4b d7bf
000000d0: 7f57 ad61 a73a d33f 5419 8cdd 3797 d3bf
000000e0: 9de8 8259 ffc0 d1bf c809 eea0 72b6 d9bf
000000f0: 41d5 cb73 ca3e d7bf 794b 79de 9a89 d7bf
00000100: 6a88 94ea d1d0 d6bf 0d73 3597 6bf6 d9bf
00000110: 2a4c dff1 7fa2 d83f 0739 c622 5d4f d83f
00000120: 537d b5db dbca b7bf 30e5 0c52 91c3 d7bf
00000130: 5272 5493 172a d3bf fcd1 786f 89d6 abbf
00000140: 938b 3ee0 c7dd b0bf 59d7 e56f 9e26 bd3f
00000150: 853a 29e8 3a33 bcbf 2ec5 4fb7 ad6d bfbf
00000160: 8298 e315 ebcc b5bf 79a6 2df2 6d04 c1bf
00000170: 1575 b862 a2e8 d0bf b965 c5b1 464f c6bf
00000180: d0bf 493d a09b c7bf 1b77 2285 1811 c9bf
00000190: 89c5 b784 591b c7bf f5a5 219a 0451 c83f
000001a0: 0fcd 13b2 794a d4bf a1d8 da0f 1db2 c9bf
000001b0: b2a9 486a 14f9 d0bf 78a4 45e9 8464 bbbf
000001c0: 1d39 050b e7b1 d6bf 33d7 3fdf 42a1 d1bf
000001d0: 7270 a3be d9d9 d83f 841d ae09 99c3 dabf
000001e0: e54b 156f eff1 dfbf c6b6 4e58 6c53 963f
000001f0: 712b 9116 aaa4 d3bf 6077 5765 3d82 c9bf
00000200: 3ee9 c9a9 ee7c d1bf fdd7 4381 05f9 b0bf
00000210: 985f 8976 098d c9bf a549 03eb 52ef b8bf
00000220: 6471 0c7f 5661 c8bf cb28 8ac2 81ec b53f
00000230: 37e6 2844 9b33 c6bf 64b9 591d acaa b6bf
00000240: 4a66 e02f 7fbc d4bf c6f1 1e53 7e61 d9bf
00000250: e588 e71d 6213 cdbf 8372 8e7a 79d4 d8bf
00000260: b292 7003 eb9a d73f f27a 1f59 8c33 d93f
00000270: 719f 01e7 b478 ddbf adfe 8240 ddec d0bf
00000280: 7b92 fd3b e906 c9bf 29ca 1e46 a4e5 cebf
00000290: f665 bde2 3f66 163f fcef 8450 dc1f d2bf
000002a0: ccdd 1937 a9e8 d43f 301a d887 f317 82bf
000002b0: 51b1 35bc b9b8 c2bf 9792 edf3 53c3 cabf
000002c0: 2215 1101 3f17 dbbf 7d31 7dcf 638c d9bf
000002d0: 7020 5df9 dc98 b93f d564 9b44 3629 cabf
000002e0: dadc 0822 64b7 d8bf f42a c8cc e0c3 cebf
000002f0: 2060 abc7 d7fa d33f f5eb 24bc 3aef d0bf
00000300: 0c81 9941 7752 cebf ee7f 8998 5af2 cabf
00000310: 8783 0d5c f016 d8bf 12dc 62b9 f46b b9bf
00000320: eb99 f6b0 5cf6 d0bf 864c 6060 d1f7 d8bf
00000330: 04c7 6777 2947 dc3f 21f9 b0ec 896e d73f
00000340: e13c 7a39 2895 9d3f a2da f169 eaa4 d0bf
00000350: 595b 99c9 0f4f d2bf f829 0d00 c746 d4bf
00000360: 6160 6849 097c a5bf decf a1a4 5de9 ccbf
00000370: c9a3 a7ba 5366 d2bf e40f f6af 23a0 d5bf
00000380: 9ebe 1d70 5964 97bf 978a 1fbe 5f0f d6bf
00000390: 79a3 52e8 a3f5 d5bf cf4c 0e7e eb18 c5bf
000003a0: 1cdb 8350 b202 bcbf 2cdc 5f87 a18f d7bf
000003b0: 0173 5b46 20ee b3bf c147 f60b 23d3 d73f
000003c0: 2057 1e61 a115 d93f 8038 9b84 f35a dcbf
000003d0: fe41 e17c 04df ccbf df8b 14e9 79db d3bf
000003e0: 5038 836c 7fb6 c6bf 9f33 9549 5bdb a13f
000003f0: 242e a04c 5659 c9bf 6e2f 1ab7 30e1 d23f
00000400: 501b 5334 379b c7bf 3f95 8c36 1bb4 c9bf
00000410: 2c45 f7e1 f031 bcbf 207c df63 0dd1 bcbf
00000420: da92 6cdd 9c4a cdbf 6624 4921 4ba2 b1bf
00000430: d762 ae82 3aae d6bf 56f6 642b b5b9 b8bf
00000440: 41d9 1713 425c c9bf 84d9 1074 158c cc3f
00000450: 509a 374b 8a9d c0bf 6beb 65b0 940b d3bf
00000460: 96de 771e 4bc6 d8bf d5c8 0042 f5db cbbf
00000470: 888d 562e 0d89 d3bf 6246 9541 295b d6bf
00000480: 5d0a 14b2 bc43 d9bf 644c 91bb 0545 d73f
00000490: 7a45 5800 b897 d8bf 48b6 aa9d fc82 aabf
000004a0: e6e6 0e41 17e0 cebf eed7 b8b0 e4f3 c6bf
000004b0: d7f0 c49b 9c9b d5bf 2771 d957 e46e 85bf
000004c0: 201d 1335 425e c3bf c2bf 5ad6 b67c d0bf
000004d0: e94c cc69 cc10 c4bf 0b37 bdf5 91e8 c93f
000004e0: 0b54 ff45 3838 c8bf 17f6 2497 45f4 bdbf
000004f0: 85cf a82a b487 cabf d4c7 4f99 8310 d3bf
00000500: 00e8 2b54 fa5d d6bf 53b5 cbb9 6303 bdbf
00000510: 235c 823c 7b02 d7bf b790 5caa 61f5 dabf
00000520: 2e67 5224 ce78 de3f 0f4c fbce 9c5c bdbf
00000530: 7645 63bb ba01 b6bf d1e6 668a e120 b7bf
00000540: 41b1 c356 ceb6 b8bf 40bf 6aaf 8414 cfbf
00000550: dc3d 6e48 113f d03f 29a6 2c92 0739 a3bf
00000560: 285d fb8b 1ae9 a33f c1f5 f3d9 7e14 c3bf
00000570: 0afb 1f49 e45a d4bf b079 f82a 05fd d7bf
00000580: 991b 879a 2416 c8bf 806b 16aa 93bb d9bf
00000590: 1c63 50d7 201f d1bf 5e76 5adf b562 c9bf
000005a0: 309a f99e 569f c73f 913f eccd d1a1 cdbf
000005b0: 7a5f 309f cf91 c9bf e867 b4e0 ce36 bfbf
000005c0: 2979 5db9 a237 d2bf b6d8 efc3 ddda c7bf
000005d0: 438e 9adf c42f bdbf ed97 1168 2629 dfbf
000005e0: a7d2 ec99 1ac8 da3f 60aa b016 dc0a dabf
000005f0: 7a6c cf42 7793 94bf d542 52cb f2aa d0bf
00000600: a23e 8a7d c75f d9bf 51f7 7e55 6add ccbf
00000610: 2f30 66d2 ffc0 b8bf 5362 8e29 aadb d6bf
00000620: 1af5 5780 4c39 c5bf 9a24 7833 3ab3 d3bf
00000630: 621c 43b5 11d9 d03f aa73 e364 fc2e d3bf
00000640: 000f 9b1f 9470 c5bf 3cc6 6fab e14d d1bf
00000650: 26b7 83a6 8525 d7bf 1856 32ed c809 d4bf
00000660: 20aa 8e06 5c83 b13f b93f 5bce 98f3 dc3f
00000670: 4699 8e3e 7986 dc3f 254d 3905 d043 dd3f
00000680: 7dce 0ebe 63ef c7bf 2579 0f72 29cf d3bf
00000690: 813f 99f6 94b3 c4bf d1e1 0dba 238e c7bf
000006a0: f290 0c0c 4151 d1bf dfd6 d87a 3ec4 c33f
000006b0: 8787 5b1c 5145 c0bf 4f2d e825 6699 b83f
000006c0: 3c9d 99ee c3db cfbf af42 3212 03b2 c0bf
000006d0: 340b 1426 7c85 cebf 8981 a6be a1ca babf
000006e0: 8b3a 0b53 4593 c1bf a4b2 deab 03d5 b5bf
000006f0: 4e71 eae8 8399 b9bf 0dfa a380 c540 a03f
00000700: 57d5 6b0e ca6b d3bf 408d 7f12 5d32 c3bf
00000710: 5c56 be2d 43de c9bf c937 56d3 5bbb d9bf
00000720: f805 787f e507 c2bf ff34 f6a4 c939 cfbf
00000730: 6e25 70a5 b7bd db3f 152a a7de a556 d8bf
00000740: 07d7 8f4b ff6a d6bf 699e 5c79 c938 a13f
00000750: d644 aad4 8605 bdbf aaf0 ce45 6ee3 c9bf
00000760: 1a3d 0a24 88a1 d7bf 7e90 f690 2fd9 b53f
00000770: 839f 933b c453 b8bf 7389 390f 52d4 c1bf
00000780: 102e 4bd4 48f0 d5bf e780 a6ad b61a cb3f
00000790: e01b 9cc9 ea82 c3bf 57e5 6d81 8a98 d5bf
000007a0: 24a0 7e94 7c9e ccbf 26ba caea 5326 d7bf
000007b0: 9976 7a95 04a6 c1bf 5f96 d0e7 a7cc c9bf
000007c0: 8007 03ee 4686 d6bf 5e9b 6564 4172 df3f
000007d0: e043 98c1 b78c dfbf e2a0 f5d3 7cc1 c1bf
000007e0: 6b57 ee3a 977d d5bf ee59 bdb3 b2b9 d5bf
000007f0: 8c74 91af c24f bfbf 5df6 cdbc 1238 ccbf
-0.11892561839750618 -0.36431514914956925 -0.3377491715105756 -0.3702057705470025 0.05334635370649298 -0.23712458371475403 -0.08793841309528419 -0.08493568860264653
0.03668591825854605 -0.3054275445899899 -0.3058417026605404 -0.3270566988574007 -0.1830564614750139 -0.17336224164251252 -0.31017609846836564 0.38431683814949874
-0.4756493378693833 0.41138390179856815 0.08688158757229986 -0.24933372633361656 -0.35282864609037207 -0.17637830827091192 -0.04225066550701929 -0.28850052698216055
-0.36996390948949465 -0.3639709131177862 0.3004549459341134 -0.30610462794756654 -0.2774046301016229 -0.4017607280331075 -0.3632074480841148 -0.36777374006231117
-0.3564953604528741 -0.4056653000496205 0.384918199733138 0.3798439826577042 -0.09293912996280555 -0.37131150257808354 -0.2994440974014526 -0.054371161324898026
-0.06588410591807152 0.11387052757149031 -0.11015670936579099 -0.12276731229191704 -0.08515805515671285 -0.13294767689812995 -0.2641988720004787 -0.1742943161032551
-0.1844368266351908 -0.19583422184671737 -0.18052214603771358 0.1899724724383273 -0.3170456160580252 -0.2007480933586452 -0.26520262126237093 -0.10700255103223977
-0.3546083076115723 -0.27546760369965567 0.3882965432837927 -0.41818834252668347 -0.49914155815093714 0.021802609338627453 -0.3069253178006682 -0.1992871041138029
-0.2732502611248896 -0.0662997665966429 -0.19961660659714364 -0.09740179288500046 -0.19047051623864342 0.08564005851272609 -0.17344990566361826 -0.0885417529732187
-0.3240049331230678 -0.39657552830956566 -0.22715403042008755 -0.3879684159126457 0.3688304456320949 0.39377125457205786 -0.4604923492356568 -0.2644570474621826
-0.1955234091684764 -0.24138310836640756 8.544697692283013e-05 -0.2831946169205819 0.32670050030671116 -0.008834745963224838 -0.14626237573555526 -0.2090859356932426
-0.42329382995770193 -0.3991937185535546 0.0999887570188791 -0.2043826899523881 -0.38619330714887 -0.24035272597424007 0.3121852350136596 -0.2646014058443023
-0.23689165785891253 -0.21052105377293578 -0.3764000796273241 -0.0993035271265941 -0.26503674775668057 -0.3901256028340828 0.44184338246041954 0.36612175096878913
0.02888930178465621 -0.26006565424123995 -0.2860755413761829 -0.31681990628263135 -0.04196194668855991 -0.22587175882983862 -0.2874955485154343 -0.3378991335268877
-0.022843739955929913 -0.34468835417480065 -0.3431176918771182 -0.16482299475737824 -0.10941614595126875 -0.36814153881226974 -0.07785226552682546 0.37226177375952935
0.3919452141211526 -0.44305122327649116 -0.22555595491077435 -0.31027076493972844 -0.17744438932862971 0.034876682979848576 -0.19803885213365036 0.2949945247753395
-0.18442430548585742 -0.20080890811474636 -0.11013703839059436 -0.1125648850279366 -0.22883950053905872 -0.06888265192641682 -0.3543840671714355 -0.09658367452080915
-0.19812799389155525 0.22302501837993927 -0.12980774567332043 -0.2975818369520115 -0.38710287070669247 -0.2176500866203869 -0.3052399590034942 -0.34931403545951956
-0.3947593440099462 0.36358779256005946 -0.38426017793343414 -0.05178059982914057 -0.24121370960874983 -0.17931803349500747 -0.3376227875885553 -0.010465415888739017
-0.15131404487167632 -0.2576119511895706 -0.15676264921112384 0.20240997790318035 -0.18921569269028313 -0.11700854244278279 -0.20726635058383294 -0.2978829381164563
-0.34948595256685167 -0.11333297048596096 -0.35952645215133056 -0.4212268985450111 0.47612336680468814 -0.11469440511000094 -0.08596388888260784 -0.09034547451929177
-0.09653939836761528 -0.24281366887361777 0.25384933541587684 -0.037544476121478994 0.03888781508220013 -0.14906297342524336 -0.3180475916014279 -0.37481812664364167
-0.18817575021077174 -0.4020737801562788 -0.2675249197650815 -0.19832490354467586 0.1845501209492837 -0.23150084070993818 -0.1997622992791966 -0.1219300554843411
-0.2846457300382946 -0.18636676852447004 -0.11401014765811461 -0.48688659823380825 0.4184633734869671 -0.40691282478170443 -0.02009378762509726 -0.2604338632163892
-0.3964709020592442 -0.22550706076247676 -0.09669493567179253 -0.3571572690794131 -0.16581112162376926 -0.3078141691808668 0.26324885083562866 -0.29974279262915593
-0.16749812644240336 -0.27037851087434084 -0.3616651655309958 -0.3130972210286429 0.06841063652124335 0.45236797477718543 0.44570761784634205 0.4572639513982771
-0.18699309139411815 -0.3095191587325579 -0.1617304042906618 -0.1840252550571351 -0.27058435608547804 0.15442639349355766 -0.12711538204808567 0.09609068322622714
-0.24889420652764638 -0.1304324950074451 -0.2384486375741176 -0.10465441612769245 -0.1373068480956657 -0.08528159090082937 -0.0999987071649617 0.03174416728323957
-0.30345393570254003 -0.1499744739840967 -0.20209541066712944 -0.4020604671321704 -0.14086598133148676 -0.24395103983662378 0.43345442920743593 -0.3802885698648038
-0.3502805936726507 0.03363637548892202 -0.11336558048266751 -0.20225313576327625 -0.3692341186478686 0.08534524239672867 -0.09502817587383387 -0.1392920088138215
-0.34279080135158413 0.2117527339842191 -0.15243277401188404 -0.33743536605432695 -0.22358662844385535 -0.36171434334656494 -0.1378789644121994 -0.2015581018360306
-0.3519456219038304 0.4913485985220428 -0.4929637327741698 -0.13871727323135646 -0.3357904506204849 -0.3394591098089269 -0.12231079851467735 -0.22046121806117727

input_layer.weight_log_sigma f8 [128, 43]
00000000: ebe3 84c4 b238 e9bf 4d0e bd0e 11d6 eabf
00000010: 590e 7da4 fdae e7bf a7d3 28fb 23ab ecbf
00000020: dbdf fd73 0dd2 e9bf 87a5 ec3d d114 ebbf
00000030: 6312 24aa 2ca9 e8bf 2b7a ebd3 663b ecbf
00000040: b35f 0c67 f3d7 e9bf 2915 ffc0 91df eabf
00000050: 4b30 c433 dd8a eabf 8953 57c0 7910 eabf
00000060: 5b03 14c1 74f9 ecbf b7f0 9f62 1162 e8bf
00000070: 43d9 de45 d4e3 ecbf ef39 fafe 422e e6bf
00000080: ef39 fafe 422e e6bf ef39 fafe 422e e6bf
00000090: f160 f80a 472f eabf 37da c71a 6ab3 ebbf
000000a0: df1e 5c2e 57de e7bf 5134 2bb2 1292 ecbf
000000b0: ed91 ef46 5b34 e8bf 4f5b 6275 208a ebbf
000000c0: 4d61 9bba 67fc e6bf 3bd0 a765 e01f ecbf
000000d0: 2ddb 50b3 7cfc e9bf 2ddb 50b3 7cfc e9bf
000000e0: ed60 b883 4d3c ebbf 21cd a9ad 4d02 ebbf
000000f0: 9d82 7c52 6276 eabf 1171 0690 1606 e4bf
00000100: 9ffa 7f73 bb36 edbf ef39 fafe 422e e6bf
00000110: ef39 fafe 422e e6bf ef39 fafe 422e e6bf
00000120: c71a 55cf be91 eabf 4965 e266 2da4 ebbf
00000130: 7dab a574 25a1 e8bf 63f9 3393 e458 ecbf
00000140: 9318 e092 58f1 ebbf db96 7f04 3a32 ecbf
00000150: 6741 491f 2f43 edbf 2737 06e6 5d94 eabf
00000160: 37a0 d985 5bdd ebbf 3193 bb35 25f8 e6bf
00000170: 9bec 587c 7f22 ecbf e305 ac9e 0881 eabf
00000180: 05c0 abf5 bae4 ebbf 4f57 db41 61ef e7bf
00000190: 8fc6 6aca 8a80 ecbf ff3d 0811 e5aa ebbf
000001a0: 933f b719 e362 eabf 2dcc c0d8 b732 ecbf
000001b0: 8562 a713 45e7 e8bf 1355 e6f6 0769 ebbf
000001c0: f34b 2168 41c7 e4bf 3bcb 77c7 9edc ecbf
000001d0: ef39 fafe 422e e6bf ef39 fafe 422e e6bf
000001e0: ef39 fafe 422e e6bf 9f43 fee2 8ed6 eabf
000001f0: d936 c38f a619 eabf 097d 4616 a523 e8bf
00000200: 1fb0 929f c99d ebbf 8bf2 3168 5d42 ebbf
00000210: 276c c4dc 2a27 ebbf 61a1 7702 d649 e5bf
00000220: 3331 ed72 8681 ecbf 795d b7df 16cb ecbf
00000230: c5e0 c676 3342 ebbf 8527 1014 b468 edbf
00000240: 2da6 92bc af69 e9bf 313b adeb 8c8e ebbf
00000250: db06 d5fa 9743 e8bf 1780 8438 4b68 ecbf
00000260: ef39 fafe 422e e6bf ef39 fafe 422e e6bf
00000270: ef39 fafe 422e e6bf 7337 a978 9895 ebbf
00000280: 2b0b 3f48 8bd2 ebbf 1de1 299f 5a1c e9bf
00000290: 8bc6 2a43 918d edbf b52e 7567 6259 ecbf
000002a0: 0964 56ff 5cd3 ebbf 2ffc eef4 bffb ecbf
000002b0: 9591 8c1e 345a eabf 4dca 6e3d 7f79 ecbf
000002c0: fff5 320c 94b3 e9bf 418c 39df c42f ecbf
000002d0: 3da0 b9d0 d149 eabf 497d 2913 f34b ecbf
000002e0: a3de f11a 30e7 e7bf 0764 b63b e059 ecbf
000002f0: 0f77 4d58 57a4 ebbf 092a 686a 4efd ebbf
00000300: 3da9 70a2 d227 edbf 4d91 2913 f34b e8bf
00000310: a964 1c33 c5bb ebbf bdf9 367f 88ac e9bf
00000320: e3fb 4b62 85fa ebbf ef39 fafe 422e e6bf
00000330: ef39 fafe 422e e6bf ef39 fafe 422e e6bf
00000340: 0d4c 4fda 901e eabf 77b9 ac99 f155 ecbf
00000350: 3384 cb1e dda7 e8bf b780 4a6c b350 ecbf
00000360: e99f 962f a462 ebbf 6bef 5365 54b8 ebbf
00000370: f3fb 4b7f 6bc6 e7bf 752d e9ff 9188 ecbf
00000380: 2532 3684 9fd7 ebbf c3e5 5651 f80b ebbf
00000390: c14f 337b 15b8 ecbf b11a 67e4 682d e4bf
000003a0: 7d84 ceed 9a2f eabf 0dff 4937 fee3 e8bf
000003b0: 7dbe bc82 a905 eabf ef39 fafe 422e e6bf
000003c0: ef39 fafe 422e e6bf ef39 fafe 422e e6bf
000003d0: d501 c511 e093 eabf cbc7 b6aa 615e edbf
000003e0: 2f3c b692 92bd e7bf e1b7 5dcd 7624 eebf
000003f0: dd74 78df 6d7d ecbf d9cb 9d37 8a4b edbf
00000400: 5112 84c9 c963 edbf ef87 2fce 5427 e9bf
00000410: 9f4d 5e1f 125d e9bf 4b0a 9617 d5c1 e7bf
00000420: cdf3 5d93 aa8c eabf 9f6a d569 1948 e9bf
00000430: 3f91 c9b9 89f9 ebbf 13c0 0b4f 2437 e8bf
00000440: 2376 e491 b4ba eabf 6f7b b7c2 30ff eabf
00000450: 6fb5 a557 3fd5 eabf d170 3116 c209 ecbf
00000460: bf33 c5d7 13fc e8bf 1bef 704b 20c4 ebbf
00000470: 11e2 1274 f0eb e7bf 2b92 3280 2ce3 ecbf
00000480: ef39 fafe 422e e6bf ef39 fafe 422e e6bf
00000490: ef39 fafe 422e e6bf d5e9 7d65 1aec e9bf
000004a0: 6bf4 8303 96fb eabf 79b0 958b 6df1 e8bf
000004b0: 9d60 d569 1948 ebbf dbdf fd73 0dd2 e9bf
000004c0: 297f 7bae 2b05 ecbf b3c5 0121 ce62 e7bf
000004d0: 5ff0 3c3a ea87 eabf 7b4a 4095 0fe0 eabf
000004e0: 638f b7a5 4a33 ebbf 07c0 4bb9 375e ebbf
000004f0: 2d6c a427 a193 e9bf dd96 1fc8 b6ab ebbf
00000500: 195f 267e 015c e8bf 2d75 5bf9 a171 ecbf
00000510: ef39 fafe 422e e6bf ef39 fafe 422e e6bf
00000520: ef39 fafe 422e e6bf 7bd6 636b f233 ebbf
00000530: 6911 5b8a 206d ebbf 2f02 c8fd 83e7 e7bf
00000540: 4973 c9d6 6fc5 edbf 6763 f007 7871 ecbf
00000550: b3f9 16ad 184d ecbf dd52 d1f6 244f edbf
00000560: 3736 5d98 c1b7 eabf d9a0 3f7d 403f ebbf
00000570: f387 6f55 4e1a e8bf 2dd6 2015 3bb9 eabf
00000580: 55cf 1eea b3a2 e9bf 0d03 d16a bd7e ecbf
00000590: 4b05 6679 937e e8bf 317a cb1e dda7 eabf
000005a0: c97f 41e2 93ed ebbf 2359 6d47 adcf eabf
000005b0: 7d8d 85bf 9b0d edbf b189 1370 4496 e4bf
000005c0: 0b2f 38cc 0cba eabf 436b db24 7b23 e8bf
000005d0: e4fb 1bc4 43b7 ebbf ef39 fafe 422e e6bf
000005e0: ef39 fafe 422e e6bf ef39 fafe 422e e6bf
000005f0: ab4c 754a 7c8d eabf ddcb ddbe 833e ecbf
00000600: 2998 6bc5 7355 e8bf b138 951c ecec ebbf
00000610: 7141 69f1 9ea2 eabf ffb1 e43a 0257 ebbf
00000620: f513 33ef ade7 e7bf 35a5 6960 20a7 ebbf
00000630: 931d 1031 9a34 ebbf 5534 6b39 0c85 ebbf
00000640: c992 58f0 1752 edbf efa4 a618 5c12 e9bf
00000650: 47de 4e6b 0f1a ebbf 872d 89e0 f4cd e7bf
00000660: 9a60 6544 de11 ecbf ef39 fafe 422e e6bf
00000670: ef39 fafe 422e e6bf ef39 fafe 422e e6bf
00000680: 99f1 e856 44ec ebbf eb78 5f6c 966a ecbf
00000690: d93b f32d e85c e9bf b741 2c39 6337 edbf
000006a0: b7b5 0863 80e3 ecbf 5bc9 252c 6623 edbf
000006b0: 27ee 8776 8af4 ecbf f7b2 0d97 9119 e9bf
000006c0: 3170 6be2 5921 ecbf 9949 f7a0 dc55 e7bf
000006d0: 33e4 e7cf f346 ebbf dfa0 1fc8 b6ab e9bf
000006e0: fb64 9f10 7629 ebbf 1d77 adb1 c0f6 e7bf
000006f0: ff3d 0811 e5aa ebbf 1594 a4ed d4fb e9bf
00000700: cd58 aae2 026f ecbf 2337 c65e 64a1 ebbf
00000710: d5d1 36b9 5444 e9bf afe6 bf17 9bf5 ebbf
00000720: 95f2 513a cda1 e8bf 70d6 7337 c417 eebf
00000730: ef39 fafe 422e e6bf ef39 fafe 422e e6bf
00000740: ef39 fafe 422e e6bf e144 2a0e dc20 eabf
00000750: 9909 3003 0a94 ecbf 3389 fbbc 1eeb e7bf
00000760: 79d6 c3a7 75ba ebbf 9991 cca5 2d4d e9bf
00000770: 33c2 40e7 aa18 ecbf 85a6 f5e4 d643 e7bf
00000780: ad08 c73c 67aa ebbf b516 2ebb 9cb1 ebbf
00000790: d531 536a 6be3 ebbf b9b5 a826 fd5c ecbf
000007a0: 553e cb75 8f0b eabf 394e 4408 04d9 eabf
000007b0: b142 f558 6f73 eabf a056 e552 d1f7 ebbf
000007c0: ef39 fafe 422e e6bf ef39 fafe 422e e6bf
000007d0: ef39 fafe 422e e6bf 4196 991b 48b6 eabf
000007e0: ed60 b883 4d3c ebbf ebb3 f66b 27e9 e7bf
000007f0: 63bf 45fe d582 ecbf c797 e8ca dc1b edbf
-0.7881711805595136 -0.838631180559284 -0.7401111805597324 -0.8958911805590234 -0.8068911805594284 -0.8462911805592491 -0.7706511805595934 -0.8822511805590855
-0.8076111805594252 -0.8397911805592787 -0.8294511805593258 -0.8145111805593938 -0.9054511805589799 -0.7619711805596329 -0.9028111805589919 -0.6931471805599453
-0.6931471805599453 -0.6931471805599453 -0.8182711805593766 -0.865651180559161 -0.745891180559706 -0.8928311805590373 -0.7563911805596583 -0.860611180559184
-0.7183111805598316 -0.8788911805591008 -0.8120711805594049 -0.8120711805594049 -0.8511111805592272 -0.8440311805592594 -0.8269511805593371 -0.6257431805602512
-0.9129311805589458 -0.6931471805599453 -0.6931471805599453 -0.6931471805599453 -0.8302911805593219 -0.8637911805591695 -0.7696711805595978 -0.8858511805590691
-0.8732111805591266 -0.8811311805590906 -0.9144511805589389 -0.8306111805593205 -0.8707711805591377 -0.7177911805598339 -0.8792111805590993 -0.8282511805593312
-0.8716711805591336 -0.7479711805596966 -0.8906911805590471 -0.8646111805591657 -0.824571180559348 -0.8811911805590903 -0.7782311805595589 -0.8565711805592023
-0.6493231805601439 -0.9019311805589959 -0.6931471805599453 -0.6931471805599453 -0.6931471805599453 -0.8386911805592837 -0.8156311805593887 -0.7543511805596675
-0.863011180559173 -0.8518511805592238 -0.8485311805592389 -0.6652631805600714 -0.8908111805590465 -0.8997911805590056 -0.8518311805592239 -0.9190311805589181
-0.7941511805594864 -0.8611511805591815 -0.7582511805596498 -0.8877311805590605 -0.6931471805599453 -0.6931471805599453 -0.6931471805599453 -0.8620111805591776
-0.8694511805591437 -0.7847111805595294 -0.9235311805588976 -0.8859111805590688 -0.8695511805591433 -0.9057311805589786 -0.8235111805593528 -0.889831180559051
-0.8031711805594454 -0.8808311805590919 -0.8215111805593619 -0.8842711805590763 -0.7469711805597011 -0.8859711805590685 -0.8638111805591694 -0.87467118055912
-0.9111111805589541 -0.7592711805596452 -0.8666711805591564 -0.8023111805594493 -0.8743311805591215 -0.6931471805599453 -0.6931471805599453 -0.6931471805599453
-0.8162311805593859 -0.8854911805590707 -0.7704911805595941 -0.8848511805590736 -0.8557911805592059 -0.8662511805591583 -0.7429711805597193 -0.8916711805590426
-0.8700711805591409 -0.845211180559254 -0.8974711805590162 -0.6305431805602294 -0.8183111805593765 -0.7778311805595607 -0.8131911805593998 -0.6931471805599453
-0.6931471805599453 -0.6931471805599453 -0.8305511805593208 -0.9177711805589238 -0.7418911805597243 -0.9419511805588138 -0.8903111805590488 -0.9154711805589343
-0.9184311805589208 -0.7860511805595233 -0.7926111805594934 -0.7424111805597219 -0.8296711805593248 -0.7900511805595051 -0.8742111805591221 -0.7567311805596567
-0.8352911805592992 -0.8436511805592611 -0.8385311805592844 -0.876191180559113 -0.7807711805595473 -0.8676911805591517 -0.7475511805596985 -0.9027311805589923
-0.6931471805599453 -0.6931471805599453 -0.6931471805599453 -0.810071180559414 -0.8432111805592631 -0.7794711805595532 -0.8525511805592206 -0.8068911805594284
-0.8756311805591156 -0.7308111805597747 -0.8290911805593274 -0.8398511805592784 -0.8500111805592322 -0.8552511805592083 -0.7992711805594631 -0.8647111805591653
-0.7612311805596362 -0.8888711805590553 -0.6931471805599453 -0.6931471805599453 -0.6931471805599453 -0.8500911805592318 -0.8570711805592001 -0.747011180559701
-0.9303511805588666 -0.8888511805590554 -0.8844111805590756 -0.9159111805589323 -0.8349311805593008 -0.8514711805592255 -0.7532111805596727 -0.8351111805593
-0.8011111805594547 -0.8904711805590481 -0.765451180559617 -0.8329911805593097 -0.8727511805591287 -0.8378511805592875 -0.9079111805589687 -0.6433431805601711
-0.8352111805592995 -0.7543311805596676 -0.8661211805591589 -0.6931471805599453 -0.6931471805599453 -0.6931471805599453 -0.8297711805593243 -0.8826311805590837
-0.7604311805596399 -0.8726711805591291 -0.8323511805593126 -0.8543711805592124 -0.7470311805597009 -0.8641511805591678 -0.8501711805592315 -0.8599911805591868
-0.9162711805589306 -0.7834911805595349 -0.8469311805592462 -0.7438911805597151 -0.8771811805591085 -0.6931471805599453 -0.6931471805599453 -0.6931471805599453
-0.8725911805591294 -0.8880111805590593 -0.7925911805594935 -0.9130111805589455 -0.9027711805589921 -0.9105711805589566 -0.9048511805589826 -0.7843711805595309
-0.8790711805590999 -0.7292311805597819 -0.8524111805592213 -0.8022111805594497 -0.8488111805592377 -0.7488711805596925 -0.8646111805591657 -0.8119911805594052
-0.8885511805590568 -0.863451180559171 -0.7895911805595072 -0.8737311805591242 -0.7697511805595975 -0.9404011805588208 -0.6931471805599453 -0.6931471805599453
-0.6931471805599453 -0.8165111805593847 -0.8930711805590362 -0.747451180559699 -0.8665111805591571 -0.7906711805595023 -0.8780111805591048 -0.7270311805597919
-0.864551180559166 -0.865431180559162 -0.8715111805591343 -0.8863511805590668 -0.8139111805593965 -0.8389911805592823 -0.8265911805593388 -0.874001180559123
-0.6931471805599453 -0.6931471805599453 -0.6931471805599453 -0.8347511805593016 -0.8511111805592272 -0.7472111805597 -0.8909711805590458 -0.9096511805589608

input_layer.bias_mu f8 [128]
00000000: 45f8 0659 8e3b d1bf 8fdd 4808 dcd6 d3bf
00000010: 5c7a eabe a65b d2bf 4205 4561 de07 d6bf
00000020: e3a4 e5ac 7312 cdbf cbde 782b b45a d3bf
00000030: 793e f49c b010 c3bf ff50 9544 e1e2 d8bf
00000040: 6533 23f6 4728 d9bf ddc6 76e4 ebf3 d2bf
00000050: f991 8a22 dea2 cfbf 2c94 2c88 4f7b b9bf
00000060: c68d a78b de8f c9bf 1c7e 67e3 13c4 d1bf
00000070: 9b65 31dd b784 d2bf 4639 e42a 1afe c8bf
00000080: da89 f88a eb47 c7bf 7c1e 3fa7 0d18 d2bf
00000090: 796b e18c 5a2b c3bf 000f 539d bb5a c1bf
000000a0: ec12 a050 0688 c9bf 9b2a 318d 24e5 d0bf
000000b0: 8c0f dffd f7f6 cabf 60f0 8145 6755 c1bf
000000c0: 2df5 ae3d 2b85 bcbf 23b0 dba7 3c36 d2bf
000000d0: 8f18 0ff3 2f97 d8bf dfae 4db1 eba7 d3bf
000000e0: 0236 7e0e 3556 d2bf 6e81 0702 558c d6bf
000000f0: 31ea ec87 7a8f cdbf 5526 e60f 679f c9bf
00000100: 0dc8 3288 988e d6bf 78fe 7528 71c1 d3bf
00000110: 985d 1c9e 9388 c6bf 4d21 c395 b07f c0bf
00000120: 6e7f 3463 0788 cdbf e13a 2ad4 b7cf d4bf
00000130: 15c0 0fe0 0fed c5bf 36c1 cf17 b91c d6bf
00000140: 848e fa02 7ee7 d4bf 99ab 99f2 6ebe d4bf
00000150: 1719 a151 4437 d6bf 7096 decd e741 b5bf
00000160: e262 fe83 e23e d5bf b9d3 e6a4 a924 c4bf
00000170: 5ab7 9446 c53b ccbf cb60 82be f00a c7bf
00000180: 28e0 22b8 b00a d5bf 9ba8 f35f cc23 d8bf
00000190: a053 8812 edbd d9bf 3d44 5b1a e86e c3bf
000001a0: 5fca 388f 73e2 d1bf 80a9 62b3 90e2 d7bf
000001b0: 22e6 dc55 4ca9 d1bf be68 a07a 6d62 c1bf
000001c0: 5dcb 8a02 9748 d5bf 19b0 6098 4340 d4bf
000001d0: ffd2 1fb7 6886 c4bf 70fa b572 851c cebf
000001e0: 4454 d7a7 acc5 d8bf 058a 0691 9892 d0bf
000001f0: ba85 2725 9d8e c8bf 4f89 3bcc 152f cfbf
00000200: a2da 1187 b8ff bebf cba7 735d ccd7 cabf
00000210: 5080 ad18 357e d7bf c729 9f5a 0b37 c7bf
00000220: cad4 e54a 94d9 d6bf 237e b27f e55a cebf
00000230: dcc7 c6bf c449 cabf 99c1 3ae0 0050 c7bf
00000240: cdf1 5f32 517d cabf 26b3 5577 c3a4 d6bf
00000250: 5cbb a5b3 d3e0 d2bf 2cb8 4434 c607 d3bf
00000260: bbf5 0a93 7ee2 bebf c02f 27bf f307 b9bf
00000270: 2ed2 91ba ea7f d2bf 7659 2448 0e5c cbbf
00000280: 8609 351a a0ba c7bf b2fd 660e f316 c2bf
00000290: 85b5 c943 d14b d3bf f85c 147e 1201 d0bf
000002a0: 2892 f57c 6ae1 c3bf 74ae cc66 5f05 c3bf
000002b0: f070 c7f2 e5df d4bf b455 ad14 6d52 c4bf
000002c0: 8f40 fa2a e2cc d2bf 6aa9 b90f 51c3 c2bf
000002d0: d631 8d2d cb5c d1bf 96b5 0a49 90fa c6bf
000002e0: 48bf c3e3 bd4c cdbf b3ee f937 a0df c1bf
000002f0: 8cd4 55f3 4b06 d5bf aedf 05f9 114b b2bf
00000300: 09ad 6b09 9a72 d4bf 09fc 732c bead d0bf
00000310: 3735 688d 4f86 cebf 2e71 0829 42a7 cfbf
00000320: e348 9d1e c536 cebf 9110 3cf1 b0d6 d9bf
00000330: 7ff4 af58 291e d5bf 20e0 c0fd 426a d1bf
00000340: e499 5d81 4d21 cdbf 2796 f568 e644 cabf
00000350: c3bf 987f e097 c8bf abcc ae3c 270e c7bf
00000360: a6b5 dd7b c4ac c4bf 280c 59d3 0571 d6bf
00000370: fdd8 5177 c6c5 bdbf bdd8 a9a1 836b b7bf
00000380: 9f48 0798 6d12 d2bf 9f96 b3f5 5e3d dbbf
00000390: 9d5d af13 75b6 cebf 3973 898e 8532 d7bf
000003a0: 7635 0b6e fbe1 cebf 1fb3 fc03 6ec6 c0bf
000003b0: 1267 ae93 9c30 d1bf 92c4 b72e 2fef cdbf
000003c0: fb3c 5e5c 1f00 c7bf a59e 30c2 ba6b bebf
000003d0: a44c 5064 2492 d6bf beb0 c2f4 9c35 d4bf
000003e0: d638 ba8d 1881 d6bf 7b92 fbe2 a709 d9bf
000003f0: e556 c59d bd4f ccbf 2dd4 015a 69d0 c3bf
-0.26926001257004756 -0.30998898324056595 -0.2868439545071959 -0.34423026560769554 -0.22712560598600992 -0.3024111198933325 -0.14894683517239907 -0.3888476533659428
-0.3930835632025292 -0.2961377841084934 -0.24715782820307178 -0.09953782152713647 -0.1997030431658528 -0.2775926323647313 -0.28935047722696944 -0.19525458425818892
-0.18188232694326595 -0.28271809895202415 -0.14976055029805105 -0.1355814474283008 -0.19946364342481304 -0.2639857653454471 -0.21066188713131984 -0.13541880506443515
-0.11140699630683022 -0.28456035988233647 -0.3842277406332721 -0.307124064586544 -0.28651167311986125 -0.35231518934417394 -0.2309411205004195 -0.20017708088225797
-0.3524533586561354 -0.3086817641378512 -0.1760429880166441 -0.1288967829953073 -0.2307137712859872 -0.32517810553774323 -0.17129705849174628 -0.3455031139883603
-0.3266291646088819 -0.32412313167031354 -0.3471232220803286 -0.08303688789472985 -0.33196318521508605 -0.15736885597075714 -0.22057405420621984 -0.18002137472354315
-0.32877748472265234 -0.3771849572209562 -0.4022171669942569 -0.15182210242213215 -0.27944649683482753 -0.37320344465356214 -0.2759581411843063 -0.13581627357127063
-0.3325555348230205 -0.3164223659575796 -0.16035183850876675 -0.23524540043941355 -0.38706509009108836 -0.258947507502086 -0.19185222925356787 -0.2436244246701542
-0.12108948991395121 -0.2097106415088191 -0.36707808885512794 -0.18136732029809208 -0.3570299846099486 -0.23714894042221699 -0.20537623752676282 -0.18212901066500534
-0.20694937667566507 -0.35380636838708523 -0.2949723486298603 -0.2973495016511858 -0.12064353074943927 -0.0977775899584108 -0.2890574285477524 -0.21374681971128567
-0.1853828552212457 -0.1413253612827084 -0.301502529334208 -0.25006544411139897 -0.15531664945150792 -0.14860146064289703 -0.32616566380399004 -0.1587654448473309
-0.2937550944998372 -0.14658559100946472 -0.2712886757697367 -0.17952159468169943 -0.22890447255439939 -0.13963701947419835 -0.3285093189545669 -0.0714579804388211
-0.3194947330473075 -0.2606044229614218 -0.23847383885041903 -0.24729182246745424 -0.23604644770472935 -0.4037287097746765 -0.3299659124457505 -0.272110698515009
-0.22757881943398595 -0.20522766232458986 -0.1921349165945668 -0.18011942351367813 -0.16152244613787764 -0.3506483615821616 -0.11629906094626459 -0.09148428627836132
-0.28237476202515127 -0.425620784705055 -0.2399431558721802 -0.3624586002313666 -0.2412714278529326 -0.1310555953472425 -0.26859201833723134 -0.23386182576317488
-0.1796912385002328 -0.11883132210697996 -0.35266980930573255 -0.3157722845305776 -0.3516293891961032 -0.3912143437030761 -0.22118349269538054 -0.15479771513824528

input_layer.bias_log_sigma f8 [128]
00000000: fffe e9dd 9491 ecbf c95d 9af9 4abf ecbf
00000010: fd55 aff9 2dd9 ecbf 2b7a ebd3 663b ecbf
00000020: ab55 2c1c 7d6b edbf 2f3b 0d28 1015 ecbf
00000030: 8031 6067 7f3f edbf d136 4381 b333 ecbf
00000040: d1da ad03 5c2f edbf f312 eac0 aec5 ecbf
00000050: b971 5a55 6b00 eebf 4548 2b95 2cc6 ecbf
00000060: b5b5 689f 036a edbf 7584 4edf a749 ecbf
00000070: 7184 0e58 ae56 edbf 1f32 5639 296b edbf
00000080: f1fa 0251 6ca4 ecbf d527 f32d e85c edbf
00000090: 2a62 d4c5 e2d6 ebbf db7e 3858 748a ebbf
000000a0: 8c6a 6527 f845 eebf 17d2 b979 1fe6 ecbf
000000b0: 414d 1bac 7416 edbf 03fa f9c6 4c41 ecbf
000000c0: ed3e 119b 040e ecbf cd92 9877 1145 ecbf
000000d0: 9582 fc43 6f90 ecbf 3d3f f4b4 3802 ecbf
000000e0: bdf8 8d14 0604 eebf 35ed 3e65 719e edbf
000000f0: 8b8c 3cae 82b7 edbf c7d6 06fe 2c35 ecbf
00000100: 33c2 40e7 aa18 ecbf 279c 5235 b676 ecbf
00000110: e5b2 6db6 2ed4 edbf efbb 445a 9f11 eebf
00000120: efc5 a496 2298 ecbf 09b1 5ba2 ef0d edbf
00000130: 2762 64a0 a7a0 ecbf 49ec d59e ceb4 ecbf
00000140: e0de 64f2 42d9 ecbf b993 013e b42e edbf
00000150: df87 2fb1 6e5b edbf cf36 a3bd 36ba ecbf
00000160: eb56 b883 4d3c edbf a1a3 ba57 22ef ecbf
00000170: ace6 4ff2 5fbf ecbf ad94 ea12 4afe ebbf
00000180: 092a 686a 4efd ebbf c1db 5651 f80b edbf
00000190: 957d cca5 2d4d edbf 4fa8 6718 b3c4 ecbf
000001a0: afe6 bf17 9bf5 ebbf b9c8 bf34 81c1 edbf
000001b0: 8ff1 c884 d48c eebf c384 9135 5fc4 ecbf
000001c0: b568 63fc 702f ecbf 17ea 0026 e58d edbf
000001d0: 118f 34c8 99c5 ebbf 63ef d356 61d2 edbf
000001e0: 7154 80ff 2207 ecbf 13d7 a990 6736 edbf
000001f0: 1971 9421 0318 eebf bd37 ac47 561d edbf
00000200: 3927 6d81 7967 ecbf 177b 549a 0925 edbf
00000210: 2fe4 a748 fa53 ecbf b580 aaa8 36d7 ecbf
00000220: a97c 63df 8a63 ecbf 1b37 4650 71bb edbf
00000230: 9da3 7ad0 28fc edbf ddde f4cc 07a3 edbf
00000240: 3366 ab69 5314 edbf 9f86 a349 9e8a edbf
00000250: 8f9f 9343 000f eebf df3a 2a0e dc20 ecbf
00000260: c7f3 7d48 3420 ecbf 9bff 6f8a 0387 edbf
00000270: 91f1 6848 5106 eebf bf1f 055f 0def ebbf
00000280: 118a 042a 5882 ecbf 634b 69d4 b8d6 ecbf
00000290: 950e 201a 52e4 ecbf de35 2a0e dc20 edbf
000002a0: ad77 73c8 4213 ecbf a9ac f137 16b3 edbf
000002b0: 116d 8ddf 5097 ecbf 097c 9dab 227b ecbf
000002c0: 552f 3b9b ca41 ecbf 3170 6be2 5921 ecbf
000002d0: b311 5e59 def4 ecbf 7584 4edf a749 ecbf
000002e0: d30a dc1f 64f8 edbf 1bc8 99c4 9552 edbf
000002f0: ed51 28a9 8872 edbf d18d a860 c9f4 ebbf
00000300: 5925 1be6 40ae ecbf e17d 6f38 684e eebf
00000310: 075f 869d 9e16 edbf 7b23 690e 856e ecbf
00000320: d466 41ff 79b9 ecbf c923 ac64 3ce9 ecbf
00000330: d766 b124 b5ef ebbf 0151 bfe2 e588 ecbf
00000340: 9d1c 8798 87eb ecbf 3114 d664 021d edbf
00000350: b5bf c8db 86f0 ebbf f16e df7a 8950 ecbf
00000360: 710b 0290 4f67 eebf ad5f 2c1c 7d6b ebbf
00000370: 279c 5235 b676 ecbf efc5 a496 2298 ecbf
00000380: 8d00 b99b 1cdd ecbf 35ed 3e65 719e edbf
00000390: 61f4 6331 269c edbf b559 d321 ac65 eebf
000003a0: d114 9c98 6a05 edbf f972 e6bc 3bd1 edbf
000003b0: 41fb e56a a098 ecbf dbcb 3dfb 06c5 ecbf
000003c0: 7ffc d10e f4ef ecbf 43d9 de45 d4e3 ecbf
000003d0: e965 a89a 958c ebbf eb5b e821 8f7f ecbf
000003e0: 2384 cb01 f7db ecbf 75b4 dc37 3399 edbf
000003f0: 535f 2930 d917 eebf 812c 002b fcb8 edbf
-0.8927711805590376 -0.8983511805590122 -0.9015111805589978 -0.8822511805590855 -0.9193711805589165 -0.8775711805591068 -0.914001180558941 -0.8813111805590897
-0.9120311805589499 -0.8991311805590086 -0.9375511805588338 -0.8991911805590084 -0.9191911805589174 -0.8839911805590775 -0.9168311805589281 -0.9193311805589167
-0.8950711805590271 -0.9175911805589246 -0.8699811805591413 -0.8606511805591838 -0.9460411805587952 -0.9030911805589906 -0.9089911805589638 -0.8829711805590822
-0.8767111805591107 -0.8834311805590801 -0.8926311805590382 -0.8752711805591172 -0.9379911805588318 -0.9255911805588882 -0.9286511805588743 -0.8814911805590889
-0.8780111805591048 -0.8894911805590525 -0.9321511805588584 -0.9396511805588242 -0.893571180559034 -0.9079511805589685 -0.8946111805590292 -0.897071180559018
-0.9015211805589978 -0.9119511805589503 -0.9174111805589255 -0.897731180559015 -0.9136111805589427 -0.9041911805589856 -0.8983611805590122 -0.8747911805591194
-0.87467118055912 -0.9077111805589696 -0.9156711805589334 -0.8990111805590092 -0.8737311805591242 -0.9298711805588687 -0.9546911805587558 -0.8989711805590094
-0.8807911805590921 -0.9235711805588974 -0.8678711805591509 -0.9319311805588594 -0.8758711805591145 -0.912891180558946 -0.9404311805588207 -0.90983118055896
-0.887631180559061 -0.9107711805589557 -0.8852511805590718 -0.9012711805589989 -0.8871511805590632 -0.9291311805588721 -0.9370311805588362 -0.9261511805588857
-0.908731180558965 -0.9231711805588992 -0.9393311805588257 -0.8790111805591002 -0.8789311805591006 -0.9227311805589012 -0.9382711805588305 -0.8729311805591279
-0.8909111805590461 -0.9012111805589992 -0.9028711805589916 -0.910261180558958 -0.8773511805591078 -0.9281111805588768 -0.8934711805590344 -0.8900311805590501
-0.8830311805590819 -0.8790711805590999 -0.9048911805589824 -0.8839911805590775 -0.9365711805588383 -0.9163311805589304 -0.9202311805589126 -0.8736311805591247
-0.8962711805590217 -0.9470711805587905 -0.9090111805589637 -0.8884911805590571 -0.8976411805590154 -0.9034711805589889 -0.8730111805591275 -0.8917111805590424
-0.9037511805589876 -0.9097911805589601 -0.8731111805591271 -0.8848311805590737 -0.9501111805587766 -0.856871180559201 -0.8894911805590525 -0.893571180559034
-0.9019911805589956 -0.9255911805588882 -0.9253111805588895 -0.9499111805587775 -0.9069111805589732 -0.93179118055886 -0.8936311805590337 -0.899051180559009
-0.9042911805589852 -0.9028111805589919 -0.8609111805591826 -0.8905711805590476 -0.9018511805589963 -0.9249511805588911 -0.9404111805588208 -0.9288311805588735

hidden1_layer.weight_mu f8 [128, 128]
00000000: bb93 3b7c c0cf c0bf b4a6 5d97 2e3c b4bf
00000010: 9378 9ef0 1db5 b4bf fbc3 43d5 d2ed 67bf
00000020: 5b9f 0e10 3a4f 9cbf 8248 2751 239d bbbf
00000030: dbe0 67e9 8670 a9bf d577 0b81 ed2d babf
00000040: 70be 67e4 1b40 bebf 870b 03d5 8e15 b8bf
00000050: 06e6 537a d970 c2bf 540d 58fe 7365 c3bf
00000060: c0ba cad0 0f72 c5bf 9498 6f63 7480 a6bf
00000070: 5e47 ac2e 1cc6 b2bf 01ad 078a 18e3 ae3f
00000080: 21bd 6410 4089 babf ac16 3bcf c9a9 bdbf
00000090: 8382 f990 7e76 bd3f 6cc5 08e8 2a45 653f
000000a0: 77b0 356f 5f47 a2bf 2426 36bf 63d1 a4bf
000000b0: 5645 c68c 4824 b6bf 29ad 9e31 cd04 993f
000000c0: a2ac da73 20ef 80bf ef6f 2b34 b333 b5bf
000000d0: 874d e4f6 f7c0 adbf 49d5 8af1 47e3 af3f
000000e0: 29cb 265a a552 c2bf 344f ed94 5710 b6bf
000000f0: c9f8 0fbe 4ff2 833f f6c2 f188 6353 b9bf
00000100: 153d 11a2 ea2f c0bf be6b cab4 e461 aabf
00000110: c840 4410 15b2 c2bf 78b4 9b5f 44a3 933f
00000120: 5916 99d8 42e3 c4bf 0600 d426 bd6b ac3f
00000130: 8b2f 8953 7ccd acbf 9e85 ae81 6266 c8bf
00000140: 66f9 af40 108b 923f 54cb 7dfb 433c b5bf
00000150: bc8f 6e51 87c1 7e3f b0a4 5bb8 9846 9fbf
00000160: 6bd4 1c4e d067 b2bf af01 9cb9 6311 a63f
00000170: 5856 b6cd 8d9f 913f 3135 a3e6 e1a1 c3bf
00000180: 4089 fd6e 9aa4 c1bf 67ec e346 709a b3bf
00000190: a304 8c7e 872c 91bf 52bb a55d 18f1 b2bf
000001a0: ac97 dd18 c374 b8bf defc 3a98 6fce b4bf
000001b0: 3261 d223 ed5b b8bf 9415 cb2e 06f7 bdbf
000001c0: 681e 2b82 7636 c0bf 11b0 b9cf 7071 a23f
000001d0: f6df cd1a efcd 98bf 2543 da8a 8a14 c7bf
000001e0: 8ce2 7457 e1b0 adbf d739 c3fc e7a6 ac3f
000001f0: fa3b 8bd1 9222 a93f 8ab2 795f f3fd a33f
00000200: 1763 7614 d074 a6bf 531a 2346 8251 adbf
00000210: e4bd 88db cfed a5bf dcc3 32ad 95be b4bf
00000220: 6423 68d6 85c3 a23f 1841 b066 1ab6 c1bf
00000230: d7fb d3d1 8997 bbbf a02a 526f 3cc0 91bf
00000240: 7a85 39aa 8d33 89bf 4ed6 f4a5 27de b6bf
00000250: 66d5 e962 4b5b a5bf efe0 ddfb 1496 b2bf
00000260: 9f86 52da 049f a9bf a58c 3e9f 3d31 b2bf
00000270: 065f 8675 86cf 85bf 74ab a962 3324 bdbf
00000280: 13c5 d18c 65a6 a3bf ac46 aeac 54be a13f
00000290: 4ecb 12ba f218 c0bf fea0 3ddd f776 a53f
000002a0: adb5 a4c5 43f8 a9bf 7970 3bff 699f c8bf
000002b0: 502d 8d0c 39ed abbf 9826 21fa 9c2f b1bf
000002c0: 3b7c bd4c f441 b5bf 68cb d19a 2e76 bebf
000002d0: 86dd 8d5a bcab b8bf ed97 6724 f117 b9bf
000002e0: 0dee d837 e2a0 923f 7ea1 3729 0434 9dbf
000002f0: 7c50 a2aa 3b1d a63f d92d bcc6 6278 803f
00000300: 1e42 2473 88bd 883f 5539 144e 0d29 a4bf
00000310: e8c0 5e85 5ffd b4bf d899 7650 4d26 c5bf
00000320: 4492 609c b3db c4bf a27e 3449 4aa5 babf
00000330: f954 da34 43d3 a0bf 82d2 2fb5 478a c1bf
00000340: 3712 331c beca 98bf f724 4de4 4a8c a33f
00000350: 9473 3086 293d 983f b4f1 7987 4878 c2bf
00000360: 74b2 a17b e059 853f 1e42 d99f 64ff bbbf
00000370: 5065 20b4 3228 7cbf 44b3 bef9 c358 8a3f
00000380: e04b 5b46 e0df c0bf 9be2 6a20 066c a3bf
00000390: 0255 dcee ac45 ab3f a26c 2a10 717f 95bf
000003a0: b95a 7efa 4876 adbf abcf d0b3 94ab bcbf
000003b0: 67e6 8a7c 2b16 af3f f7dd 093b 46df b1bf
000003c0: 39ef 2add 4cc2 c1bf 6300 2dee 8f32 a33f
000003d0: a371 bbe9 6e52 c5bf ac45 a242 6f9e c1bf
000003e0: 91e6 4fa0 fc8a aabf f1af ca0b 77b8 b23f
000003f0: fbde d634 5e4d b8bf 3c6e ccba 4d1a a0bf
00000400: 4b65 3844 f42f a73f e1b3 ef81 2ea9 afbf
00000410: bf5d dc9f db5e aebf 7aa6 e70d 032a b63f
00000420: c961 d996 8c2c 99bf 2f9b 57ec b0da a8bf
00000430: c351 d121 6fb5 b53f 92db e14a 8a91 b63f
00000440: 5312 4f77 69bc b13f f17d b793 b574 a9bf
00000450: 1111 a315 5763 b53f 32c0 6bd5 99f8 a63f
00000460: 79eb 37e8 ddc3 a53f 4ed6 7353 1182 bebf
00000470: 225f 3c8f 84df b0bf ba3d 84ec 4d01 af3f
00000480: cad7 df80 d819 9b3f 2b3e f1f0 82d2 b7bf
00000490: 70dc c719 9c2d a2bf 6cb9 bd21 9ce8 a0bf
000004a0: b6a9 ae8e 4226 b83f 71fe 178d 8c2c a03f
000004b0: 6940 6d8e e924 9d3f c904 2b57 df84 c1bf
000004c0: 3dfb c1fc 1953 923f 476b f672 9ab9 a33f
000004d0: 9166 95ae bea2 b2bf 516e fb49 7b03 a03f
000004e0: afc9 4386 71fa a73f 862d ff2b 7e07 bcbf
000004f0: 5d5f f3ca 4942 a0bf ed8f 85dd 9a09 93bf
00000500: cf56 20ea 4bac aabf e26f d77b f9ed af3f
00000510: ee56 d2e2 c782 b43f f56c 529c dd3f a8bf
00000520: de0a 2268 6366 b7bf effe 0d59 d299 b43f
00000530: 6394 840c 757b b03f 41df a452 e2bf 92bf
00000540: 9711 24f9 772d a9bf c8af 0683 9e3a b9bf
00000550: d48b 5e91 028d 8ebf 7b23 494a 9a8b b8bf
00000560: c2f8 2a6f 5478 b33f aab0 3f39 a6aa bebf
00000570: 3ed1 bbf9 7bf3 af3f e7f2 de86 fe00 b03f
00000580: 1aaa 0dd6 97c1 b1bf bf27 da64 b225 b4bf
00000590: 02cb 24ad 87c2 b9bf 2e4d afc5 db42 b13f
000005a0: 3e87 9e68 a90f b5bf 0c55 39a3 f018 8cbf
000005b0: 08a3 1793 9b8e 9c3f c329 0a67 368e b13f
000005c0: a463 c765 7885 a8bf a6aa 6569 139f 9abf
000005d0: def0 4254 d6aa b4bf 1f88 d992 0381 b5bf
000005e0: 79fd a848 377e 973f acc6 f2f6 d4eb bcbf
000005f0: 5813 5221 056c b7bf dd5d 9823 3f8c a03f
00000600: 08e3 1892 fd52 aebf 2c23 a3ce 5e94 733f
00000610: 34f7 4be5 31a3 6b3f 4ec5 2aff f0a8 b03f
00000620: 5d28 55a8 070b abbf fcb0 f075 e853 b7bf
00000630: a756 8556 48c3 acbf cfb2 6204 0843 ab3f
00000640: 9b13 a478 5a00 b0bf b3e3 ed8f 7d75 ac3f
00000650: 377a b459 fab0 babf e8eb bb05 7b23 70bf
00000660: 81b7 9111 2dba a93f 8deb a679 0c7d a23f
00000670: 8dfc 9f0b c007 a2bf dad7 acae b696 b4bf
00000680: 9e03 4a8a 179c b73f f73e 7ee7 dc7f aabf
00000690: 803b e9c9 0e3e 993f fd9e 25a5 a48b b7bf
000006a0: 13b3 ed9a 7b98 b73f c1e6 ea17 f0f3 92bf
000006b0: bfae 6b96 f222 b4bf 203e e641 b63b a5bf
000006c0: f0ec 5185 5012 8bbf c7dc 306f c536 b1bf
000006d0: d914 3e29 b637 b23f a215 5415 fcf8 623f
000006e0: aae5 ce39 f8af b4bf f727 4f53 fd37 b7bf
000006f0: e294 a79d c125 b9bf dff3 4cfb 29cf 97bf
00000700: 18ab 8e24 33fa a33f 7b09 c0bc 4bd4 93bf
00000710: d213 9ce1 2988 95bf 3ba6 336e b8af 92bf
00000720: 9915 f892 8719 9bbf 6405 9c21 54dd b23f
00000730: 31f1 7939 b83f b1bf 755e 442e fba6 aa3f
00000740: bac6 9804 ca2a 82bf 1503 9c94 bebd aa3f
00000750: e9fd 7f2f e53f 90bf 237e 9f1e 5b58 afbf
00000760: 81df 6307 c405 aebf 51d5 ae7a 2189 b5bf
00000770: ef87 8b29 e8d5 ad3f 7556 e2f7 60b1 963f
00000780: e460 330e 607b babf 822b e2a8 f67e b03f
00000790: 9435 be9c 868e a7bf 2060 1b37 a413 b43f
000007a0: f249 f5ad e987 a23f fc44 7b45 3b8c 8abf
000007b0: 140b 1865 4618 783f fc8a f11a 8708 a9bf
000007c0: e6f7 8067 2750 b1bf f930 2e8e e227 a13f
000007d0: c829 5062 e7af b33f dbea 16e8 a9e2 b3bf
000007e0: c85a fb7f fd7a 923f 7ccd 766e 885e c0bf
000007f0: b106 9e4b c192 b23f 5618 32ec 833e acbf
-0.13134008470583844 -0.07904330440001212 -0.08088862537849399 -0.0029210203011804637 -0.02764597628598096 -0.10786648494038967 -0.04968663787070834 -0.10226330185420747
-0.11816572500515021 -0.09407894802556714 -0.1440688941291201 -0.15153360289705609 -0.16754338927190382 -0.04394878114526182 -0.07333542003132495 0.060326353883136015
-0.10365677261573981 -0.11587201413484632 0.11508933104915724 0.0025964582457837417 -0.03570078117886138 -0.04066001614689821 -0.08649114071729022 0.02443237891536146
-0.008268598113622187 -0.0828201296203017 -0.05811285866561904 0.06228089164270984 -0.14314715291910687 -0.08618686090386235 0.009739516246551354 -0.09892866223686866
-0.12646229661411526 -0.05152811724584393 -0.14605963987606274 0.01917750199838905 -0.16318545890878758 0.055509482373963734 -0.056255231091738876 -0.1906245358668856
0.01810861010380318 -0.08295082940985071 0.007508781992246524 -0.0305427420161421 -0.0718965712265615 0.04310142174472575 0.017210212402991892 -0.15337775956724323
-0.13783579272701196 -0.07657529574128007 -0.016771428202450377 -0.07399132047951909 -0.09553164822645382 -0.08127496210635196 -0.09515268444591099 -0.11705053942121985
-0.12666207652931694 0.03602173362455131 -0.02422307587718816 -0.18031436710273244 -0.05799011414132335 0.055960893254098636 0.04909189994724979 0.03904686489554361
-0.043859961030824283 -0.0572624884239771 -0.042829986141778936 -0.08103309133981845 0.036647970602706775 -0.13836984647833428 -0.10778104183917435 -0.017334884924404492
-0.012305361516328207 -0.08932731439275551 -0.04171214659155957 -0.07260256909455952 -0.05004134335582688 -0.07106385362435448 -0.010649729215216574 -0.11383362921485035
-0.03837888092028598 0.034655233458705 -0.1257613571702571 0.04192328048412895 -0.05072223460806966 -0.19236493074902564 -0.05454424169746608 -0.06713276964833381
-0.08303763268985247 -0.11899081496976083 -0.09637047968668896 -0.09802157534394924 0.018191847475675305 -0.02851873876162036 0.043191780642843874 0.008042117776787915
0.012080255521625335 -0.03937570169556418 -0.08199116712671961 -0.16523138455268227 -0.16295476089102767 -0.10408462798340648 -0.032861805154576325 -0.13703247401248936
-0.024210901709709822 0.038179722184006275 0.023670815291655226 -0.14429575552993656 0.010425332806528 -0.10936573889308263 -0.0068742733583573995 0.012864619311437793
-0.13183215556509165 -0.037933532197205376 0.05326595702914895 -0.020993963824918034 -0.05754306848318919 -0.11199311628371215 0.06071601767821449 -0.06981314603205378
-0.1387420730514977 0.03749513418597485 -0.16657816326813898 -0.13764754060370643 -0.0518416352933403 0.07312721288570835 -0.09493054189703891 -0.03145068078285049
0.045287736251519016 -0.061837628709191746 -0.05931745840478752 0.08657855119204241 -0.024584004122830714 -0.048543480730407366 0.08479971480966868 0.08815826728992551
0.06928118861021319 -0.049718546182471964 0.08354706075903474 0.04486542444453824 0.04250997028062548 -0.11917217528738286 -0.06591061112373756 0.06055682670750735
0.026465781083935082 -0.09305590040570937 -0.035504224917468075 -0.033024672621524725 0.09433380111173659 0.03158988210998082 0.028461121862449455 -0.13686744457485236
0.017895132114513535 0.038525415929334055 -0.07279578935904342 0.031276562481903476 0.04683260692572177 -0.10948933195247976 -0.031755739235164816 -0.01859132744847607
-0.0520957682894455 0.062362476699234795 0.08012055671346349 -0.047362256366989465 -0.09140607158955613 0.08047213243662175 0.06438380771267442 -0.01831010465067995
-0.04917502323408767 -0.0985507078063953 -0.014917392789191831 -0.0958801680909697 0.07605483736094512 -0.1197914018409302 0.062404512629572015 0.06251517098184999
-0.06936024642860908 -0.07870020830355794 -0.10062454201833407 0.06742642952240338 -0.08227022937947212 -0.013719444256973044 0.027887755253604346 0.06857624068849248
-0.047893297599962 -0.02599745112221776 -0.08073176915326338 -0.08399984679411475 0.022942413148709904 -0.11297350911152176 -0.0914920050000324 0.03231999692451002
-0.0592269173470808 0.0047801688580840045 0.0033737158322527886 0.06507784108795997 -0.052818526552599755 -0.0911240852298682 -0.056177387773158664 0.05324578336271701
-0.06250539250693381 0.05558388120602533 -0.10426296892226437 -0.003940086895222607 0.05024853553264475 0.036110296106435326 -0.03521537916093918 -0.08042470707445606
0.09222552419852412 -0.0517567665657434 0.02465079409949622 -0.09197453529270301 0.09217045338091294 -0.01850867410641999 -0.07865825817469395 -0.041471190971716476
-0.013218525951961685 -0.0672419926130373 0.07116259104630575 0.0023159907819969164 -0.08081008349736032 -0.09069808277050116 -0.09823236559857976 -0.023251205409213212
0.039018247807083906 -0.019364531894106456 -0.02102723540794555 -0.018248445249730443 -0.026464575143128142 0.0736897069982852 -0.0673785343478286 0.052055215261302225
-0.008870676293642677 0.052228885308073604 -0.015868741058509803 -0.06122097729507583 -0.0586377390881685 -0.08412369961918854 0.05827260501042974 0.02216102135624572
-0.1034450564069434 0.06443730948573825 -0.04600926078192483 0.07842470498451393 0.03619318245423021 -0.012962782915027386 0.005882525425024782 -0.048893186606411704
-0.06762930180499857 0.03350742326355944 0.0769028296491917 -0.07767736355064463 0.018047295509712652 -0.12788491624597131 0.07255180450558886 -0.055164454061966836
