model_stock/world/World_checkpoint35000.pth (torch, 706545 bytes, 16 tensors)

input_layer.weight_mu f8 [128, 43]
00000000: 5a71 7522 5670 bebf 5375 f4d2 8b50 d7bf
00000010: 7021 ab09 4a9d d5bf c7c8 84e1 0eb1 d7bf
00000020: ef58 a14a 114d ab3f aa6c 75da 4f59 cebf
00000030: 1a5e 1719 8f81 b6bf 66b4 98bd c5bc b5bf
00000040: 6fb0 dbd7 59c5 a23f d82c 064f bb8b d3bf
00000050: 87c0 dd69 8492 d3bf 812b 948e 1aee d4bf
00000060: c91e 1292 9b6d c7bf 2218 808f f22f c6bf
00000070: 1f46 ed2f 88d9 d3bf 8f1a fcfc 4098 d83f
00000080: af11 d341 a570 debf 7914 477b b853 da3f
00000090: dc50 0882 4c3c b63f 5ebb 9690 61e9 cfbf
000000a0: b970 35f0 5994 d6bf 6321 4429 c792 c6bf
000000b0: d159 bec6 bb9e a5bf b054 4340 6676 d2bf
000000c0: 7886 2f71 18ad d7bf 0c8c 54fe e74a d7bf
000000d0: 4793 dfb7 423a d33f 1c55 be33 d396 d3bf
000000e0: 6524 b5af 9ac0 d1bf 9045 20f7 0db6 d9bf
000000f0: 0911 fec9 653e d7bf 4187 ab34 3689 d7bf
00000100: 32c4 c640 6dd0 d6bf d5ae 67ed 06f6 d9bf
00000110: f287 1148 1ba2 d83f cf74 f878 f84e d83f
00000120: 436c 7e34 49c9 b7bf f820 3fa8 2cc3 d7bf
00000130: 1aae 86e9 b229 d3bf dcaf 0a21 64d3 abbf
00000140: 837a 0739 35dc b0bf 49c6 aec8 0b25 bd3f
00000150: 7529 f240 a831 bcbf 1eb4 1810 1b6c bfbf
00000160: 7287 ac6e 58cb b5bf f11d 929e a403 c1bf
00000170: ddb0 eab8 3de8 d0bf 31dd 295e 7d4e c6bf
00000180: 4837 aee9 d69a c7bf 93ee 8631 4f10 c9bf
00000190: 013d 1c31 901a c7bf 6d1d 8646 3b50 c83f
000001a0: d708 4608 154a d4bf 1950 3fbc 53b1 c9bf
000001b0: 7ae5 7ac0 aff8 d0bf 6893 0e42 f262 bbbf
000001c0: e574 3761 82b1 d6bf fb12 7235 dea0 d1bf
000001d0: 3aac d514 75d9 d83f 4c59 e05f 34c3 dabf
000001e0: ad87 47c5 8af1 dfbf 8672 72bb 214d 963f
000001f0: 3967 c36c 45a4 d3bf d8ee bb11 7481 c9bf
00000200: 0625 fcff 897c d1bf edc6 0cda 72f7 b0bf
00000210: 10d7 ed22 408c c9bf 9538 cc43 c0ed b8bf
00000220: dce8 702b 8d60 c8bf bb17 531b efea b53f
00000230: af5d 8df0 d132 c6bf 54a8 2276 19a9 b6bf
00000240: 12a2 1286 1abc d4bf 8e2d 51a9 1961 d9bf
00000250: 5d00 4cca 9812 cdbf 4bae c0d0 14d4 d8bf
00000260: 7ace a259 869a d73f bab6 51af 2733 d93f
00000270: 39db 333d 5078 ddbf 753a b596 78ec d0bf
00000280: f309 62e8 1f06 c9bf a141 83f2 dae4 cebf
00000290: e62c 7906 a31b 103f c42b b7a6 771f d2bf
000002a0: 9419 4c8d 44e8 d43f c891 1f4e 5e0b 82bf
000002b0: c928 9a68 f0b7 c2bf 0f0a 52a0 8ac2 cabf
000002c0: ea50 4357 da16 dbbf 456d af25 ff8b d9bf
000002d0: 600f 2652 4a97 b93f 4ddc fff0 6c28 cabf
000002e0: a218 3b78 ffb6 d8bf 6ca2 2c79 17c3 cebf
000002f0: e89b dd1d 73fa d33f bd27 5712 d6ee d0bf
00000300: 84f8 fded ad51 cebf 66f7 ed44 91f1 cabf
00000310: 4fbf 3fb2 8b16 d8bf 02cb 2b12 626a b9bf
00000320: b3d5 2807 f8f5 d0bf 4e88 92b6 6cf7 d8bf
00000330: cc02 9acd c446 dc3f e934 e342 256e d73f
00000340: a1f8 9d9c dd8e 9d3f 6a16 24c0 85a4 d0bf
00000350: 2197 cb1f ab4e d2bf c065 3f56 6246 d4bf
00000360: 413e fafa e378 a5bf 5647 0651 94e8 ccbf
00000370: 91df d910 ef65 d2bf ac4b 2806 bf9f d5bf
00000380: 5e7a 41d3 0e5e 97bf 5fc6 5114 fb0e d6bf
00000390: 41df 843e 3ff5 d5bf 47c4 722a 2218 c5bf
000003a0: 0cca 4ca9 1f01 bcbf f417 92dd 3c8f d7bf
000003b0: f161 249f 8dec b3bf 8983 2862 bed2 d73f
000003c0: e892 50b7 3c15 d93f 4874 cdda 8e5a dcbf
000003d0: 76b9 4529 3bde ccbf a7c7 463f 15db d3bf
000003e0: c8af e718 b6b5 c6bf 7f11 27fb 35d8 a13f
000003f0: 9ca5 04f9 8c58 c9bf 366b 4c0d cce0 d23f
00000400: c892 b7e0 6d9a c7bf b70c f1e2 51b3 c9bf
00000410: 1c34 c03a 5e30 bcbf 106b a8bc 7acf bcbf
00000420: 520a d189 d349 cdbf 5613 127a b8a0 b1bf
00000430: 9f9e e0d8 d5ad d6bf 46e5 2d84 22b8 b8bf
00000440: b950 7cbf 785b c9bf fc50 7520 4c8b cc3f
00000450: c811 9cf7 c09c c0bf 3327 9806 300b d3bf
00000460: 5e1a aa74 e6c5 d8bf 4d40 65ee 2bdb cbbf
00000470: 50c9 8884 a888 d3bf 2a82 c797 c45a d6bf
00000480: 2546 4608 5843 d9bf 2c88 c311 a144 d73f
00000490: 4281 8a56 5397 d8bf 2894 3c4f d77f aabf
000004a0: 5e5e 73ed 4ddf cebf 664f 1d5d 1bf3 c6bf
000004b0: 9f2c f7f1 379b d5bf bfe8 201e 4f62 85bf
000004c0: 9894 77e1 785d c3bf 8afb 8c2c 527c d0bf
000004d0: 61c4 3016 0310 c4bf 83ae 21a2 c8e7 c93f
000004e0: 83cb 63f2 6e37 c8bf 07e5 edef b2f2 bdbf
000004f0: fd46 0dd7 ea86 cabf 9c03 82ef 1e10 d3bf
00000500: c823 5eaa 955d d6bf 43a4 9412 d101 bdbf
00000510: eb97 b492 1602 d7bf 7fcc 8e00 fdf4 dabf
00000520: f6a2 847a 6978 de3f ff3a c427 0a5b bdbf
00000530: 6634 2c14 2800 b6bf c1d5 2fe3 4e1f b7bf
00000540: 31a0 8caf 3bb5 b8bf b836 cf5b bb13 cfbf
00000550: a479 a09e ac3e d03f 0984 be43 e235 a3bf
00000560: 083b 8d3d f5e5 a33f 396d 5886 b513 c3bf
00000570: d236 529f 7f5a d4bf 78b5 2a81 a0fc d7bf
00000580: 1193 eb46 5b15 c8bf 48a7 4800 2fbb d9bf
00000590: e49e 822d bc1e d1bf d6ed be8b ec61 c9bf
000005a0: a811 5e4b 8d9e c73f 09b7 507a 08a1 cdbf
000005b0: f2d6 944b 0691 c9bf d856 7d39 3c35 bfbf
000005c0: f1b4 8f0f 3e37 d2bf 2e50 5470 14da c7bf
000005d0: 337d 6338 322e bdbf b5d3 43be c128 dfbf
000005e0: 6f0e 1ff0 b5c7 da3f 28e6 e26c 770a dabf
000005f0: 3a28 f3a5 2c8d 94bf 9d7e 8421 8eaa d0bf
00000600: 6a7a bcd3 625f d9bf c96e e301 a1dc ccbf
00000610: 1f1f 2f2b 6dbf b8bf 1b9e c07f 45db d6bf
00000620: 926c bc2c 8338 c5bf 6260 aa89 d5b2 d3bf
00000630: 2a58 750b add8 d03f 72af 15bb 972e d3bf
00000640: 7886 ffcb ca6f c5bf 0402 a201 7d4d d1bf
00000650: eef2 b5fc 2025 d7bf e091 6443 6409 d4bf
00000660: 1099 575f c981 b13f 817b 8d24 34f3 dc3f
00000670: 0ed5 c094 1486 dc3f ed88 6b5b 6b43 dd3f
00000680: f545 736a 9aee c7bf edb4 41c8 c4ce d3bf
00000690: f9b6 fda2 cbb2 c4bf 4959 7266 5a8d c7bf
000006a0: bacc 3e62 dc50 d1bf 574e 3d27 75c3 c33f
000006b0: fffe bfc8 8744 c0bf 3f1c b17e d397 b83f
000006c0: b414 fe9a fada cfbf 27ba 96be 39b1 c0bf
000006d0: ac82 78d2 b284 cebf 7970 6f17 0fc9 babf
000006e0: 03b2 6fff 7b92 c1bf 94a1 a704 71d3 b5bf
000006f0: 3e60 b341 f197 b9bf edd7 3532 a03d a03f
00000700: 1f11 9e64 656b d3bf b804 e4be 9331 c3bf
00000710: d4cd 22da 79dd c9bf 9173 8829 f7ba d9bf
00000720: 707d dc2b 1c07 c2bf 77ac 5a51 0039 cfbf
00000730: 3661 a2fb 52bd db3f dd65 d934 4156 d8bf
00000740: cf12 c2a1 9a6a d6bf 497c ee2a a435 a13f
00000750: c633 732d f403 bdbf 2268 33f2 a4e2 c9bf
00000760: e278 3c7a 23a1 d7bf 6e7f bfe9 9cd7 b53f
00000770: 738e 5c94 3152 b8bf eb00 9ebb 88d3 c1bf
00000780: d869 7d2a e4ef d5bf 5ff8 0a5a ed19 cb3f
00000790: 5893 0076 2182 c3bf 1f21 a0d7 2598 d5bf
000007a0: 9c17 e340 b39d ccbf eef5 fc40 ef25 d7bf
000007b0: 11ee de41 3ba5 c1bf d70d 3594 decb c9bf
000007c0: 4843 3544 e285 d6bf 26d7 97ba dc71 df3f
000007d0: a87f ca17 538c dfbf 5a18 5a80 b3c0 c1bf
000007e0: 3393 2091 327d d5bf b695 ef09 4eb9 d5bf
000007f0: 7c63 5a08 304e bfbf d56d 3269 4937 ccbf
-0.11890161839750615 -0.3642911491495699 -0.33772517151057624 -0.37018177054700313 0.05332235370649296 -0.237100583714754 -0.08791441309528417 -0.0849116886026465
0.03666191825854603 -0.3054035445899905 -0.30581770266054104 -0.3270326988574013 -0.18303246147501387 -0.1733382416425125 -0.3101520984683663 0.3842928381494994
-0.47562533786938394 0.4113599017985688 0.08685758757229983 -0.24930972633361653 -0.3528046460903727 -0.1763543082709119 -0.04222666550701926 -0.2884765269821612
-0.3699399094894953 -0.3639469131177868 0.30043094593411407 -0.3060806279475672 -0.27738063010162356 -0.4017367280331081 -0.36318344808411546 -0.3677497400623118
-0.35647136045287475 -0.4056413000496211 0.38489419973313865 0.37981998265770484 -0.09291512996280553 -0.3712875025780842 -0.29942009740145326 -0.054347161324898
-0.0658601059180715 0.11384652757149029 -0.11013270936579096 -0.12274331229191701 -0.08513405515671282 -0.13292367689812992 -0.26417487200047934 -0.17427031610325508
-0.18441282663519076 -0.19581022184671734 -0.18049814603771355 0.18994847243832727 -0.31702161605802587 -0.2007240933586452 -0.26517862126237157 -0.10697855103223974
-0.35458430761157295 -0.2754436036996563 0.38827254328379335 -0.4181643425266841 -0.4991175581509378 0.02177860933862743 -0.3069013178006688 -0.19926310411380288
-0.27322626112489024 -0.06627576659664287 -0.19959260659714362 -0.09737779288500044 -0.1904465162386434 0.08561605851272606 -0.17342590566361824 -0.08851775297321868
-0.3239809331230684 -0.3965515283095663 -0.22713003042008753 -0.38794441591264633 0.3688064456320955 0.3937472545720585 -0.46046834923565744 -0.26443304746218327
-0.19549940916847638 -0.24135910836640753 6.14469769228302e-05 -0.28317061692058254 0.3266765003067118 -0.008810745963224856 -0.14623837573555523 -0.20906193569324258
-0.42326982995770257 -0.39916971855355526 0.09996475701887908 -0.20435868995238807 -0.38616930714887066 -0.24032872597424004 0.3121612350136602 -0.26457740584430295
-0.2368676578589125 -0.21049705377293576 -0.3763760796273247 -0.09927952712659407 -0.2650127477566812 -0.39010160283408346 0.4418193824604202 0.36609775096878977
0.028865301784656187 -0.2600416542412406 -0.28605154137618355 -0.316795906282632 -0.041937946688559886 -0.2258477588298386 -0.28747154851543494 -0.33787513352688836
-0.02281973995592989 -0.3446643541748013 -0.34309369187711886 -0.16479899475737822 -0.10939214595126873 -0.3681175388122704 -0.07782826552682544 0.37223777375953
0.3919212141211532 -0.4430272232764918 -0.22553195491077432 -0.3102467649397291 -0.1774203893286297 0.03485268297984855 -0.19801485213365033 0.29497052477534014
-0.1844003054858574 -0.20078490811474634 -0.11011303839059433 -0.11254088502793658 -0.2288155005390587 -0.0688586519264168 -0.35436006717143614 -0.09655967452080913
-0.19810399389155522 0.22300101837993924 -0.1297837456733204 -0.29755783695201216 -0.3870788707066931 -0.21762608662038688 -0.30521595900349485 -0.3492900354595202
-0.39473534400994686 0.3635637925600601 -0.3842361779334348 -0.05175659982914055 -0.2411897096087498 -0.17929403349500744 -0.33759878758855594 -0.010441415888739035
-0.1512900448716763 -0.25758795118957123 -0.15673864921112382 0.20238597790318033 -0.1891916926902831 -0.11698454244278277 -0.20724235058383292 -0.2978589381164569
-0.3494619525668523 -0.11330897048596093 -0.3595024521513312 -0.42120289854501175 0.4760993668046888 -0.11467040511000091 -0.08593988888260781 -0.09032147451929175
-0.09651539836761526 -0.24278966887361775 0.2538253354158775 -0.03752047612147897 0.038863815082200104 -0.14903897342524333 -0.31802359160142857 -0.3747941266436423
-0.1881517502107717 -0.40204978015627946 -0.26750091976508217 -0.19830090354467583 0.18452612094928367 -0.23147684070993815 -0.19973829927919656 -0.12190605548434108
-0.2846217300382952 -0.18634276852447001 -0.11398614765811459 -0.4868625982338089 0.41843937348696775 -0.40688882478170507 -0.020069787625097237 -0.26040986321638987
-0.3964469020592448 -0.22548306076247673 -0.09667093567179251 -0.35713326907941373 -0.16578712162376924 -0.30779016918086743 0.2632248508356293 -0.29971879262915657
-0.16747412644240334 -0.2703545108743415 -0.36164116553099646 -0.31307322102864354 0.06838663652124333 0.4523439747771861 0.4456836178463427 0.4572399513982777
-0.18696909139411813 -0.30949515873255856 -0.16170640429066177 -0.18400125505713508 -0.2705603560854787 0.15440239349355764 -0.12709138204808565 0.09606668322622712
-0.24887020652764635 -0.13040849500744509 -0.23842463757411758 -0.10463041612769243 -0.13728284809566568 -0.08525759090082935 -0.09997470716496168 0.03172016728323954
-0.3034299357025407 -0.14995047398409667 -0.20207141066712941 -0.40203646713217106 -0.14084198133148673 -0.24392703983662375 0.4334304292074366 -0.38026456986480445
-0.35025659367265133 0.03361237548892199 -0.11334158048266749 -0.20222913576327622 -0.36921011864786923 0.08532124239672864 -0.09500417587383385 -0.13926800881382148
-0.34276680135158477 0.21172873398421907 -0.15240877401188402 -0.3374113660543276 -0.22356262844385533 -0.3616903433465656 -0.13785496441219938 -0.20153410183603057
-0.35192162190383103 0.49132459852204347 -0.49293973277417047 -0.13869327323135644 -0.33576645062048555 -0.33943510980892755 -0.12228679851467733 -0.22043721806117725

input_layer.weight_log_sigma f8 [128, 43]
00000000: c301 9e6f 8038 e9bf 252c d6b9 ded5 eabf
00000010: 312c 964f cbae e7bf 7ff1 41a6 f1aa ecbf
00000020: b3fd 161f dbd1 e9bf 5fc3 05e9 9e14 ebbf
00000030: 3b30 3d55 faa8 e8bf 0398 047f 343b ecbf
00000040: 8b7d 2512 c1d7 e9bf 0133 186c 5fdf eabf
00000050: 234e ddde aa8a eabf 6171 706b 4710 eabf
00000060: 3321 2d6c 42f9 ecbf 8f0e b90d df61 e8bf
00000070: 1bf7 f7f0 a1e3 ecbf ef39 fafe 422e e6bf
00000080: ef39 fafe 422e e6bf ef39 fafe 422e e6bf
00000090: c97e 11b6 142f eabf 0ff8 e0c5 37b3 ebbf
000000a0: b73c 75d9 24de e7bf 2952 445d e091 ecbf
000000b0: c5af 08f2 2834 e8bf 2779 7b20 ee89 ebbf
000000c0: 257f b465 35fc e6bf 13ee c010 ae1f ecbf
000000d0: 05f9 695e 4afc e9bf 05f9 695e 4afc e9bf
000000e0: c57e d12e 1b3c ebbf f9ea c258 1b02 ebbf
000000f0: 75a0 95fd 2f76 eabf 3953 ede4 4806 e4bf
00000100: 7718 991e 8936 edbf ef39 fafe 422e e6bf
00000110: ef39 fafe 422e e6bf ef39 fafe 422e e6bf
00000120: 9f38 6e7a 8c91 eabf 2183 fb11 fba3 ebbf
00000130: 55c9 be1f f3a0 e8bf 3b17 4d3e b258 ecbf
00000140: 6b36 f93d 26f1 ebbf b3b4 98af 0732 ecbf
00000150: 3f5f 62ca fc42 edbf ff54 1f91 2b94 eabf
00000160: 0fbe f230 29dd ebbf 09b1 d4e0 f2f7 e6bf
00000170: 730a 7227 4d22 ecbf bb23 c549 d680 eabf
00000180: dddd c4a0 88e4 ebbf 2775 f4ec 2eef e7bf
00000190: 67e4 8375 5880 ecbf d75b 21bc b2aa ebbf
000001a0: 6b5d d0c4 b062 eabf 05ea d983 8532 ecbf
000001b0: 5d80 c0be 12e7 e8bf eb72 ffa1 d568 ebbf
000001c0: 1b2e 08bd 73c7 e4bf 13e9 9072 6cdc ecbf
000001d0: ef39 fafe 422e e6bf ef39 fafe 422e e6bf
000001e0: ef39 fafe 422e e6bf 7761 178e 5cd6 eabf
000001f0: b154 dc3a 7419 eabf e19a 5fc1 7223 e8bf
00000200: f7cd ab4a 979d ebbf 6310 4b13 2b42 ebbf
00000210: ff89 dd87 f826 ebbf 8983 5e57 084a e5bf
00000220: 0b4f 061e 5481 ecbf 517b d08a e4ca ecbf
00000230: 9dfe df21 0142 ebbf 5d45 29bf 8168 edbf
00000240: 05c4 ab67 7d69 e9bf 0959 c696 5a8e ebbf
00000250: b324 eea5 6543 e8bf ef9d 9de3 1868 ecbf
00000260: ef39 fafe 422e e6bf ef39 fafe 422e e6bf
00000270: ef39 fafe 422e e6bf 4b55 c223 6695 ebbf
00000280: 0329 58f3 58d2 ebbf f5fe 424a 281c e9bf
00000290: 63e4 43ee 5e8d edbf 8d4c 8e12 3059 ecbf
000002a0: e181 6faa 2ad3 ebbf 071a 08a0 8dfb ecbf
000002b0: 6daf a5c9 015a eabf 25e8 87e8 4c79 ecbf
000002c0: d713 4cb7 61b3 e9bf 19aa 528a 922f ecbf
000002d0: 15be d27b 9f49 eabf 219b 42be c04b ecbf
000002e0: 7bfc 0ac6 fde6 e7bf df81 cfe6 ad59 ecbf
000002f0: e794 6603 25a4 ebbf e147 8115 1cfd ebbf
00000300: 15c7 894d a027 edbf 25af 42be c04b e8bf
00000310: 8182 35de 92bb ebbf 9517 502a 56ac e9bf
00000320: bb19 650d 53fa ebbf ef39 fafe 422e e6bf
00000330: ef39 fafe 422e e6bf ef39 fafe 422e e6bf
00000340: e569 6885 5e1e eabf 4fd7 c544 bf55 ecbf
00000350: 0ba2 e4c9 aaa7 e8bf 8f9e 6317 8150 ecbf
00000360: c1bd afda 7162 ebbf 430d 6d10 22b8 ebbf
00000370: cb19 652a 39c6 e7bf 4d4b 02ab 5f88 ecbf
00000380: fd4f 4f2f 6dd7 ebbf 9b03 70fc c50b ebbf
00000390: 996d 4c26 e3b7 ecbf d9fc 4d39 9b2d e4bf
000003a0: 55a2 e798 682f eabf e51c 63e2 cbe3 e8bf
000003b0: 55dc d52d 7705 eabf ef39 fafe 422e e6bf
000003c0: ef39 fafe 422e e6bf ef39 fafe 422e e6bf
000003d0: ad1f debc ad93 eabf a3e5 cf55 2f5e edbf
000003e0: 075a cf3d 60bd e7bf b9d5 7678 4424 eebf
000003f0: b592 918a 3b7d ecbf b1e9 b6e2 574b edbf
00000400: 2930 9d74 9763 edbf c7a5 4879 2227 e9bf
00000410: 776b 77ca df5c e9bf 2328 afc2 a2c1 e7bf
00000420: a511 773e 788c eabf 7788 ee14 e747 e9bf
00000430: 17af e264 57f9 ebbf ebdd 24fa f136 e8bf
00000440: fb93 fd3c 82ba eabf 4799 d06d fefe eabf
00000450: 47d3 be02 0dd5 eabf a98e 4ac1 8f09 ecbf
00000460: 9751 de82 e1fb e8bf f30c 8af6 edc3 ebbf
00000470: e9ff 2b1f beeb e7bf 03b0 4b2b fae2 ecbf
00000480: ef39 fafe 422e e6bf ef39 fafe 422e e6bf
00000490: ef39 fafe 422e e6bf ad07 9710 e8eb e9bf
000004a0: 4312 9dae 63fb eabf 51ce ae36 3bf1 e8bf
000004b0: 757e ee14 e747 ebbf b3fd 161f dbd1 e9bf
000004c0: 019d 9459 f904 ecbf 8be3 1acc 9b62 e7bf
000004d0: 370e 56e5 b787 eabf 5368 5940 dddf eabf
000004e0: 3bad d050 1833 ebbf dfdd 6464 055e ebbf
000004f0: 058a bdd2 6e93 e9bf b5b4 3873 84ab ebbf
00000500: f17c 3f29 cf5b e8bf 0593 74a4 6f71 ecbf
00000510: ef39 fafe 422e e6bf ef39 fafe 422e e6bf
00000520: ef39 fafe 422e e6bf 53f4 7c16 c033 ebbf
00000530: 412f 7435 ee6c ebbf 0720 e1a8 51e7 e7bf
00000540: 2191 e281 3dc5 edbf 3f81 09b3 4571 ecbf
00000550: 8b17 3058 e64c ecbf b570 eaa1 f24e edbf
00000560: 0f54 7643 8fb7 eabf b1be 5828 0e3f ebbf
00000570: cba5 8800 1c1a e8bf 05f4 39c0 08b9 eabf
00000580: 2ded 3795 81a2 e9bf e520 ea15 8b7e ecbf
00000590: 2323 7f24 617e e8bf 0998 e4c9 aaa7 eabf
000005a0: a19d 5a8d 61ed ebbf fb76 86f2 7acf eabf
000005b0: 55ab 9e6a 690d edbf d96b fac4 7696 e4bf
000005c0: e34c 5177 dab9 eabf 1b89 f4cf 4823 e8bf
000005d0: bc19 356f 11b7 ebbf ef39 fafe 422e e6bf
000005e0: ef39 fafe 422e e6bf ef39 fafe 422e e6bf
000005f0: 836a 8ef5 498d eabf b5e9 f669 513e ecbf
00000600: 01b6 8470 4155 e8bf 8956 aec7 b9ec ebbf
00000610: 495f 829c 6ca2 eabf d7cf fde5 cf56 ebbf
00000620: cd31 4c9a 7be7 e7bf 0dc3 820b eea6 ebbf
00000630: 6b3b 29dc 6734 ebbf 2d52 84e4 d984 ebbf
00000640: a1b0 719b e551 edbf c7c2 bfc3 2912 e9bf
00000650: 1ffc 6716 dd19 ebbf 5f4b a28b c2cd e7bf
00000660: 727e 7eef ab11 ecbf ef39 fafe 422e e6bf
00000670: ef39 fafe 422e e6bf ef39 fafe 422e e6bf
00000680: 710f 0202 12ec ebbf c396 7817 646a ecbf
00000690: b159 0cd9 b55c e9bf 8f5f 45e4 3037 edbf
000006a0: 8fd3 210e 4ee3 ecbf 33e7 3ed7 3323 edbf
000006b0: ff0b a121 58f4 ecbf cfd0 2642 5f19 e9bf
000006c0: 098e 848d 2721 ecbf 7167 104c aa55 e7bf
000006d0: 0b02 017b c146 ebbf b7be 3873 84ab e9bf
000006e0: d382 b8bb 4329 ebbf f594 c65c 8ef6 e7bf
000006f0: d75b 21bc b2aa ebbf edb1 bd98 a2fb e9bf
00000700: a576 c38d d06e ecbf fb54 df09 32a1 ebbf
00000710: adef 4f64 2244 e9bf 8704 d9c2 68f5 ebbf
00000720: 6d10 6be5 9aa1 e8bf 48f4 8ce2 9117 eebf
00000730: ef39 fafe 422e e6bf ef39 fafe 422e e6bf
00000740: ef39 fafe 422e e6bf b962 43b9 a920 eabf
00000750: 7127 49ae d793 ecbf 0ba7 1468 ecea e7bf
00000760: 51f4 dc52 43ba ebbf 71af e550 fb4c e9bf
00000770: 0be0 5992 7818 ecbf 5dc4 0e90 a443 e7bf
00000780: 8526 e0e7 34aa ebbf 8d34 4766 6ab1 ebbf
00000790: ad4f 6c15 39e3 ebbf 91d3 c1d1 ca5c ecbf
000007a0: 2d5c e420 5d0b eabf 116c 5db3 d1d8 eabf
000007b0: 8960 0e04 3d73 eabf 7874 fefd 9ef7 ebbf
000007c0: ef39 fafe 422e e6bf ef39 fafe 422e e6bf
000007d0: ef39 fafe 422e e6bf 19b4 b2c6 15b6 eabf
000007e0: c57e d12e 1b3c ebbf c3d1 0f17 f5e8 e7bf
000007f0: 3bdd 5ea9 a382 ecbf 9fb5 0176 aa1b edbf
-0.7881471805595129 -0.8386071805592833 -0.7400871805597317 -0.8958671805590227 -0.8068671805594277 -0.8462671805592484 -0.7706271805595927 -0.8822271805590848
-0.8075871805594245 -0.839767180559278 -0.8294271805593251 -0.8144871805593931 -0.9054271805589792 -0.7619471805596322 -0.9027871805589912 -0.6931471805599453
-0.6931471805599453 -0.6931471805599453 -0.818247180559376 -0.8656271805591603 -0.7458671805597054 -0.8928071805590366 -0.7563671805596576 -0.8605871805591833
-0.7182871805598309 -0.8788671805591001 -0.8120471805594042 -0.8120471805594042 -0.8510871805592265 -0.8440071805592587 -0.8269271805593364 -0.6257671805602519
-0.9129071805589452 -0.6931471805599453 -0.6931471805599453 -0.6931471805599453 -0.8302671805593212 -0.8637671805591688 -0.7696471805595971 -0.8858271805590684
-0.8731871805591259 -0.8811071805590899 -0.9144271805589382 -0.8305871805593198 -0.870747180559137 -0.7177671805598332 -0.8791871805590986 -0.8282271805593305
-0.8716471805591329 -0.7479471805596959 -0.8906671805590464 -0.8645871805591651 -0.8245471805593473 -0.8811671805590896 -0.7782071805595582 -0.8565471805592016
-0.6493471805601446 -0.9019071805589952 -0.6931471805599453 -0.6931471805599453 -0.6931471805599453 -0.838667180559283 -0.815607180559388 -0.7543271805596669
-0.8629871805591723 -0.8518271805592231 -0.8485071805592382 -0.6652871805600721 -0.8907871805590458 -0.899767180559005 -0.8518071805592232 -0.9190071805589174
-0.7941271805594857 -0.8611271805591808 -0.7582271805596491 -0.8877071805590598 -0.6931471805599453 -0.6931471805599453 -0.6931471805599453 -0.8619871805591769
-0.869427180559143 -0.7846871805595287 -0.9235071805588969 -0.8858871805590681 -0.8695271805591426 -0.9057071805589779 -0.8234871805593521 -0.8898071805590503
-0.8031471805594447 -0.8808071805590912 -0.8214871805593612 -0.8842471805590756 -0.7469471805597004 -0.8859471805590678 -0.8637871805591687 -0.8746471805591193
-0.9110871805589534 -0.7592471805596445 -0.8666471805591557 -0.8022871805594486 -0.8743071805591208 -0.6931471805599453 -0.6931471805599453 -0.6931471805599453
-0.8162071805593852 -0.88546718055907 -0.7704671805595934 -0.884827180559073 -0.8557671805592052 -0.8662271805591576 -0.7429471805597186 -0.8916471805590419
-0.8700471805591402 -0.8451871805592533 -0.8974471805590155 -0.6305671805602301 -0.8182871805593758 -0.77780718055956 -0.8131671805593991 -0.6931471805599453
-0.6931471805599453 -0.6931471805599453 -0.8305271805593201 -0.9177471805589231 -0.7418671805597236 -0.9419271805588131 -0.8902871805590481 -0.9154471805589336
-0.9184071805589201 -0.7860271805595226 -0.7925871805594927 -0.7423871805597212 -0.8296471805593241 -0.7900271805595044 -0.8741871805591214 -0.756707180559656
-0.8352671805592985 -0.8436271805592604 -0.8385071805592837 -0.8761671805591124 -0.7807471805595466 -0.867667180559151 -0.7475271805596978 -0.9027071805589916
-0.6931471805599453 -0.6931471805599453 -0.6931471805599453 -0.8100471805594133 -0.8431871805592625 -0.7794471805595525 -0.8525271805592199 -0.8068671805594277
-0.8756071805591149 -0.730787180559774 -0.8290671805593267 -0.8398271805592777 -0.8499871805592315 -0.8552271805592077 -0.7992471805594624 -0.8646871805591646
-0.7612071805596355 -0.8888471805590547 -0.6931471805599453 -0.6931471805599453 -0.6931471805599453 -0.8500671805592311 -0.8570471805591994 -0.7469871805597003
-0.9303271805588659 -0.8888271805590547 -0.884387180559075 -0.9158871805589316 -0.8349071805593001 -0.8514471805592249 -0.753187180559672 -0.8350871805592993
-0.801087180559454 -0.8904471805590474 -0.7654271805596163 -0.832967180559309 -0.872727180559128 -0.8378271805592868 -0.907887180558968 -0.6433671805601718
-0.8351871805592989 -0.754307180559667 -0.8660971805591582 -0.6931471805599453 -0.6931471805599453 -0.6931471805599453 -0.8297471805593236 -0.882607180559083
-0.7604071805596392 -0.8726471805591284 -0.8323271805593119 -0.8543471805592117 -0.7470071805597002 -0.8641271805591672 -0.8501471805592308 -0.8599671805591861
-0.91624718055893 -0.7834671805595342 -0.8469071805592455 -0.7438671805597145 -0.8771571805591079 -0.6931471805599453 -0.6931471805599453 -0.6931471805599453
-0.8725671805591287 -0.8879871805590586 -0.7925671805594928 -0.9129871805589448 -0.9027471805589914 -0.9105471805589559 -0.9048271805589819 -0.7843471805595302
-0.8790471805590993 -0.7292071805597812 -0.8523871805592206 -0.802187180559449 -0.848787180559237 -0.7488471805596918 -0.8645871805591651 -0.8119671805594045
-0.8885271805590561 -0.8634271805591703 -0.7895671805595065 -0.8737071805591236 -0.7697271805595968 -0.9403771805588201 -0.6931471805599453 -0.6931471805599453
-0.6931471805599453 -0.816487180559384 -0.8930471805590355 -0.7474271805596983 -0.8664871805591564 -0.7906471805595016 -0.8779871805591041 -0.7270071805597912
-0.8645271805591653 -0.8654071805591613 -0.8714871805591337 -0.8863271805590661 -0.8138871805593958 -0.8389671805592817 -0.8265671805593381 -0.8739771805591223
-0.6931471805599453 -0.6931471805599453 -0.6931471805599453 -0.834727180559301 -0.8510871805592265 -0.7471871805596993 -0.8909471805590451 -0.9096271805589601

input_layer.bias_mu f8 [128]
00000000: 0d34 39af 293b d1bf 5719 7b5e 77d6 d3bf
00000010: 24b6 1c15 425b d2bf 0a41 77b7 7907 d6bf
00000020: 5b1c 4a59 aa11 cdbf 931a ab81 4f5a d3bf
00000030: f1b5 5849 e70f c3bf c78c c79a 7ce2 d8bf
00000040: 2d6f 554c e327 d9bf a502 a93a 87f3 d2bf
00000050: 7109 efce 14a2 cfbf 1c83 f5e0 bc79 b9bf
00000060: 3e05 0c38 158f c9bf e4b9 9939 afc3 d1bf
00000070: 63a1 6333 5384 d2bf beb0 48d7 50fd c8bf
00000080: 5201 5d37 2247 c7bf 445a 71fd a817 d2bf
00000090: f1e2 4539 912a c3bf 7886 b749 f259 c1bf
000000a0: 648a 04fd 3c87 c9bf 6366 63e3 bfe4 d0bf
000000b0: 0487 43aa 2ef6 cabf d867 e6f1 9d54 c1bf
000000c0: 1de4 7796 9883 bcbf ebeb 0dfe d735 d2bf
000000d0: 5754 4149 cb96 d8bf a7ea 7f07 87a7 d3bf
000000e0: ca71 b064 d055 d2bf 36bd 3958 f08b d6bf
000000f0: a961 5134 b18e cdbf cd9d 4abc 9d9e c9bf
00000100: d503 65de 338e d6bf 403a a87e 0cc1 d3bf
00000110: 10d5 804a ca87 c6bf c598 2742 e77e c0bf
00000120: e6f6 980f 3e87 cdbf a976 5c2a 53cf d4bf
00000130: 8d37 748c 46ec c5bf fefc 016e 541c d6bf
00000140: 4cca 2c59 19e7 d4bf 61e7 cb48 0abe d4bf
00000150: df54 d3a7 df36 d6bf 6085 a726 5540 b5bf
00000160: aa9e 30da 7d3e d5bf 314b 4b51 e023 c4bf
00000170: d22e f9f2 fb3a ccbf 43d8 e66a 270a c7bf
00000180: f01b 550e 4c0a d5bf 63e4 25b6 6723 d8bf
00000190: 688f ba68 88bd d9bf b5bb bfc6 1e6e c3bf
000001a0: 2706 6be5 0ee2 d1bf 48e5 9409 2ce2 d7bf
000001b0: ea21 0fac e7a8 d1bf 36e0 0427 a461 c1bf
000001c0: 2507 bd58 3248 d5bf e1eb 92ee de3f d4bf
000001d0: 774a 8463 9f85 c4bf e871 1a1f bc1b cebf
000001e0: 0c90 09fe 47c5 d8bf cdc5 38e7 3392 d0bf
000001f0: 32fd 8bd1 d38d c8bf c700 a078 4c2e cfbf
00000200: 92c9 dadf 25fe bebf 431f d809 03d7 cabf
00000210: 18bc df6e d07d d7bf 3fa1 0307 4236 c7bf
00000220: 9210 18a1 2fd9 d6bf 9bf5 162c 1c5a cebf
00000230: 543f 2b6c fb48 cabf 1139 9f8c 374f c7bf
00000240: 4569 c4de 877c cabf eeee 87cd 5ea4 d6bf
00000250: 24f7 d709 6fe0 d2bf f4f3 768a 6107 d3bf
00000260: abe4 d3eb ebe0 bebf b01e f017 6106 b9bf
00000270: f60d c410 867f d2bf eed0 88f4 445b cbbf
00000280: fe80 99c6 d6b9 c7bf 2a75 cbba 2916 c2bf
00000290: 4df1 fb99 6c4b d3bf c098 46d4 ad00 d0bf
000002a0: a009 5a29 a1e0 c3bf ec25 3113 9604 c3bf
000002b0: b8ac f948 81df d4bf 2ccd 11c1 a351 c4bf
000002c0: 577c 2c81 7dcc d2bf e220 1ebc 87c2 c2bf
000002d0: 9e6d bf83 665c d1bf 0e2d 6ff5 c6f9 c6bf
000002e0: c036 2890 f44b cdbf 2b66 5ee4 d6de c1bf
000002f0: 5410 8849 e705 d5bf 9ece ce51 7f49 b2bf
00000300: d1e8 9d5f 3572 d4bf d137 a682 59ad d0bf
00000310: afac cc39 8685 cebf a6e8 6cd5 78a6 cfbf
00000320: 5bc0 01cb fb35 cebf 594c 6e47 4cd6 d9bf
00000330: 4730 e2ae c41d d5bf e81b f353 de69 d1bf
00000340: 5c11 c22d 8420 cdbf 9f0d 5a15 1d44 cabf
00000350: 3b37 fd2b 1797 c8bf 2344 13e9 5d0d c7bf
00000360: 1e2d 4228 fbab c4bf f047 8b29 a170 d6bf
00000370: edc7 1ad0 33c4 bdbf adc7 72fa f069 b7bf
00000380: 6784 39ee 0812 d2bf 67d2 e54b fa3c dbbf
00000390: 15d5 13c0 abb5 cebf 01af bbe4 2032 d7bf
000003a0: eeac 6f1a 32e1 cebf 972a 61b0 a4c5 c0bf
000003b0: daa2 e0e9 3730 d1bf 0a3c 1cdb 65ee cdbf
000003c0: 73b4 c208 56ff c6bf 958d f91a 286a bebf
000003d0: 6c88 82ba bf91 d6bf 86ec f44a 3835 d4bf
000003e0: 9e74 ece3 b380 d6bf 43ce 2d39 4309 d9bf
000003f0: 5dce 294a f44e ccbf a54b 6606 a0cf c3bf
-0.2692360125700482 -0.3099649832405666 -0.28681995450719655 -0.3442062656076962 -0.2271016059860099 -0.30238711989333317 -0.14892283517239904 -0.38882365336594343
-0.3930595632025298 -0.29611378410849404 -0.24713382820307175 -0.09951382152713645 -0.19967904316585278 -0.27756863236473195 -0.2893264772269701 -0.1952305842581889
-0.18185832694326592 -0.2826940989520248 -0.14973655029805102 -0.13555744742830078 -0.19943964342481302 -0.26396176534544774 -0.2106378871313198 -0.13539480506443513
-0.1113829963068302 -0.2845363598823371 -0.38420374063327273 -0.30710006458654465 -0.2864876731198619 -0.3522911893441746 -0.2309171205004195 -0.20015308088225794
-0.35242935865613606 -0.30865776413785184 -0.17601898801664406 -0.12887278299530727 -0.23068977128598717 -0.3251541055377439 -0.17127305849174626 -0.34547911398836095
-0.32660516460888256 -0.3240991316703142 -0.34709922208032923 -0.08301288789472983 -0.3319391852150867 -0.15734485597075712 -0.22055005420621981 -0.17999737472354313
-0.328753484722653 -0.3771609572209568 -0.40219316699425756 -0.15179810242213213 -0.27942249683482817 -0.3731794446535628 -0.2759341411843069 -0.1357922735712706
-0.33253153482302117 -0.31639836595758025 -0.16032783850876672 -0.23522140043941353 -0.387041090091089 -0.25892350750208665 -0.19182822925356785 -0.24360042467015416
-0.12106548991395119 -0.20968664150881908 -0.3670540888551286 -0.18134332029809205 -0.35700598460994926 -0.23712494042221696 -0.2053522375267628 -0.1821050106650053
-0.20692537667566505 -0.3537823683870859 -0.29494834862986097 -0.29732550165118643 -0.12061953074943925 -0.09775358995841077 -0.28903342854775305 -0.21372281971128565
-0.18535885522124568 -0.14130136128270837 -0.30147852933420866 -0.2500414441113996 -0.1552926494515079 -0.148577460642897 -0.3261416638039907 -0.15874144484733088
-0.29373109449983786 -0.1465615910094647 -0.27126467576973734 -0.1794975946816994 -0.22888047255439936 -0.13961301947419832 -0.32848531895456756 -0.07143398043882107
-0.31947073304730816 -0.2605804229614224 -0.238449838850419 -0.2472678224674542 -0.23602244770472933 -0.40370470977467715 -0.32994191244575116 -0.27208669851500966
-0.22755481943398592 -0.20520366232458984 -0.19211091659456678 -0.1800954235136781 -0.16149844613787762 -0.35062436158216226 -0.11627506094626457 -0.0914602862783613
-0.2823507620251519 -0.42559678470505563 -0.23991915587218018 -0.36243460023136725 -0.24124742785293257 -0.13103159534724249 -0.268568018337232 -0.23383782576317486
-0.17966723850023278 -0.11880732210697993 -0.3526458093057332 -0.31574828453057824 -0.35160538919610385 -0.39119034370307676 -0.22115949269538052 -0.15477371513824525

input_layer.bias_log_sigma f8 [128]
00000000: d71c 0389 6291 ecbf a17b b3a4 18bf ecbf
00000010: d573 c8a4 fbd8 ecbf 0398 047f 343b ecbf
00000020: 8373 45c7 4a6b edbf 0759 26d3 dd14 ecbf
00000030: 584f 7912 4d3f edbf a954 5c2c 8133 ecbf
00000040: a9f8 c6ae 292f edbf cb30 036c 7cc5 ecbf
00000050: 918f 7300 3900 eebf 1d66 4440 fac5 ecbf
00000060: 8dd3 814a d169 edbf 4da2 678a 7549 ecbf
00000070: 49a2 2703 7c56 edbf f74f 6fe4 f66a edbf
00000080: c918 1cfc 39a4 ecbf ad45 0cd9 b55c edbf
00000090: 0280 ed70 b0d6 ebbf b39c 5103 428a ebbf
000000a0: 6488 7ed2 c545 eebf efef d224 ede5 ecbf
000000b0: 196b 3457 4216 edbf db17 1372 1a41 ecbf
000000c0: c55c 2a46 d20d ecbf a5b0 b122 df44 ecbf
000000d0: 6da0 15ef 3c90 ecbf 155d 0d60 0602 ecbf
000000e0: 9516 a7bf d303 eebf 0d0b 5810 3f9e edbf
000000f0: 63aa 5559 50b7 edbf 9ff4 1fa9 fa34 ecbf
00000100: 0be0 5992 7818 ecbf ffb9 6be0 8376 ecbf
00000110: bdd0 8661 fcd3 edbf c7d9 5d05 6d11 eebf
00000120: c7e3 bd41 f097 ecbf e1ce 744d bd0d edbf
00000130: ff7f 7d4b 75a0 ecbf 210a ef49 9cb4 ecbf
00000140: b8fc 7d9d 10d9 ecbf 91b1 1ae9 812e edbf
00000150: b7a5 485c 3c5b edbf a754 bc68 04ba ecbf
00000160: c374 d12e 1b3c edbf 79c1 d302 f0ee ecbf
00000170: 8404 699d 2dbf ecbf 85b2 03be 17fe ebbf
00000180: e147 8115 1cfd ebbf 99f9 6ffc c50b edbf
00000190: 6d9b e550 fb4c edbf 27c6 80c3 80c4 ecbf
000001a0: 8704 d9c2 68f5 ebbf 91e6 d8df 4ec1 edbf
000001b0: 670f e22f a28c eebf 9ba2 aae0 2cc4 ecbf
000001c0: 8d86 7ca7 3e2f ecbf ef07 1ad1 b28d edbf
000001d0: e9ac 4d73 67c5 ebbf 3b0d ed01 2fd2 edbf
000001e0: 4972 99aa f006 ecbf ebf4 c23b 3536 edbf
000001f0: f18e adcc d017 eebf 9555 c5f2 231d edbf
00000200: 1145 862c 4767 ecbf ef98 6d45 d724 edbf
00000210: 0702 c1f3 c753 ecbf 8d9e c353 04d7 ecbf
00000220: 819a 7c8a 5863 ecbf f354 5ffb 3ebb edbf
00000230: 75c1 937b f6fb edbf b5fc 0d78 d5a2 edbf
00000240: 0b84 c414 2114 edbf 77a4 bcf4 6b8a edbf
00000250: 67bd acee cd0e eebf b758 43b9 a920 ecbf
00000260: 9f11 97f3 0120 ecbf 731d 8935 d186 edbf
00000270: 690f 82f3 1e06 eebf 973d 1e0a dbee ebbf
00000280: e9a7 1dd5 2582 ecbf 3b69 827f 86d6 ecbf
00000290: 6d2c 39c5 1fe4 ecbf b653 43b9 a920 edbf
000002a0: 8595 8c73 1013 ecbf 81ca 0ae3 e3b2 edbf
000002b0: e98a a68a 1e97 ecbf e199 b656 f07a ecbf
000002c0: 2d4d 5446 9841 ecbf 098e 848d 2721 ecbf
000002d0: 8b2f 7704 acf4 ecbf 4da2 678a 7549 ecbf
000002e0: ab28 f5ca 31f8 edbf f3e5 b26f 6352 edbf
000002f0: c56f 4154 5672 edbf a9ab c10b 97f4 ebbf
00000300: 3143 3491 0eae ecbf b99b 88e3 354e eebf
00000310: df7c 9f48 6c16 edbf 5341 82b9 526e ecbf
00000320: ac84 5aaa 47b9 ecbf a141 c50f 0ae9 ecbf
00000330: af84 cacf 82ef ebbf d96e d88d b388 ecbf
00000340: 753a a043 55eb ecbf 0932 ef0f d01c edbf
00000350: 8ddd e186 54f0 ebbf c98c f825 5750 ecbf
00000360: 4929 1b3b 1d67 eebf 857d 45c7 4a6b ebbf
00000370: ffb9 6be0 8376 ecbf c7e3 bd41 f097 ecbf
00000380: 651e d246 eadc ecbf 0d0b 5810 3f9e edbf
00000390: 3912 7ddc f39b edbf 8d77 eccc 7965 eebf
000003a0: a932 b543 3805 edbf d190 ff67 09d1 edbf
000003b0: 1919 ff15 6e98 ecbf b3e9 56a6 d4c4 ecbf
000003c0: 571a ebb9 c1ef ecbf 1bf7 f7f0 a1e3 ecbf
000003d0: c183 c145 638c ebbf c379 01cd 5c7f ecbf
000003e0: fba1 e4ac c4db ecbf 4dd2 f5e2 0099 edbf
000003f0: 2b7d 42db a617 eebf 594a 19d6 c9b8 edbf
-0.8927471805590369 -0.8983271805590115 -0.9014871805589971 -0.8822271805590848 -0.9193471805589158 -0.8775471805591061 -0.9139771805589403 -0.8812871805590891
-0.9120071805589492 -0.899107180559008 -0.9375271805588331 -0.8991671805590077 -0.9191671805589167 -0.8839671805590769 -0.9168071805589274 -0.919307180558916
-0.8950471805590264 -0.917567180558924 -0.8699571805591406 -0.8606271805591831 -0.9460171805587945 -0.9030671805589899 -0.9089671805589631 -0.8829471805590815
-0.87668718055911 -0.8834071805590794 -0.8926071805590375 -0.8752471805591165 -0.9379671805588311 -0.9255671805588875 -0.9286271805588736 -0.8814671805590882
-0.8779871805591041 -0.8894671805590518 -0.9321271805588577 -0.9396271805588235 -0.8935471805590333 -0.9079271805589678 -0.8945871805590285 -0.8970471805590173
-0.9014971805589971 -0.9119271805589496 -0.9173871805589248 -0.8977071805590143 -0.9135871805589421 -0.9041671805589849 -0.8983371805590115 -0.8747671805591187
-0.8746471805591193 -0.9076871805589689 -0.9156471805589327 -0.8989871805590085 -0.8737071805591236 -0.9298471805588681 -0.9546671805587551 -0.8989471805590087
-0.8807671805590914 -0.9235471805588967 -0.8678471805591502 -0.9319071805588587 -0.8758471805591138 -0.9128671805589453 -0.94040718055882 -0.9098071805589593
-0.8876071805590603 -0.910747180558955 -0.8852271805590711 -0.9012471805589982 -0.8871271805590625 -0.9291071805588714 -0.9370071805588355 -0.926127180558885
-0.9087071805589643 -0.9231471805588986 -0.939307180558825 -0.8789871805590995 -0.8789071805590999 -0.9227071805589006 -0.9382471805588298 -0.8729071805591272
-0.8908871805590454 -0.9011871805589985 -0.9028471805589909 -0.9102371805589573 -0.8773271805591071 -0.9280871805588761 -0.8934471805590337 -0.8900071805590494
-0.8830071805590812 -0.8790471805590993 -0.9048671805589817 -0.8839671805590769 -0.9365471805588376 -0.9163071805589297 -0.9202071805589119 -0.873607180559124
-0.896247180559021 -0.9470471805587898 -0.908987180558963 -0.8884671805590564 -0.8976171805590147 -0.9034471805589882 -0.8729871805591268 -0.8916871805590417
-0.9037271805589869 -0.9097671805589594 -0.8730871805591264 -0.884807180559073 -0.950087180558776 -0.8568471805592003 -0.8894671805590518 -0.8935471805590333
-0.9019671805589949 -0.9255671805588875 -0.9252871805588888 -0.9498871805587769 -0.9068871805589725 -0.9317671805588593 -0.893607180559033 -0.8990271805590083
-0.9042671805589845 -0.9027871805589912 -0.8608871805591819 -0.8905471805590469 -0.9018271805589956 -0.9249271805588904 -0.9403871805588201 -0.9288071805588728

hidden1_layer.weight_mu f8 [128, 128]
00000000: 330b a028 f7ce c0bf a495 26f0 9b3a b4bf
00000010: 8367 6749 8bb3 b4bf 2ba2 61ee 7dbb 67bf
00000020: 1b5b 3273 ef48 9cbf 7237 f0a9 909b bbbf
00000030: bbbe f99a 616d a9bf c566 d4d9 5a2c babf
00000040: 60ad 303d 893e bebf 77fa cb2d fc13 b8bf
00000050: 7e5d b826 1070 c2bf cc84 bcaa aa64 c3bf
00000060: 3832 2f7d 4671 c5bf 7476 0115 4f7d a6bf
00000070: 4e36 7587 89c4 b2bf e18a 993b f3df ae3f
00000080: 11ac 2d69 ad87 babf 9c05 0428 37a8 bdbf
00000090: 7371 c2e9 eb74 bd3f 9ca3 2601 d612 653f
000000a0: 578e c720 3a44 a2bf 0404 c870 3ece a4bf
000000b0: 4634 8fe5 b522 b6bf e968 c294 82fe 983f
000000c0: 3a24 223a 8be2 80bf df5e f48c 2032 b5bf
000000d0: 672b 76a8 d2bd adbf 29b3 1ca3 22e0 af3f
000000e0: a142 8b06 dc51 c2bf 243e b6ed c40e b6bf
000000f0: 6170 5784 bae5 833f e6b1 bae1 d051 b9bf
00000100: 8db4 754e 212f c0bf 9e49 5c66 bf5e aabf
00000110: 40b8 a8bc 4bb1 c2bf 3870 bfc2 f99c 933f
00000120: d18d fd84 79e2 c4bf e6dd 65d8 9768 ac3f
00000130: 6b0d 1b05 57ca acbf 16fd 122e 9965 c8bf
00000140: 26b5 d3a3 c584 923f 44ba 4654 b13a b5bf
00000150: d47e fddd 5ca8 7e3f 7060 7f1b 4e40 9fbf
00000160: 5bc3 e5a6 3d66 b2bf 8fdf 2d6b 3e0e a63f
00000170: 1812 da30 4399 913f a9ac 0793 18a1 c3bf
00000180: b800 621b d1a3 c1bf 57db ac9f dd98 b3bf
00000190: 63c0 afe1 3c26 91bf 42aa 6eb6 85ef b2bf
000001a0: 9c86 a671 3073 b8bf ceeb 03f1 dccc b4bf
000001b0: 2250 9b7c 5a5a b8bf 8404 9487 73f5 bdbf
000001c0: e095 8f2e ad35 c0bf f18d 4b81 4b6e a23f
000001d0: b69b f17d a4c7 98bf 9dba 3e37 c113 c7bf
000001e0: 6cc0 0609 bcad adbf b717 55ae c2a3 ac3f
000001f0: da19 1d83 6d1f a93f 6a90 0b11 cefa a33f
00000200: f740 08c6 aa71 a6bf 33f8 b4f7 5c4e adbf
00000210: c49b 1a8d aaea a5bf ccb2 fb05 03bd b4bf
00000220: 4401 fa87 60c0 a23f 90b8 1413 51b5 c1bf
00000230: c7ea 9c2a f795 bbbf 60e6 75d2 f1b9 91bf
00000240: 12fd 8070 f826 89bf 3ec5 bdfe 94dc b6bf
00000250: 46b3 7b14 2658 a5bf dfcf a654 8294 b2bf
00000260: 7f64 e48b df9b a9bf 957b 07f8 aa2f b2bf
00000270: 9ed6 cd3b f1c2 85bf 649a 72bb a022 bdbf
00000280: f3a2 633e 40a3 a3bf 8c24 405e 2fbb a13f
00000290: c642 7766 2918 c0bf de7e cf8e d273 a53f
000002a0: 8d93 3677 1ef5 a9bf f1e7 9fab a09e c8bf
000002b0: 300b 1fbe 13ea abbf 8815 ea52 0a2e b1bf
000002c0: 2b6b 86a5 6140 b5bf 58ba 9af3 9b74 bebf
000002d0: 76cc 56b3 29aa b8bf dd86 307d 5e16 b9bf
000002e0: cda9 fc9a 979a 923f 3e5d 5b8c b92d 9dbf
000002f0: 5c2e 345c 161a a63f 71a5 038d cd6b 803f
00000300: b6b9 6b39 f3b0 883f 3517 a6ff e725 a4bf
00000310: d8af 27de ccfb b4bf 5011 dbfc 8325 c5bf
00000320: bc09 c548 eada c4bf 926d fda1 b7a3 babf
00000330: d932 6ce6 1dd0 a0bf fa49 9461 7e89 c1bf
00000340: f7cd 567f 73c4 98bf d702 df95 2589 a33f
00000350: 542f 54e9 de36 983f 2c69 de33 7f77 c2bf
00000360: 0c2a e941 4b4d 853f 0e31 a2f8 d1fd bbbf
00000370: 6854 af40 080f 7cbf dc2a 06c0 2e4c 8a3f
00000380: 58c3 bff2 16df c0bf 7bc0 fcd1 e068 a3bf
00000390: e232 6ea0 8742 ab3f 6228 4e73 2679 95bf
000003a0: 9938 10ac 2373 adbf 9bbe 990c 02aa bcbf
000003b0: 47c4 1c2e 0613 af3f e7cc d293 b3dd b1bf
000003c0: b166 8f89 83c1 c1bf 43de be9f 6a2f a33f
000003d0: 1be9 1f96 a551 c5bf 24bd 06ef a59d c1bf
000003e0: 71c4 e151 d787 aabf e19e 9364 e4b6 b23f
000003f0: ebcd 9f8d cb4b b8bf 1c4c 5e6c 2817 a0bf
00000400: 2b43 caf5 ce2c a73f c191 8133 09a6 afbf
00000410: 9f3b 6e51 b65b aebf 6a95 b066 7028 b63f
00000420: 891d fdf9 4126 99bf 0f79 e99d 8bd7 a8bf
00000430: b340 9a7a dcb3 b53f 82ca aaa3 f78f b63f
00000440: 4301 18d0 d6ba b13f d15b 4945 9071 a9bf
00000450: 0100 6c6e c461 b53f 129e fd86 74f5 a63f
00000460: 59c9 c999 b8c0 a53f 3ec5 3cac 7e80 bebf
00000470: 124e 05e8 f1dd b0bf 9a1b 169e 28fe ae3f
00000480: 8a93 03e4 8d13 9b3f 1b2d ba49 f0d0 b7bf
00000490: 50ba 59cb 762a a2bf 4c97 4fd3 76e5 a0bf
000004a0: a698 77e7 af24 b83f 51dc a93e 6729 a03f
000004b0: 29fc 90f1 9e1e 9d3f 417c 8f03 1684 c1bf
000004c0: fdb6 e55f cf4c 923f 2749 8824 75b6 a33f
000004d0: 8155 5e07 2ca1 b2bf 314c 8dfb 5500 a03f
000004e0: 8fa7 d537 4cf7 a73f 761c c884 eb05 bcbf
000004f0: 3d3d 857c 243f a0bf ad4b a940 5003 93bf
00000500: af34 b29b 26a9 aabf c24d 692d d4ea af3f
00000510: de45 9b3b 3581 b43f d54a e44d b83c a8bf
00000520: cef9 eac0 d064 b7bf dfed d6b1 3f98 b43f
00000530: 5383 4d65 e279 b03f 019b c8b5 97b9 92bf
00000540: 77ef b5aa 522a a9bf b89e cfdb 0b39 b9bf
00000550: 6c03 a657 6d80 8ebf 6b12 12a3 078a b8bf
00000560: b2e7 f3c7 c176 b33f 9a9f 0892 13a9 bebf
00000570: 1eaf 4dab 56f0 af3f afc3 4fbf d7fe af3f
00000580: 0a99 d62e 05c0 b1bf af16 a3bd 1f24 b4bf
00000590: f2b9 ed05 f5c0 b9bf 1e3c 781e 4941 b13f
000005a0: 2e76 67c1 160e b5bf a4cc 8069 5b0c 8cbf
000005b0: c85e 3bf6 5088 9c3f b318 d3bf a38c b13f
000005c0: 8441 5917 5382 a8bf 6666 89cc c898 9abf
000005d0: cedf 0bad 43a9 b4bf 0f77 a2eb 707f b5bf
000005e0: 39b9 ccab ec77 973f 9cb5 bb4f 42ea bcbf
000005f0: 4802 1b7a 726a b7bf bd3b 2ad5 1989 a03f
00000600: e8c0 aa43 d84f aebf 4412 325b 347b 733f
00000610: 64d5 69fe dc70 6b3f 3eb4 f357 5ea7 b03f
00000620: 3d06 e759 e207 abbf ec9f b9ce 5552 b7bf
00000630: 8734 1708 23c0 acbf af90 f4b5 e23f ab3f
00000640: 1605 daa2 8ffd afbf 93c1 7f41 5872 ac3f
00000650: 2769 7db2 67af babf 00db 4a92 500a 70bf
00000660: 6195 23c3 07b7 a93f 6dc9 382b e779 a23f
00000670: 6dda 31bd 9a04 a2bf cac6 7507 2495 b4bf
00000680: 8ef2 12e3 849a b73f d71c 1099 b77c aabf
00000690: 40f7 0c2d c437 993f ed8d eefd 118a b7bf
000006a0: 03a2 b6f3 e896 b73f 81a2 0e7b a5ed 92bf
000006b0: af9d 34ef 5f21 b4bf 001c 78f3 9038 a5bf
000006c0: 8864 994b bb05 8bbf b7cb f9c7 3235 b1bf
000006d0: c903 0782 2336 b23f d2f3 712e a7c6 623f
000006e0: 9ad4 9792 65ae b4bf e716 18ac 6a36 b7bf
000006f0: d283 70f6 2e24 b9bf 9faf 705e dfc8 97bf
00000700: f888 20d6 0df7 a33f 3bc5 e31f 01ce 93bf
00000710: 92cf bf44 df81 95bf fb61 57d1 6da9 92bf
00000720: 59d1 1bf6 3c13 9bbf 54f4 647a c1db b23f
00000730: 21e0 4292 253e b1bf 553c d6df d5a3 aa3f
00000740: 523e e0ca 341e 82bf f5e0 2d46 99ba aa3f
00000750: a9b9 a392 9a39 90bf 035c 31d0 3555 afbf
00000760: 61bd f5b8 9e02 aebf 41c4 77d3 8e87 b5bf
00000770: cf65 1ddb c2d2 ad3f 3512 065b 16ab 963f
00000780: d44f fc66 cd79 babf 721a ab01 647d b03f
00000790: 7413 504e 618b a7bf 104f e48f 1112 b43f
000007a0: d227 875f c484 a23f 94bc c20b a67f 8abf
000007b0: 2cfa a6f1 1bff 773f dc68 83cc 6105 a9bf
000007c0: d6e6 49c0 944e b1bf d90e c03f bd24 a13f
000007d0: b818 19bb 54ae b33f cbd9 df40 17e1 b3bf
000007e0: 8816 1fe3 b274 923f f444 db1a bf5d c0bf
000007f0: a1f5 66a4 2e91 b23f 36f6 c39d 5e3b acbf
-0.13131608470583842 -0.07901930440001209 -0.08086462537849397 -0.0028970203011804605 -0.027621976285980936 -0.10784248494038964 -0.049662637870708314 -0.10223930185420745
-0.11814172500515019 -0.09405494802556712 -0.14404489412912008 -0.15150960289705606 -0.1675193892719038 -0.0439247811452618 -0.07331142003132493 0.06030235388313599
-0.10363277261573979 -0.1158480141348463 0.11506533104915721 0.0025724582457837385 -0.035676781178861354 -0.040636016146898185 -0.0864671407172902 0.024408378915361437
-0.008244598113622204 -0.08279612962030168 -0.05808885866561902 0.06225689164270982 -0.14312315291910685 -0.08616286090386233 0.009715516246551372 -0.09890466223686864
-0.12643829661411524 -0.0515041172458439 -0.14603563987606272 0.019153501998389028 -0.16316145890878755 0.05548548237396371 -0.05623123109173885 -0.19060053586688558
0.018084610103803155 -0.08292682940985069 0.0074847819922465204 -0.030518742016142075 -0.07187257122656147 0.04307742174472572 0.01718621240299187 -0.1533537595672432
-0.13781179272701194 -0.07655129574128004 -0.016747428202450353 -0.07396732047951907 -0.0955076482264538 -0.08125096210635194 -0.09512868444591097 -0.11702653942121982
-0.1266380765293169 0.03599773362455128 -0.024199075877188135 -0.1802903671027324 -0.05796611414132333 0.05593689325409861 0.04906789994724976 0.03902286489554359
-0.04383596103082426 -0.05723848842397707 -0.04280598614177891 -0.08100909133981843 0.03662397060270675 -0.13834584647833426 -0.10775704183917433 -0.017310884924404468
-0.012281361516328224 -0.08930331439275549 -0.04168814659155955 -0.0725785690945595 -0.05001734335582685 -0.07103985362435446 -0.010625729215216592 -0.11380962921485033
-0.03835488092028596 0.034631233458704974 -0.12573735717025708 0.04189928048412893 -0.05069823460806964 -0.1923409307490256 -0.054520241697466054 -0.06710876964833379
-0.08301363268985244 -0.1189668149697608 -0.09634647968668894 -0.09799757534394922 0.01816784747567528 -0.028494738761620335 0.04316778064284385 0.008018117776787933
0.012056255521625352 -0.03935170169556416 -0.08196716712671959 -0.16520738455268225 -0.16293076089102765 -0.10406062798340646 -0.0328378051545763 -0.13700847401248933
-0.024186901709709798 0.03815572218400625 0.0236468152916552 -0.14427175552993654 0.010401332806528017 -0.1093417388930826 -0.006850273358357396 0.01284061931143781
-0.13180815556509162 -0.03790953219720535 0.053241957029148926 -0.02096996382491801 -0.05751906848318917 -0.11196911628371213 0.060692017678214465 -0.06978914603205376
-0.13871807305149766 0.03747113418597483 -0.16655416326813896 -0.1376235406037064 -0.051817635293340276 0.07310321288570833 -0.09490654189703888 -0.031426680782850464
0.04526373625151899 -0.06181362870919172 -0.059293458404787495 0.08655455119204239 -0.02456000412283069 -0.04851948073040734 0.08477571480966865 0.08813426728992549
0.06925718861021317 -0.04969454618247194 0.08352306075903472 0.044841424444538217 0.04248597028062546 -0.11914817528738283 -0.06588661112373753 0.06053282670750733
0.026441781083935058 -0.09303190040570934 -0.03548022491746805 -0.0330006726215247 0.09430980111173656 0.0315658821099808 0.02843712186244943 -0.13684344457485234
0.01787113211451351 0.03850141592933403 -0.0727717893590434 0.03125256248190345 0.046808606925721745 -0.10946533195247973 -0.03173173923516479 -0.018567327448476046
-0.05207176828944548 0.06233847669923477 0.08009655671346347 -0.04733825636698944 -0.09138207158955611 0.08044813243662173 0.0643598077126744 -0.018286104650679928
-0.04915102323408765 -0.09852670780639528 -0.014893392789191849 -0.09585616809096968 0.0760308373609451 -0.11976740184093018 0.06238051262957199 0.06249117098184997
-0.06933624642860906 -0.07867620830355791 -0.10060054201833404 0.06740242952240336 -0.0822462293794721 -0.013695444256973062 0.027863755253604322 0.06855224068849246
-0.047869297599961974 -0.025973451122217737 -0.08070776915326336 -0.08397584679411473 0.02291841314870988 -0.11294950911152174 -0.09146800500003238 0.03229599692451
-0.059202917347080775 0.004756168858084001 0.0033497158322527854 0.06505384108795995 -0.05279452655259973 -0.09110008522986818 -0.05615338777315864 0.05322178336271698
-0.06248139250693378 0.055559881206025306 -0.10423896892226435 -0.0039160868952226036 0.05022453553264473 0.0360862961064353 -0.03519137916093915 -0.08040070707445604
0.09220152419852409 -0.051732766565743375 0.024626794099496196 -0.09195053529270299 0.09214645338091292 -0.018484674106419966 -0.07863425817469392 -0.04144719097171645
-0.013194525951961703 -0.06721799261303728 0.07113859104630572 0.0022919907819969132 -0.0807860834973603 -0.09067408277050114 -0.09820836559857973 -0.02322720540921319
0.03899424780708388 -0.019340531894106432 -0.021003235407945527 -0.01822444524973042 -0.026440575143128118 0.07366570699828517 -0.06735453434782858 0.0520312152613022
-0.008846676293642695 0.05220488530807358 -0.01584474105850978 -0.061196977295075804 -0.05861373908816848 -0.08409969961918852 0.058248605010429715 0.022137021356245696
-0.10342105640694338 0.06441330948573823 -0.0459852607819248 0.0784007049845139 0.03616918245423019 -0.012938782915027404 0.005858525425024779 -0.04886918660641168
-0.06760530180499855 0.033483423263559416 0.07687882964919168 -0.0776533635506446 0.018023295509712628 -0.1278609162459713 0.07252780450558884 -0.05514045406196681
